src/checkpoints/BaseModel/BaseModel_generator.pt (torch, 145651 bytes, 70 tensors)

bias f4 [32]
0	0xbd8365c7	-0.06415897
1	0x3e07696e	0.13223812
2	0x3e1985ab	0.14992397
3	0xbc4a83eb	-0.012360553
4	0xbe7988c0	-0.24368572
5	0x3e09c53e	0.13454148
6	0xbdfdfdd9	-0.12401933
7	0x3c16d6f7	0.009206525
8	0x3e09ffbd	0.13476463
9	0x3dd804e9	0.105478115
10	0xbe169500	-0.14705276
11	0x3e407057	0.18792854
12	0xbde35cbb	-0.11101671
13	0x3e68da94	0.22739631
14	0x3e1073c1	0.14106657
15	0x3e26c630	0.1628654
16	0x3dc411bf	0.09573697
17	0x3e92e92f	0.2869353
18	0xbe856920	-0.26056767
19	0xbbe5905b	-0.007005734
20	0xbe0a3706	-0.13497552
21	0x3e8cc413	0.27493343
22	0x3d77c3b8	0.060489386
23	0x3d3c586a	0.045982756
24	0xbe15b991	-0.14621569
25	0x3cc5f818	0.024166152
26	0xbe4c359a	-0.19942322
27	0x3e903e1c	0.28172386
28	0xbe58578c	-0.21127146
29	0x3e5b2f43	0.21404748
30	0xbd11c33c	-0.03558658
31	0x3e1137d3	0.14181451

weight_orig f4 [32, 12, 1]
0	0x3e445fe0	0.19177198
1	0x3d1672ee	0.0367307
2	0xbdf37905	-0.11888317
3	0x3b38b890	0.002818618
4	0x3dedf922	0.11619784
5	0xbe44b0c7	-0.1920806
6	0x3e81cab9	0.25349978
7	0xbe364e48	-0.178033
8	0x3e1577cc	0.1459648
9	0xbda26d3a	-0.079309896
10	0xbe396e75	-0.18108542
11	0xbe377bf7	-0.17918383
12	0x3dabcb4f	0.083883874
13	0xbe55c0bf	-0.20874308
14	0x3dbc9659	0.09208364
15	0xbb909dee	-0.004413358
16	0xbd7b455e	-0.06134545
17	0x3d8bb648	0.06821877
18	0xbdcbdf63	-0.09954717
19	0x3e316fcb	0.17327802
20	0xbe299944	-0.16562372
21	0x3e7cb245	0.2467738
22	0xbd3c2dd5	-0.045942146
23	0xbd215072	-0.03938336
24	0xbd88251b	-0.06647702
25	0xbe636d80	-0.2220974
26	0xbe8af4a1	-0.27139762
27	0x3cd6d385	0.026223907
28	0x3df61099	0.120148845
29	0xbb642729	-0.003481338
30	0x3db3e161	0.08783222
31	0x3c01192b	0.007879536
32	0x3de5ae57	0.11214893
33	0x3d18371a	0.037161924
34	0x3d2e774e	0.042594247
35	0xbe6c8ef9	-0.23101415
36	0xbe7d6d4c	-0.24748725
37	0x3e2a8858	0.16653574
38	0xbddd997a	-0.10820289
39	0xbe7d9872	-0.24765185
40	0x3e37cfff	0.17950438
41	0xbde1d41b	-0.11026784
42	0xbd021df4	-0.031766847
43	0x3e531a2b	0.20615451
44	0xbe37afd6	-0.1793817
45	0xbe12a393	-0.14320211
46	0x3e1e1ed1	0.15441443
47	0x3e488fa8	0.1958605
48	0x3e0e6825	0.13906915
49	0x3e3f84b6	0.18702969
50	0xbd50d086	-0.050980113
51	0x3e2a7bf5	0.16648848
52	0xbe052439	-0.13002099
53	0x3e5d98eb	0.21640365
54	0x3e05a49f	0.13051079
55	0xbca297ff	-0.019847868
56	0x3acb66d6	0.0015518318
57	0xbdc93b0c	-0.098257154
58	0xbc8cde1d	-0.017195756
59	0x3e926942	0.2859593
60	0xbca3cc92	-0.019995008
61	0x3dd7d975	0.105395235
62	0x3c82ca0c	0.015965484
63	0x3e64fb13	0.22361402
64	0x3e8030a6	0.25037116
65	0xbdf093ea	-0.11746962
66	0xbe614956	-0.22000632
67	0xbd9eebd6	-0.07759826
68	0x3d9b7579	0.075907655
69	0xbe730a09	-0.23734297
70	0x3e5bb8b7	0.21457182
71	0x3e57d8cb	0.21078794
72	0x3e32c8df	0.17459439
73	0xbdeee9ce	-0.116656885
74	0x3e60c0f9	0.21948613
75	0x3e65efff	0.22454832
76	0x3d7c79c5	0.061639566
77	0x3e92265b	0.28544888
78	0xbe170894	-0.14749366
79	0x3da796f5	0.0818309
80	0x3e0432c8	0.12909997
81	0x3e2957b7	0.16537367
82	0xbe122a54	-0.1427396
83	0x3e40b062	0.18817285
84	0x3d90134e	0.07034932
85	0x3cc05a27	0.023480488
86	0x3de9121a	0.11380406
87	0xbe8bac1b	-0.27279744
88	0xbe45eb88	-0.1932813
89	0xbe518c90	-0.20463777
90	0xbd74ea9e	-0.05979406
91	0xbd297b10	-0.041377127
92	0x3de7bb28	0.11314994
93	0x3e58176d	0.21102686
94	0xbe827b85	-0.25484863
95	0xbe92f144	-0.28699696
96	0x3c3d86d2	0.011567788
97	0xbe7d690f	-0.24747108
98	0xbe22b928	-0.15890944
99	0x3e4a57b9	0.19760026
100	0x3db14dff	0.08657455
101	0x3e75675d	0.23965211
102	0x3e1a2815	0.15054353
103	0x3d8d79aa	0.06907971
104	0xbdc88766	-0.0979145
105	0x3e8d8814	0.27642882
106	0xbdfe2ad8	-0.124105155
107	0x3dbe4802	0.09291078
108	0x3e45b187	0.19306003
109	0x3e4f99a4	0.20273453
110	0x3d09318a	0.03349451
111	0x3db4b3ed	0.088233806
112	0x3e8b5d36	0.27219552
113	0x3d6b5fc4	0.057464376
114	0xbe53a9d1	-0.20670249
115	0x3e764bed	0.24052401
116	0x3d9ced3a	0.07662435
117	0xbe7bbda7	-0.24584065
118	0xbe6aa24e	-0.22913477
119	0x3b63a395	0.0034734954
120	0x3cfac17c	0.030609839
121	0xbe434001	-0.19067384
122	0x3e86fb73	0.26363716
123	0x3debd339	0.11514897
124	0xbe2a2e20	-0.16619158
125	0xbe18e0f2	-0.1492956
126	0x3e3818e2	0.17978242
127	0xbe8b4e7f	-0.27208325
128	0xbe5a615f	-0.21326207
129	0x3c82fa4c	0.015988491
130	0x3e845fd3	0.25854358
131	0x3e879f71	0.26488832
132	0x3e823255	0.25429025
133	0x3d62ffc3	0.055419695
134	0xbe223a80	-0.15842628
135	0xbe747669	-0.23873295
136	0x3e93687f	0.28790662
137	0xbe833ed3	-0.2563387
138	0x3e86fb83	0.26363763
139	0xbc54eb1a	-0.012995506
140	0x3e185918	0.14877737
141	0x3bf6590c	0.0075179394
142	0xbe8986cf	-0.26860663
143	0xbe24f9dc	-0.16110939
144	0xbe92e7a3	-0.2869235
145	0x3d96ecf8	0.07369417
146	0xbdaef2ea	-0.08542426
147	0x3e94062c	0.2891096
148	0xbd97f62e	-0.07420002
149	0x3e4df2b8	0.20112121
150	0xbe906a26	-0.28205985
151	0xbe078e33	-0.13237838
152	0xbde08e6e	-0.10964666
153	0x3e361e19	0.17784919
154	0x3db5dce0	0.08880019
155	0x3e94359f	0.2894716
156	0x3ddce509	0.107858725
157	0x3d27bae0	0.040949702
158	0xbdce75cb	-0.10081061
159	0x3e348d11	0.17631938
160	0x3dddc280	0.108281136
161	0x3e5b7d8b	0.2143461
162	0xbe7021a0	-0.23450327
163	0x3dba9d7a	0.091120675
164	0xbe326140	-0.1741991
165	0xbe1ceb2a	-0.15324083
166	0x3d359468	0.044330984
167	0xbe41e300	-0.1893425
168	0xbe1f7ee7	-0.15575753
169	0xbd45dd62	-0.04830683
170	0xbe0ee20e	-0.1395342
171	0xbe60cb4c	-0.21952552
172	0x3b8a5505	0.004221561
173	0x3db9fe4c	0.090817064
174	0xbdcdaf3c	-0.10043189
175	0x3e8f7077	0.2801549
176	0x3d75aff1	0.059982244
177	0x3e570d87	0.21001254
178	0xbdeb7823	-0.11497524
179	0x3df51717	0.11967295
180	0xbe6ba6fa	-0.23012915
181	0x3e908aad	0.282308
182	0xbe8a6995	-0.27033678
183	0x3e305a81	0.17222025
184	0xbe4460da	-0.19177571
185	0xbe91016e	-0.28321403
186	0x3e1b53cf	0.15168689
187	0xbe46d025	-0.19415338
188	0xbdb75f05	-0.089536704
189	0xbdd95b61	-0.10613132
190	0xbe007006	-0.12542734
191	0x3e1a65b5	0.1507786
192	0xbdc0f82c	-0.09422335
193	0xbe2c0cff	-0.16801833
194	0x3de9f21e	0.11423133
195	0xbe8b6373	-0.2722431
196	0xbe0aaadb	-0.13541739
197	0x3dbd01ff	0.09228896
198	0x3d0277fe	0.031852715
199	0xbde55ccf	-0.111993425
200	0xbe8ad2b0	-0.27113867
201	0x3e077123	0.13226752
202	0x3e395cf2	0.18101862
203	0xbe49e4c0	-0.19716167
204	0x3e808c01	0.25106815
205	0x3e1fbb08	0.1559869
206	0x3e8bf770	0.27337217
207	0x3e21ca36	0.15799794
208	0xbe8baf4d	-0.2728218
209	0xbe7ce762	-0.2469764
210	0xbd4a4598	-0.049382776
211	0xbb9e20b1	-0.0048256745
212	0x3d9cbe8c	0.076535314
213	0xbd840165	-0.064455785
214	0x3cf88298	0.03033571
215	0x3e3148f2	0.17312983
216	0xbd07d6d4	-0.03316386
217	0x3e14a533	0.14516144
218	0x3e508918	0.20364797
219	0x3e881589	0.2657893
220	0x3e8b6b8b	0.27230486
221	0xbe7d2aee	-0.24723408
222	0x3d970a39	0.07374997
223	0x3e22b8b9	0.15890779
224	0xbd7dd79b	-0.061973196
225	0xbe32fcf4	-0.17479306
226	0xbd227957	-0.0396665
227	0x3e3ef0ea	0.18646589
228	0x3db10eca	0.08645399
229	0xbc95b1dd	-0.018273288
230	0xbd386643	-0.0450194
231	0xbe0d5c31	-0.138047
232	0x3e6b1627	0.22957669
233	0x3cd2c27c	0.025727503
234	0xbe17b046	-0.14813337
235	0xbe8b656f	-0.27225825
236	0xbe73ada9	-0.23796715
237	0xbe05f7bd	-0.13082786
238	0xbe37b73a	-0.17940989
239	0x3e835457	0.25650284
240	0x3e5bea17	0.21476017
241	0x3dca46cb	0.09876784
242	0x3e582a1e	0.21109816
243	0x3dcf61a3	0.101260446
244	0x3e713cae	0.23558304
245	0x3e291747	0.16512786
246	0xbdd77d14	-0.10521904
247	0xbe016342	-0.1263552
248	0x3ddda07f	0.10821628
249	0xbe3a60d1	-0.18200995
250	0x3dee4e36	0.11636011
251	0xbcc783c3	-0.024354821
252	0xbd3c4df9	-0.045972798
253	0xbdf77c1e	-0.1208422
254	0xbe83a2a3	-0.2571002
255	0x3e3917e7	0.18075524

weight_u f4 [32]
0	0x3cb7b23b	0.022423854
1	0x3df7d4c6	0.1210113
2	0x3e45e59d	0.19325872
3	0xbc5e64d6	-0.013573846
4	0xbe0eb83a	-0.13937464
5	0xbea5fb7c	-0.3241843
6	0xbd9c3e20	-0.07629037
7	0x3e1ed3ab	0.15510432
8	0x3e2cdf13	0.16881971
9	0xbe0657f1	-0.13119484
10	0xbe4401cd	-0.19141312
11	0x3e00ef74	0.12591344
12	0xbe02c38e	-0.1276991
13	0xbca0b21f	-0.019616185
14	0x3e4bfb97	0.19920193
15	0xbe022c08	-0.12712109
16	0x3e482948	0.19546998
17	0xbe9d447c	-0.30716312
18	0xbe8a1a7b	-0.26973328
19	0xbdad014c	-0.08447513
20	0xbe492d55	-0.19646199
21	0xbd99d1e4	-0.075107366
22	0x3eb04129	0.34424713
23	0x3deb9876	0.11503689
24	0xbe4ae10e	-0.19812414
25	0x3d70d23e	0.058794253
26	0xbe106adf	-0.14103268
27	0xbe99496c	-0.2993883
28	0xbe291194	-0.16510612
29	0xbd82e4c2	-0.06391288
30	0x3c8fe6d5	0.017566124
31	0x3e64ac3b	0.22331326

weight_v f4 [12]
0	0xbe4a8d84	-0.19780546
1	0xbeb72ce7	-0.35776445
2	0xbeaaeaac	-0.33382165
3	0xbee8d105	-0.4547197
4	0xbd4a8be5	-0.04944982
5	0x3e985c15	0.29757753
6	0x3e773ebd	0.24145027
7	0x3e4f264b	0.20229451
8	0xbd6f9529	-0.05849186
9	0x3e9c71b3	0.30555496
10	0xbe6119d2	-0.21982506
11	0xbed8d3a4	-0.4234897

weight f4 [32, 12, 1]
0	0x3e075eb0	0.13219714
1	0x3ccf6a54	0.025319256
2	0xbda7d387	-0.081946425
3	0x3b009b79	0.001962392
4	0x3da40af6	0.08009903
5	0xbe079449	-0.1324016
6	0x3e32f18b	0.17474954
7	0xbdfb4eb5	-0.122708715
8	0x3dce0eef	0.10061442
9	0xbd5fd9b0	-0.054650962
10	0xbdff9f29	-0.12481529
11	0xbdfcf311	-0.12351049
12	0x3d6cd75b	0.057822566
13	0xbe1355b7	-0.14388166
14	0x3d81ff64	0.0634754
15	0xbb475d56	-0.0030420623
16	0xbd2d35ca	-0.042287625
17	0x3d409e2c	0.047025844
18	0xbd8c8b88	-0.06862551
19	0x3df4a10e	0.11944781
20	0xbde9d0b9	-0.11416764
21	0x3e2e2e13	0.17009763
22	0xbd01a444	-0.031650797
23	0xbcde46e8	-0.02713342
24	0xbd3ba7a3	-0.045814168
25	0xbe1cc239	-0.15308465
26	0xbe3f9155	-0.18707784
27	0x3c940a86	0.018071424
28	0x3da99af7	0.0828151
29	0xbb1bd828	-0.0023779962
30	0x3d77f82a	0.060539402
31	0x3bb1e73c	0.0054291766
32	0x3d9e54bf	0.07731008
33	0x3cd1dfa9	0.025619345
34	0x3cf09318	0.029367015
35	0xbe230cde	-0.15922877
36	0xbe2eaf0c	-0.17058963
37	0x3deb182f	0.11479222
38	0xbd98c57c	-0.07459542
39	0xbe2ecdbc	-0.17070669
40	0x3dfd68c9	0.12373502
41	0xbd9baae3	-0.076009534
42	0xbcb35d31	-0.021895023
43	0x3e1185bd	0.14211173
44	0xbdfd3b74	-0.123648554
45	0xbdca2596	-0.0987045
46	0x3dd9fbfb	0.106437646
47	0x3e0a3f08	0.13500607
48	0x3dc45137	0.09585803
49	0x3e0402d9	0.12891711
50	0xbd0ff11b	-0.035142045
51	0x3deb0754	0.11476007
52	0xbdb78351	-0.089605935
53	0x3e18bfd7	0.14916931
54	0x3db83d66	0.08996086
55	0xbc5fe924	-0.013666425
56	0x3a8c3113	0.0010695778
57	0xbd8ab5c8	-0.06772953
58	0xbc4267a5	-0.011865531
59	0x3e49d284	0.19709212
60	0xbc61daa4	-0.013785038
61	0x3d94c986	0.07265
62	0x3c344ae2	0.011004182
63	0x3e1dd934	0.15414888
64	0x3e30bb1b	0.17258875
65	0xbda5d496	-0.08097188
66	0xbe1b4bd9	-0.15165652
67	0xbd5b168a	-0.05348829
68	0x3d565047	0.052322652
69	0xbe2786aa	-0.16359964
70	0x3e177327	0.14790021
71	0x3e14c2ef	0.14527486
72	0x3df67f9d	0.12036059
73	0xbda4ae6d	-0.080410816
74	0x3e1aee07	0.15129863
75	0x3e1e7eec	0.15478104
76	0x3d2e096a	0.042489447
77	0x3e497ae0	0.1967578
78	0xbdd03689	-0.10166652
79	0x3d670786	0.05640366
80	0x3db640fd	0.08899114
81	0x3de97433	0.11399116
82	0xbdc9821a	-0.09839268
83	0x3e04d14f	0.1297047
84	0x3d4696c6	0.048483633
85	0x3c849844	0.016185887
86	0x3da0a80d	0.07844553
87	0xbe408e9d	-0.18804403
88	0xbe086dd0	-0.1332314
89	0xbe106f6b	-0.14105003
90	0xbd28d312	-0.041216917
91	0xbce99dc5	-0.028517613
92	0x3d9fbe1a	0.07799931
93	0x3e14f313	0.1454585
94	0xbe33df49	-0.17565645
95	0xbe4a90bf	-0.19781779
96	0x3c02cfa9	0.00798408
97	0xbe2eae09	-0.17058577
98	0xbde04d95	-0.109522976
99	0x3e0b798f	0.1362059
100	0x3d7472b6	0.05967971
101	0x3e2927f3	0.16519146
102	0x3dd487c3	0.10377457
103	0x3d430858	0.04761538
104	0xbd8a3878	-0.06749052
105	0x3e431d36	0.19054112
106	0xbdaf3151	-0.08554328
107	0x3d832bfe	0.06404875
108	0x3e08454a	0.13307682
109	0x3e0f18cd	0.13974304
110	0x3cbd2992	0.023091111
111	0x3d7927bc	0.06082891
112	0x3e401ee5	0.18761785
113	0x3d224079	0.039612267
114	0xbe11e5c0	-0.14247799
115	0x3e29c45a	0.16578808
116	0x3d585b5e	0.05282151
117	0xbe2d844a	-0.16944996
118	0xbe21bf35	-0.15795596
119	0x3b1c88b5	0.0023885195
120	0x3cacad49	0.021078723
121	0xbe0696e3	-0.13143496
122	0x3e3a16b3	0.18172722
123	0x3da2943f	0.07938432
124	0xbdea9a51	-0.11455215
125	0xbdd2c86c	-0.10292134
126	0x3dfdd068	0.12393266
127	0xbe400824	-0.18753105
128	0xbe168862	-0.14700463
129	0x3c34905b	0.011020745
130	0x3e367c43	0.1782084
131	0x3e3af5e9	0.1825787
132	0x3e337cf7	0.17528139
133	0x3d1c7915	0.03820141
134	0xbddfa51c	-0.10920164
135	0xbe287e64	-0.16454464
136	0x3e4b37b1	0.19845463
137	0xbe34f191	-0.17670275
138	0x3e3a1691	0.18172671
139	0xbc12b100	-0.008953333
140	0x3dd20d0d	0.102563955
141	0x3ba9e96d	0.005185297
142	0xbe3d957e	-0.18514058
143	0xbde36696	-0.11103551
144	0xbe4a860a	-0.19777694
145	0x3d500fb2	0.05079622
146	0xbd71358e	-0.058888964
147	0x3e4c1033	0.19928055
148	0xbd5188da	-0.051155902
149	0x3e0df696	0.13863596
150	0xbe4716d0	-0.19442296
151	0xbdbae1f1	-0.09125126
152	0xbd9ac759	-0.07557554
153	0x3dfb11cd	0.122592546
154	0x3d7aaa20	0.0611974
155	0x3e4c507a	0.19952574
156	0x3d983ebd	0.074338414
157	0x3ce73e53	0.02822796
158	0xbd8e4fa9	-0.06948788
159	0x3df8e94e	0.12153874
160	0x3d98d8a3	0.07463195
161	0x3e174aeb	0.14774673
162	0xbe2583de	-0.16163585
163	0x3d80a685	0.06281761
164	0xbdf5eba2	-0.12007834
165	0xbdd85847	-0.105637126
166	0x3cfa500e	0.030555751
167	0xbe05a5ce	-0.1305153
168	0xbddbe0d8	-0.10736245
169	0xbd0868be	-0.033303015
170	0xbdc4ffb4	-0.09619084
171	0xbe1af357	-0.1513189
172	0x3b3edcda	0.0029123337
173	0x3d803118	0.06259364
174	0xbd8dcadc	-0.06923458
175	0x3e45be7d	0.19310947
176	0x3d294a42	0.041330583
177	0x3e144152	0.14478043
178	0xbda24699	-0.07923622
179	0x3da8f554	0.082499176
180	0xbe226fde	-0.15862986
181	0x3e4740c7	0.19458304
182	0xbe3ed0b6	-0.18634304
183	0x3df30f0f	0.118681066
184	0xbe0758ef	-0.13217519
185	0xbe47e691	-0.19521548
186	0x3dd61e44	0.104549915
187	0xbe090463	-0.1338058
188	0xbd7cded8	-0.061735958
189	0xbd95d604	-0.07316211
190	0xbdb11756	-0.08647029
191	0x3dd4d14c	0.10391483
192	0xbd85037d	-0.06494806
193	0xbded30a9	-0.11581547
194	0x3da13d9a	0.07873078
195	0xbe40293e	-0.18765733
196	0xbdbf296b	-0.09334072
197	0x3d8248ee	0.063615665
198	0x3cb3dc70	0.021955699
199	0xbd9e185d	-0.07719491
200	0xbe3f601a	-0.18689004
201	0x3dbab7ad	0.091170646
202	0x3dff8c0c	0.12477884
203	0xbe0b2695	-0.13588937
204	0x3e31322a	0.17304292
205	0x3ddc3778	0.10752767
206	0x3e40f1df	0.18842266
207	0x3ddf0a94	0.108906895
208	0xbe409455	-0.18806584
209	0xbe2e54fc	-0.17024606
210	0xbd0b6a42	-0.034036882
211	0xbb596095	-0.003316914
212	0x3d581db7	0.052762713
213	0xbd3606d8	-0.04444012
214	0x3cab3e8a	0.020903844
215	0x3df45f74	0.11932269
216	0xbcbb47e3	-0.022861427
217	0x3dcceb6e	0.10005842
218	0x3e0fbeb9	0.14037599
219	0x3e3b99f9	0.18320455
220	0x3e40350c	0.18770236
221	0xbe2e82d4	-0.17042094
222	0x3d503bc9	0.050838266
223	0x3de0549a	0.109536365
224	0xbd2ef8e8	-0.042717844
225	0xbdf6c008	-0.12048346
226	0xbce008ef	-0.02734801
227	0x3e0399a4	0.12851578
228	0x3d74161d	0.0595914
229	0xbc4e4b6a	-0.012591222
230	0xbcfe36cc	-0.031031989
231	0xbdc2e2d3	-0.095159195
232	0x3e220c22	0.15824941
233	0x3c91428d	0.01773193
234	0xbdd122f7	-0.10211747
235	0xbe402d82	-0.1876736
236	0xbe27f88e	-0.1640341
237	0xbdb8b366	-0.090185925
238	0xbdfd4396	-0.123664066
239	0x3e350bce	0.17680284
240	0x3e17963a	0.148034
241	0x3d8b6e0d	0.068081
242	0x3e150096	0.14551005
243	0x3d8ef6c4	0.069806606
244	0x3e264c6d	0.16240092
245	0x3de91d02	0.11382486
246	0xbd94912c	-0.07254252
247	0xbdb25e42	-0.087093845
248	0x3d98c05b	0.07458564
249	0xbe00794e	-0.12546274
250	0x3da43de6	0.08019619
251	0xbc899e74	-0.01679919
252	0xbd01d36e	-0.031695776
253	0xbdaa95f0	-0.083293796
254	0xbe357bc6	-0.17722997
255	0x3dff2c9b	0.1245968

weight f4 [1, 32, 1]
0	0xbd23a6c0	-0.039953947
1	0xbd9a2886	-0.075272605
2	0xbde75c5a	-0.112969115
3	0xbdf53c6b	-0.119744144
4	0x3e09279a	0.13394013
5	0xbd56b430	-0.052417934
6	0xbe216716	-0.1576198
7	0xbc81ee15	-0.015860597
8	0xbd725c1f	-0.059169885
9	0xbccef63f	-0.025263904
10	0x3dbb0fbd	0.09133861
11	0x3d92626a	0.07147677
12	0x3e1d5bf5	0.1536711
13	0xbcc11ff3	-0.023574805
14	0xbdc64b5e	-0.09682344
15	0x3bce0285	0.0062869214
16	0x3d82f921	0.06395174
17	0x3d36689c	0.044533357
18	0x3d55cf2e	0.052199535
19	0x3d61280d	0.054969836
20	0x3c893e2c	0.016753279
21	0x3dbd838c	0.09253606
22	0xbdfcd074	-0.12344447
23	0x3d22ffda	0.03979478
24	0x3db47a59	0.088123985
25	0x3d71c7ac	0.059028313
26	0xbdc4443c	-0.09583327
27	0x3df233f3	0.11826315
28	0xbe299033	-0.16558914
29	0xbd0aa003	-0.033844005
30	0x3d24b73a	0.0402138
31	0xbde3c88c	-0.11122236

weight f4 [1, 32, 1]
0	0x3db8d953	0.09025826
1	0xbcce5e90	-0.025191575
2	0x3e183574	0.14864141
3	0x3d296f0e	0.041365676
4	0xbd7093cd	-0.058734704
5	0xbd296609	-0.041357074
6	0x3e2480cb	0.16064756
7	0x3daa0b44	0.0830293
8	0x3d0372f5	0.032092053
9	0x3dc7e26c	0.097599834
10	0xbe15fb38	-0.14646614
11	0x3df301e4	0.11865595
12	0xbdcf2686	-0.1011477
13	0x3bca9e96	0.0061834557
14	0xbe0fffb7	-0.14062391
15	0xbe220689	-0.15822805
16	0xbdae8309	-0.08521087
17	0x3dcb8d2a	0.09939034
18	0x3d3d21c8	0.046174794
19	0xbdc1b1e0	-0.09457755
20	0xbdf792c9	-0.12088544
21	0xbcb4f6f2	-0.022090409
22	0x3df00114	0.11718956
23	0x3e0a7331	0.13520505
24	0x3e1c41cc	0.15259475
25	0xbd902a97	-0.07039373
26	0xbe253230	-0.16132426
27	0xbe2ccff5	-0.16876204
28	0xbd96850a	-0.07349594
29	0x3dcc8c45	0.09987692
30	0xbe0ce92e	-0.13760826
31	0xbe13033d	-0.14356704

weight f4 [1, 32, 1]
0	0xbe1f4cf1	-0.15556695
1	0x3d348d36	0.04407998
2	0xbe31813b	-0.17334454
3	0x3c9cb0b8	0.019127235
4	0x3bbaa0f6	0.0056954576
5	0x3e10fcd0	0.1415894
6	0xbded1d8f	-0.115779035
7	0x3d727b3d	0.05919956
8	0x3db61b72	0.088919535
9	0x3d891a64	0.06694487
10	0x3d79b5d7	0.06096443
11	0xbc7304c2	-0.014832677
12	0x3d2fb0a2	0.04289306
13	0x3db65895	0.089036144
14	0xbc548a49	-0.012972423
15	0xbe09d7ba	-0.134612
16	0x3e13b1ed	0.14423342
17	0x3e14a2f8	0.14515293
18	0x3d517c89	0.051144157
19	0x3df0ad58	0.11751813
20	0x3db1f33d	0.08688972
21	0x3e27fb1b	0.16404383
22	0x3dec5c14	0.11541
23	0x3ddcf1cc	0.107883066
24	0x3d17e5f8	0.03708455
25	0x3e068baf	0.13139223
26	0xbdfc401a	-0.12316914
27	0x3e24c9df	0.16092633
28	0x3d92c070	0.07165611
29	0xbe12c586	-0.14333162
30	0xbcf63174	-0.030052878
31	0x3e1c0b6c	0.15238732

bias f4 [32]
0	0x3e1488b5	0.14505275
1	0x3e085d4a	0.13316837
2	0xbd5ac764	-0.05341281
3	0xbe132d52	-0.14372757
4	0xbd81ac56	-0.063316986
5	0xbe055534	-0.13020784
6	0x3d49968a	0.04921583
7	0x3d196dd4	0.037458256
8	0x3e19407f	0.1496601
9	0xbc3526f8	-0.011056654
10	0x3dde8bcf	0.1086651
11	0xbe012589	-0.12611975
12	0x3e12c8fa	0.14334479
13	0x3dbbd842	0.09172107
14	0xbdb9fe24	-0.090816766
15	0xbdb387f1	-0.08766163
16	0xbcb86350	-0.022508293
17	0x3d7a1602	0.061056145
18	0x3cbb3787	0.022853626
19	0xbd266825	-0.040626664
20	0x3dff0ea2	0.12453963
21	0xbd8c41b1	-0.06848467
22	0x3dd94931	0.10609663
23	0xbd4f8153	-0.050660443
24	0x3ce67dd8	0.028136179
25	0xbd3468fc	-0.044045433
26	0x3e09c32c	0.13453358
27	0xbe10f2b2	-0.14155081
28	0xbe1529c1	-0.14566709
29	0x3d25f8c4	0.040520445
30	0xbd08a537	-0.033360686
31	0xbb07175e	-0.0020613293

weight_orig f4 [32, 43, 1]
0	0x3e17fa0e	0.14841482
1	0xbd0dc23e	-0.034609072
2	0xbdea87bc	-0.114516705
3	0x3e001185	0.12506683
4	0xbd8485b4	-0.06470814
5	0x3e16ed41	0.14738943
6	0x3d4b6f33	0.049666595
7	0xbc744f5d	-0.0149115
8	0xbda6ae77	-0.08138745
9	0xbdcba554	-0.09943643
10	0xbd79a2b1	-0.06094617
11	0x3de9d3a3	0.114173196
12	0x3d918241	0.07104922
13	0xbd9f045f	-0.077645056
14	0x3cc183b4	0.023622371
15	0xbd7df5ed	-0.06200211
16	0xbdcd52f5	-0.100255884
17	0x3dff9ac6	0.124806926
18	0xbd8a74f2	-0.06760587
19	0xbda75433	-0.081703566
20	0xbc07a3ae	-0.00827877
21	0x3ce77208	0.028252617
22	0x3d8185c7	0.06324344
23	0xbde7e34e	-0.11322652
24	0xbe11affa	-0.14227286
25	0x3c9dfbca	0.019285101
26	0xbd36f542	-0.04466749
27	0x3d85de65	0.06536559
28	0x3d2610b7	0.040543284
29	0x3d2ff1b6	0.042955123
30	0x3c627c92	0.013823645
31	0x3ded418f	0.1158477
32	0xbdb11d95	-0.086482204
33	0xbd851c4f	-0.0649954
34	0xbd4c3c00	-0.049861908
35	0x3c807e4b	0.015685221
36	0xbb90d284	-0.0044196267
37	0xba7ab7b4	-0.0009564117
38	0xbe15a8a6	-0.14615116
39	0xbde7a7f1	-0.11311329
40	0xbcf06489	-0.029344814
41	0x3dc5cb2c	0.096578926
42	0xbd57bbec	-0.05266945
43	0xbd774b69	-0.06037465
44	0x3d7e1a54	0.062036827
45	0xbde308b2	-0.11085643
46	0x3d34dea3	0.044157635
47	0x3d8b17c4	0.06791642
48	0xbe00d510	-0.12581277
49	0x3ba6a22e	0.0050852513
50	0xbde98e8b	-0.11404141
51	0x3bb005c7	0.0053717825
52	0xbd54eedf	-0.051985618
53	0xbda49ef3	-0.0803813
54	0xbdb9011d	-0.090334155
55	0x3dce7968	0.1008175
56	0x3db5591f	0.08854889
57	0x3dfceb2f	0.12349545
58	0x3e037833	0.12838821
59	0xbc9873aa	-0.01860984
60	0x3de8e963	0.1137264
61	0x3da9c65d	0.08289788
62	0x3d951fec	0.07281479
63	0xbd28dfb0	-0.04122895
64	0x3e165f6b	0.14684837
65	0x3db70439	0.08936352
66	0x3d8e0477	0.06934445
67	0xbdff5a1b	-0.12468358
68	0xbd1241d2	-0.035707302
69	0xbd6fff12	-0.058592863
70	0xbd2d76f7	-0.04234978
71	0x3d08361c	0.033254728
72	0xbe0eb5fa	-0.13936606
73	0x3e136252	0.14392975
74	0xbcaa9a69	-0.020825582
75	0xbcbb7106	-0.022881042
76	0xbded3624	-0.11582592
77	0x3b4d2711	0.0031303803
78	0xbd91e7f3	-0.07124319
79	0x3db4759c	0.08811495
80	0xbd17029f	-0.036867734
81	0xbd63af8e	-0.055587344
82	0xbcd750d7	-0.026283665
83	0x3dddd84f	0.10832273
84	0x3e126328	0.14295638
85	0xbde0ec97	-0.10982626
86	0xbca465e1	-0.02006811
87	0xbc160a3c	-0.0091577135
88	0x3dcbc4ef	0.099496715
89	0x3e1054f2	0.14094904
90	0x3e054198	0.13013303
91	0xbb98f19d	-0.0046674744
92	0xbdd422f6	-0.10358231
93	0xbe110f40	-0.14165974
94	0x3d7e01d0	0.062013447
95	0xbe007763	-0.12545542
96	0x3da001e5	0.07812861
97	0xbe1cc21d	-0.15308423
98	0xbd3caf68	-0.046065718
99	0x3dd809e4	0.105487615
100	0x3db940b7	0.090455465
101	0x3c5b45c4	0.013383333
102	0xbe03c090	-0.12866426
103	0x38977d5f	7.223593e-05
104	0xbdaac9ca	-0.083392695
105	0x3d7d7fed	0.061889578
106	0x3c752b7c	0.014963981
107	0xbddc7170	-0.10763824
108	0x3db11e7a	0.08648391
109	0xbb4be767	-0.0031113268
110	0xbdf5690f	-0.11982929
111	0xbde73bc6	-0.11290698
112	0xbd9869fb	-0.07442089
113	0xbe06c1b4	-0.1315983
114	0x3d6b2df1	0.05741686
115	0x3c24b4d5	0.010052879
116	0x3d950f5b	0.072783194
117	0x3d0686ca	0.03284339
118	0x3d069f76	0.032866918
119	0x3dab9a7e	0.083790764
120	0xbd990c6e	-0.07473074
121	0xbdcb0e2b	-0.09914812
122	0xbd3c3ad0	-0.045954525
123	0x3d4c4af7	0.04987618
124	0xbcb75a15	-0.022381822
125	0xbdc85e3f	-0.09783601
126	0x3e08bb50	0.13352704
127	0xbe0fa076	-0.14026055
128	0x3deeeb5f	0.11665987
129	0x3c162128	0.0091631785
130	0x3cec46bc	0.028842323
131	0xbb6242f2	-0.0034524766
132	0x3d0e1adb	0.03469358
133	0xbc9143a8	-0.017732456
134	0x3df749a9	0.120745964
135	0xbdf667cc	-0.120315164
136	0xbddb1760	-0.10697818
137	0xbe1b02be	-0.15137765
138	0xbd0ec6be	-0.034857504
139	0xbca125f7	-0.019671423
140	0xbe1558ac	-0.14584607
141	0xbda1545a	-0.07877417
142	0xbd985e0f	-0.07439815
143	0xbd9ff905	-0.078111686
144	0x3dc3440b	0.095344625
145	0xbdbc4f7b	-0.09194847
146	0x3d3ec91d	0.046578515
147	0xbdbabf74	-0.09118548
148	0xbd7201ab	-0.059083622
149	0x3d05150e	0.032490782
150	0xbcde7bea	-0.027158696
151	0x3db25687	0.0870791
152	0xbdffe865	-0.124954976
153	0x3cb05689	0.021525638
154	0xbdca8303	-0.0988827
155	0x3dd2ed75	0.102991976
156	0xbd479e87	-0.048735168
157	0x3c1990f2	0.009372937
158	0xbd89652a	-0.06708749
159	0xbe07f3e9	-0.13276638
160	0xbe016042	-0.12634376
161	0x3de2eb79	0.11080069
162	0x3d4e8d16	0.05042752
163	0x3cd91d15	0.026503125
164	0xbe18f154	-0.1493581
165	0x3de2c372	0.110724345
166	0x3e0fe0d6	0.14050612
167	0xbc3457aa	-0.011007229
168	0x3e0f0f81	0.13970758
169	0x3c8a8225	0.01690776
170	0x3db901f3	0.09033575
171	0x3d75814d	0.059937764
172	0x3e1326d0	0.14370275
173	0x3db26958	0.08711499
174	0x3e0638eb	0.1310765
175	0x3c82a3ff	0.01594734
176	0xbdcbe483	-0.099556945
177	0x3da0c330	0.07849729
178	0x3e1ba74f	0.15200542
179	0xbcc2e4ba	-0.023790706
180	0xbd664ede	-0.056227557
181	0xbddf333f	-0.10898446
182	0xbd71e87c	-0.059059605
183	0xbd04b3ce	-0.032398038
184	0x3da5c500	0.080942154
185	0x3cfa2257	0.030533953
186	0x3d368043	0.044555914
187	0x3d3d4df7	0.04621693
188	0x3da63ba9	0.08116848
189	0x3c6d78c4	0.014494125
190	0x3dbe31c3	0.09286835
191	0xbe032fec	-0.1281125
192	0xbe1c52ba	-0.15265933
193	0xbd06b289	-0.03288511
194	0xbd00bc85	-0.031429786
195	0x3cb2693d	0.021778697
196	0x3d9a3804	0.075302154
197	0xbd989d5d	-0.0745189
198	0xbc40f659	-0.011777484
199	0x3d9051c3	0.07046845
200	0x3ca56499	0.02018957
201	0xbd87a8ae	-0.0662397
202	0xbd7aa55d	-0.06119286
203	0xbd51cb77	-0.05121943
204	0x3e186c4b	0.1488506
205	0xbdeed596	-0.11661832
206	0x3e087200	0.13324738
207	0xbda7322a	-0.08163865
208	0x3e12dc64	0.14341885
209	0xbe11c553	-0.1423543
210	0x3d9c0e03	0.0761986
211	0xbd8e4583	-0.06946852
212	0xbdf2b7f4	-0.118514925
213	0x3df3ed9a	0.11910553
214	0x3c9b5693	0.01896218
215	0x3db3144a	0.08744104
216	0xbdf3f801	-0.11912537
217	0xbda567c0	-0.08076429
218	0x3dc24a21	0.09486795
219	0x3df4a7d2	0.11946072
220	0xbdc8e26a	-0.0980881
221	0xbcaf18ef	-0.021374194
222	0xbbd0f677	-0.006377037
223	0xbc951571	-0.0181987
224	0x3d5568c1	0.052101854
225	0x3d2cc45f	0.04217946
226	0x3c4ec310	0.012619749
227	0xbe165b30	-0.14683223
228	0x3ddb02af	0.10693871
229	0xbe0312d5	-0.12800153
230	0xbd93e1c3	-0.07220795
231	0xbe065760	-0.13119268
232	0x3b962765	0.004582333
233	0xbdcf3321	-0.10117174
234	0x3cbfaa7a	0.02339672
235	0x3de50eb8	0.11184448
236	0x3c0249b6	0.007952144
237	0xbdfacbd5	-0.12245909
238	0x3d86ef7a	0.06588645
239	0x3dd6143f	0.104530804
240	0x3e0aec62	0.13566735
241	0xbd98ad44	-0.07454923
242	0xbdf69f3b	-0.120420896
243	0x3d7db470	0.061939657
244	0xbdc4bf6f	-0.096068256
245	0xbe0027be	-0.1251516
246	0xbdfb0204	-0.12256244
247	0x3e006663	0.12539057
248	0x3d0a8d62	0.03382624
249	0xbd937fe2	-0.07202126
250	0xbe0794a5	-0.13240297
251	0x3dfd5388	0.12369448
252	0xbd633cda	-0.055477954
253	0xbd5fff1b	-0.054686647
254	0xbe1a5862	-0.15072778
255	0x3e049991	0.12949206

weight_u f4 [32]
0	0x3caab635	0.020838836
1	0xbe5e30da	-0.21698323
2	0xbdb8c369	-0.090216465
3	0x3d3afef5	0.045653302
4	0x3d4452e6	0.04793062
5	0x3dab3450	0.08359587
6	0x3e257074	0.16156179
7	0x3e7bb38e	0.24580213
8	0x3dca66a4	0.098828584
9	0x3d3e7365	0.046496768
10	0xbea9199c	-0.3302735
11	0xbea9fa03	-0.33198556
12	0x3e1125f8	0.1417464
13	0x3e2cfce8	0.16893351
14	0xbd45f537	-0.04832956
15	0x3cf62859	0.030048536
16	0xbdc54847	-0.096329264
17	0x3d85a2c1	0.065251835
18	0x3d210aec	0.039317057
19	0xbd7580b3	-0.05993719
20	0xbdc08cb5	-0.09401838
21	0xbc64f9b1	-0.013975547
22	0x3d810358	0.06299466
23	0x3e185440	0.14875889
24	0xbcc376c0	-0.023860335
25	0x3b5837cf	0.003299225
26	0xbec19384	-0.37807858
27	0x3e922070	0.28540373
28	0x3e9327c6	0.28741282
29	0x3e77cc83	0.24199109
30	0xbeaed53d	-0.34147063
31	0xbe27a7d8	-0.16372621

weight_v f4 [43]
0	0x3e38d7e6	0.18051109
1	0xbe007b13	-0.12546949
2	0x3ddd8b23	0.10817554
3	0xbd2366e7	-0.039893057
4	0x3dd7519d	0.105136134
5	0x3e6ba29d	0.23011251
6	0x3d72b171	0.059251253
7	0x3d5be195	0.05368193
8	0xbea77795	-0.3270842
9	0x3e79adb6	0.24382672
10	0x3e31334f	0.17304729
11	0x3da00af0	0.07814586
12	0xbd0c924f	-0.03431922
13	0x3c8495ad	0.016184652
14	0xbd0ef386	-0.03490021
15	0xbd3758b8	-0.044762343
16	0xbe54b387	-0.20771609
17	0x3beeedb1	0.0072915186
18	0x3e738f8a	0.23785225
19	0xbdcef86a	-0.10105975
20	0xbccc990f	-0.024975328
21	0x3b4f5ce9	0.0031641072
22	0xbce166a7	-0.027514769
23	0xbe012659	-0.12612285
24	0x3e5237d0	0.20529103
25	0x3ce4cb0c	0.027928852
26	0x3e5b48f3	0.21414547
27	0xbdda0690	-0.10645783
28	0x3e4f5d29	0.20250382
29	0x3e483757	0.1955236
30	0xbdb21f6b	-0.08697399
31	0xbd918b03	-0.071065925
32	0x3e931807	0.2872927
33	0x3e071113	0.13190107
34	0x3bd72594	0.006565759
35	0x3eb33f70	0.35009336
36	0x3e0cb35b	0.13740294
37	0xbd48b55a	-0.049001075
38	0xbe0190fb	-0.12652962
39	0xbdaa8100	-0.08325386
40	0xbdca632a	-0.09882195
41	0xbe544b4d	-0.2073185
42	0xbe181f26	-0.14855632

weight f4 [32, 43, 1]
0	0x3e1a0f8f	0.15044998
1	0xbd0fb3f6	-0.035083733
2	0xbdedb531	-0.11606825
3	0x3e01d1af	0.12677644
4	0xbd86549c	-0.06559107
5	0x3e18fd4c	0.14940375
6	0x3d4e3434	0.050342754
7	0xbc778222	-0.01510671
8	0xbda8f0b6	-0.08249037
9	0xbdce6ac1	-0.100789554
10	0xbd7cfebd	-0.061766375
11	0x3ded0bf5	0.11574546
12	0x3d937db4	0.0720171
13	0xbda12ee1	-0.078702696
14	0x3cc42a5f	0.023945985
15	0xbd80a07f	-0.06280612
16	0xbdd01ff1	-0.10162342
17	0x3e018f93	0.12652425
18	0xbd8c5356	-0.068518326
19	0xbda99c58	-0.08281773
20	0xbc097ff1	-0.00839232
21	0x3ceac730	0.028659433
22	0x3d834bbc	0.064109296
23	0xbdeb0afe	-0.11476706
24	0xbe13a739	-0.14419259
25	0x3ca02625	0.019549439
26	0xbd3969cf	-0.045266923
27	0x3d87b5af	0.0662645
28	0x3d2865d9	0.041112754
29	0x3d325d35	0.04354592
30	0x3c65edec	0.014033776
31	0x3df07f5f	0.11743044
32	0xbdb38666	-0.08765869
33	0xbd86ebb5	-0.06587926
34	0xbd4f0f12	-0.05055148
35	0x3c824a23	0.015904492
36	0xbb92708f	-0.0044689844
37	0xba837be0	-0.0010031424
38	0xbe17b107	-0.14813624
39	0xbdead3f1	-0.11466206
40	0xbcf3a0c9	-0.029739754
41	0x3dc8824b	0.097904764
42	0xbd5aa1eb	-0.053377073
43	0xbd7ab777	-0.061210122
44	0x3d80cd37	0.062891416
45	0xbde620f5	-0.11236755
46	0x3d37660a	0.044775046
47	0x3d8cff26	0.06884603
48	0xbe029705	-0.12752922
49	0x3ba8d0d0	0.0051518455
50	0xbdecbc21	-0.1155932
51	0x3bb24ad2	0.005441048
52	0xbd57d2f8	-0.05269143
53	0xbda6dcdf	-0.081475966
54	0xbdbb887c	-0.09156892
55	0x3dd149aa	0.102191284
56	0x3db7d484	0.08976081
57	0x3e002fba	0.12518206
58	0x3e054a61	0.13016655
59	0xbc9a8073	-0.018860077
60	0x3dec1751	0.11527885
61	0x3dac1672	0.084027186
62	0x3d97278a	0.07380588
63	0xbd2b3fb8	-0.041808814
64	0x3e186c11	0.14884974
65	0x3db984f5	0.09058563
66	0x3d8ff490	0.070290685
67	0xbe016831	-0.12637402
68	0xbd142f56	-0.036177956
69	0xbd7342cd	-0.059389878
70	0xbd2fd4da	-0.0429276
71	0x3d0a1019	0.03370676
72	0xbe10a931	-0.14127041
73	0x3e156529	0.14589371
74	0xbcacf114	-0.021111049
75	0xbcbe08c5	-0.023197541
76	0xbdf07075	-0.117401995
77	0x3b4fa9f0	0.0031686984
78	0xbd93eb03	-0.07222559
79	0x3db6e704	0.089307815
80	0xbd191674	-0.03737493
81	0xbd66cdf7	-0.056348767
82	0xbcda096c	-0.02661582
83	0x3de0dbdd	0.109794356
84	0x3e145ef3	0.14489345
85	0xbde3fde3	-0.111324094
86	0xbca691f7	-0.020333273
87	0xbc1811d3	-0.009281593
88	0x3dce8e95	0.10085789
89	0x3e124b6b	0.14286582
90	0x3e070f08	0.13189328
91	0xbb9b7948	-0.0047446825
92	0xbdd706c5	-0.10499338
93	0xbe130901	-0.14358903
94	0x3d80be5b	0.062863074
95	0xbe023848	-0.12716782
96	0x3da2304a	0.07919367
97	0xbe1ee31b	-0.15516321
98	0xbd3f4472	-0.046696134
99	0x3ddafbb3	0.10692539
100	0x3dbbc7a4	0.09168938
101	0x3c5dcaca	0.013537118
102	0xbe058c73	-0.13041858
103	0x3885cd91	6.380224e-05
104	0xbdad1b17	-0.084524326
105	0x3d807d95	0.06273953
106	0x3c786e6f	0.015163048
107	0xbddf7397	-0.10910719
108	0x3db38681	0.08765889
109	0xbb4ef3f6	-0.0031578518
110	0xbdf8c441	-0.121468075
111	0xbdea65e9	-0.11445219
112	0xbd9a80ee	-0.07544123
113	0xbe089bb3	-0.13340645
114	0x3d6e6b2a	0.05820767
115	0x3c26f360	0.010189861
116	0x3d971c6a	0.073784664
117	0x3d086259	0.033296917
118	0x3d088be0	0.03333652
119	0x3daddf92	0.08489908
120	0xbd9b2bd4	-0.07576719
121	0xbdcdd258	-0.100498855
122	0xbd3e9ff2	-0.046539254
123	0x3d4f1270	0.050554693
124	0xbcb9da70	-0.022687167
125	0xbdcb1918	-0.09916896
126	0x3e0a947a	0.13533202
127	0xbe118b5a	-0.14213315
128	0x3df22837	0.118240766
129	0x3c181a09	0.009283551
130	0x3cef8c14	0.0292416
131	0xbb65edd9	-0.0035084395
132	0x3d100fa6	0.035171174
133	0xbc9349c9	-0.01797952
134	0x3dfaa8a9	0.122392006
135	0xbdf9c1e3	-0.12195184
136	0xbdde128f	-0.108433835
137	0xbe1d206a	-0.15344396
138	0xbd10b8bb	-0.035332423
139	0xbca36a4a	-0.019948144
140	0xbe17617a	-0.14783278
141	0xbda386b0	-0.07984674
142	0xbd9a719d	-0.07541201
143	0xbda2254e	-0.079172716
144	0x3dc5e64d	0.09663067
145	0xbdbedcd0	-0.093194604
146	0x3d4163e9	0.047214422
147	0xbdbd49f8	-0.09242624
148	0xbd753e4b	-0.05987386
149	0x3d06e620	0.032934308
150	0xbce188f0	-0.027531117
151	0x3db4c0d8	0.088258445
152	0xbe01b013	-0.12664823
153	0x3cb2bd0b	0.021818658
154	0xbdcd4562	-0.10022999
155	0x3dd5cd93	0.10439601
156	0xbd4a5305	-0.04939558
157	0x3c1b9405	0.00949574
158	0xbd8b4582	-0.06800367
159	0xbe09ccaf	-0.13456987
160	0xbe0322ed	-0.12806292
161	0x3de6060f	0.11231624
162	0x3d515881	0.051109795
163	0x3cdc56e2	0.026896898
164	0xbe1b092d	-0.15140219
165	0x3de5e043	0.11224415
166	0x3e11d427	0.14241086
167	0xbc36fe52	-0.011169033
168	0x3e110624	0.14162499
169	0x3c8c58f6	0.017132264
170	0x3dbb8764	0.09156683
171	0x3d78e003	0.06076051
172	0x3e1525fc	0.14565271
173	0x3db4dad7	0.08830803
174	0x3e080c8d	0.13286038
175	0x3c846f41	0.016166331
176	0xbdceab89	-0.100913115
177	0x3da2ed26	0.07955389
178	0x3e1dc94e	0.15408823
179	0xbcc58db0	-0.024115413
180	0xbd69656f	-0.0569815
181	0xbde23b5c	-0.11046478
182	0xbd753dbe	-0.059873335
183	0xbd067dd1	-0.03283483
184	0x3da80a72	0.08205117
185	0x3cfda690	0.030963212
186	0x3d390015	0.045166094
187	0x3d3fc252	0.046816178
188	0x3da8830e	0.08228122
189	0x3c708388	0.014679797
190	0x3dc0c386	0.09412293
191	0xbe04f71d	-0.12984891
192	0xbe1e70b8	-0.15472686
193	0xbd089937	-0.033349242
194	0xbd027bf2	-0.031856485
195	0x3cb4d577	0.022074444
196	0x3d9c53fc	0.07633206
197	0xbd9aaf81	-0.07553006
198	0xbc437cde	-0.011931626
199	0x3d92454c	0.071421236
200	0x3ca7a4d5	0.02046434
201	0xbd89828b	-0.06714352
202	0xbd7e1b50	-0.062037766
203	0xbd549758	-0.051902145
204	0x3e1a85a3	0.15090041
205	0xbdf21410	-0.11820233
206	0x3e0a4be0	0.13505507
207	0xbda98013	-0.08276381
208	0x3e14dde9	0.14537777
209	0xbe13b69f	-0.14425133
210	0x3d9e2de2	0.07723595
211	0xbd903142	-0.07040645
212	0xbdf60981	-0.120135315
213	0x3df749c1	0.12074614
214	0x3c9d7425	0.019220421
215	0x3db57f8c	0.08862218
216	0xbdf749ea	-0.12074645
217	0xbda7b223	-0.08188274
218	0x3dc4f080	0.09616184
219	0x3df7fd2e	0.12108837
220	0xbdcba4e3	-0.09943559
221	0xbcb19f57	-0.021682424
222	0xbbd40c22	-0.006471173
223	0xbc9722c2	-0.018449191
224	0x3d584a97	0.05280551
225	0x3d2f4a14	0.042795256
226	0x3c516a18	0.012781642
227	0xbe186c4d	-0.14885063
228	0x3dddfd8c	0.10839376
229	0xbe04e126	-0.12976512
230	0xbd95cd67	-0.07314568
231	0xbe082a2d	-0.13297339
232	0x3b981ce7	0.0046421173
233	0xbdd207fd	-0.1025543
234	0x3cc285b0	0.023745388
235	0x3de8266d	0.11335454
236	0x3c03d88a	0.008047232
237	0xbdfe411d	-0.12414763
238	0x3d88bead	0.066769935
239	0x3dd8fa30	0.105945945
240	0x3e0cd14e	0.13751718
241	0xbd9acaa2	-0.075581804
242	0xbdf9feb5	-0.12206785
243	0x3d808ef3	0.062772654
244	0xbdc77654	-0.09739366
245	0xbe01e33f	-0.12684344
246	0xbdfe767c	-0.12424943
247	0x3e022346	0.12708768
248	0x3d0c756c	0.03429167
249	0xbd957206	-0.07297139
250	0xbe097096	-0.13421854
251	0x3e005df0	0.12535834
252	0xbd6668a0	-0.056252122
253	0xbd62fca8	-0.055416733
254	0xbe1c71db	-0.15277807
255	0x3e066374	0.13123876

weight f4 [1, 32, 1]
0	0xbdf4954f	-0.11942541
1	0xbd8ac616	-0.06776063
2	0xbe215513	-0.1575511
3	0xbe170900	-0.14749527
4	0x3b43556e	0.0029805559
5	0xbdc16fea	-0.09445174
6	0x3e191328	0.14948714
7	0xbd18f0a1	-0.037338857
8	0xbe3280b5	-0.1743191
9	0x3da6f34a	0.081518725
10	0x3cd65bb2	0.02616677
11	0xbdcf0e9d	-0.10110209
12	0xbe2e4165	-0.17017134
13	0x3d3c5701	0.04598141
14	0x3d30acf2	0.043133684
15	0x3cbf519e	0.023354348
16	0x3dd1f587	0.10251909
17	0x3dea015e	0.11426042
18	0xbda1e675	-0.07905284
19	0x3d9f9633	0.0779232
20	0xbd9fbd82	-0.077998176
21	0xbd4393a5	-0.047748227
22	0x3dcb453f	0.09925317
23	0x3d23c524	0.03998293
24	0x3e0b0c20	0.13578844
25	0x3de68116	0.1125509
26	0x3e3094a9	0.1724421
27	0x3e2a108b	0.16607873
28	0x3e205854	0.15658695
29	0x3d730f38	0.059340686
30	0x3e264ebe	0.16240975
31	0x3ddf6644	0.109081775

weight f4 [1, 32, 1]
0	0x3d8062f5	0.062688746
1	0xbe1b3ab8	-0.15159118
2	0x3c158c5c	0.009127703
3	0x3dc0a5cd	0.09406624
4	0xbd05af7e	-0.032638066
5	0x3d71f41a	0.059070684
6	0x3e340f2e	0.17583916
7	0x3c431118	0.011905931
8	0xbd1b876e	-0.037970953
9	0xbe03befb	-0.12865822
10	0xbda0d441	-0.07852984
11	0x3d3846f0	0.044989526
12	0xbc7b9cec	-0.015357237
13	0xbcbbe285	-0.022935161
14	0x3df942bc	0.12170932
15	0x3e0fbcb1	0.14036824
16	0xbe14c44c	-0.14528006
17	0xbe065827	-0.13119565
18	0xbe20306f	-0.15643476
19	0xbcc95fd2	-0.024581823
20	0xbd2764af	-0.040867504
21	0x3c0d7e06	0.008636003
22	0x3e302125	0.17200144
23	0x3e0622d2	0.1309922
24	0x3e10db88	0.14146245
25	0xbd64f0eb	-0.05589382
26	0x3e0780a7	0.1323267
27	0xbe239f88	-0.15978825
28	0x3a7d06e1	0.0009652209
29	0xbda648e6	-0.08119373
30	0xbd9c6576	-0.0763654
31	0x3c443383	0.011975172

weight f4 [1, 32, 1]
0	0xbbb65ac6	-0.0055650203
1	0xbd4434ab	-0.04790179
2	0x3d5955da	0.05306039
3	0x3c964466	0.018343162
4	0x3c88e103	0.016708856
5	0x3dac3ed5	0.08410422
6	0x3d8bb79c	0.0682213
7	0x3e183119	0.1486248
8	0xbda29672	-0.079388514
9	0xbd101da7	-0.03518453
10	0xbe093fc4	-0.13403231
11	0xbe1c393e	-0.15256211
12	0x3d8819e2	0.06645562
13	0x3e2929e9	0.16519894
14	0xbb1748e2	-0.0023084213
15	0x3e019983	0.12656216
16	0x3c5f8f4c	0.0136450045
17	0x3de42a81	0.111409195
18	0xbde51d7d	-0.11187265
19	0xbe06732b	-0.1312987
20	0xbde5a874	-0.112137705
21	0xbe222a53	-0.15836458
22	0xbcfae758	-0.030627891
23	0xbdf3b751	-0.11900199
24	0x3df0fb94	0.11766735
25	0x3beeb724	0.0072850157
26	0x3d61833b	0.05505679
27	0xbc9fa0c0	-0.019485831
28	0xbe2feaca	-0.17179409
29	0xbda9583d	-0.08268783
30	0x3da5ef63	0.081023
31	0xbdc2f5e5	-0.09519557

bias f4 [32]
0	0xbcd932f2	-0.02651355
1	0xbd62e09f	-0.055389997
2	0xbe0e32af	-0.13886522
3	0x3d8cc592	0.06873621
4	0x3dba1258	0.0908553
5	0x3ddcfbe6	0.10790233
6	0xbba95c5b	-0.0051684803
7	0xbe16e459	-0.14735545
8	0xbd9b9d97	-0.07598417
9	0xbdb10eee	-0.08645426
10	0xbd88a1c6	-0.06671481
11	0x3c957f92	0.018249307
12	0xbcd4897f	-0.02594447
13	0xbdb89580	-0.0901289
14	0xbd242d53	-0.040082287
15	0x3d50ff19	0.05102453
16	0x3d402f6d	0.04692023
17	0xbd49fee5	-0.049315352
18	0x3da48856	0.080338165
19	0xbe13f055	-0.14447148
20	0x3d522a00	0.051309586
21	0x3dfbb346	0.12290053
22	0x3d117ca1	0.035519246
23	0x3db21f59	0.08697385
24	0xbda5881b	-0.08082601
25	0x3dcf0e1b	0.10110112
26	0xbd266b36	-0.040629588
27	0xbd49ab2b	-0.049235504
28	0x3ded75b1	0.115947135
29	0x3dfa3be7	0.12218457
30	0x3dc257e2	0.094894186
31	0x3d9a40cf	0.075318925

weight_orig f4 [32, 43, 1]
0	0x3d8fdc33	0.070244215
1	0x3db09089	0.08621318
2	0xbe008a40	-0.12552738
3	0xbdfa63fa	-0.122261
4	0xbe00b709	-0.12569822
5	0xbcf30cd8	-0.02966921
6	0x3df2b895	0.118516125
7	0xbdd9dc1a	-0.10637684
8	0x3d6e8601	0.058233265
9	0xbe0b1176	-0.1358088
10	0xbc9c13af	-0.019052355
11	0x3cd02218	0.025406882
12	0xbd90a078	-0.07061857
13	0x3dd3dd6d	0.10344968
14	0xbdfad5a2	-0.122477785
15	0xbda80c56	-0.08205478
16	0x3dd0750c	0.10178575
17	0xbdf31cf0	-0.11870754
18	0xbc75221b	-0.014961745
19	0x3d444b85	0.047923584
20	0x3d8532d8	0.06503838
21	0x3db68fe7	0.08914166
22	0x3d9b4db0	0.07583177
23	0xbde888cd	-0.11354218
24	0xbe09c5a8	-0.13454306
25	0x3b971ee8	0.0046118386
26	0xbc4297de	-0.011877028
27	0xbc26d6d5	-0.010183056
28	0x3d1cbf80	0.038268566
29	0xbcba767f	-0.022761581
30	0x3c9cf229	0.01915844
31	0x3bdffc78	0.0068355165
32	0x3d862454	0.06549898
33	0xbd119778	-0.035544842
34	0x3d0cadce	0.03434544
35	0xbda3445b	-0.07972022
36	0x3db872ed	0.09006295
37	0xbdd657f3	-0.10465994
38	0xbc75c6d8	-0.015001021
39	0x3dd1cd68	0.10244256
40	0xbd3c483a	-0.045967318
41	0x3d4e00ff	0.05029392
42	0x3cdf00e2	0.0272221
43	0x3bd64ab6	0.006539668
44	0xbdd2a640	-0.10285616
45	0xbcc334cc	-0.023828886
46	0xbd4e901e	-0.05043041
47	0xbd47f37d	-0.048816193
48	0xbb5b674e	-0.0033478322
49	0xbe02f03e	-0.12786958
50	0x3e0182ce	0.12647554
51	0xbdca9607	-0.09891897
52	0xbdf08e9e	-0.11745952
53	0x3bf0abf6	0.007344718
54	0x3de55275	0.11197368
55	0x3dc06620	0.09394479
56	0x3e05a148	0.13049805
57	0x3e1b4c2a	0.15165773
58	0xbe158903	-0.14603047
59	0x3d9045d8	0.07044572
60	0xbd6b6ca8	-0.05747667
61	0x3da2a2a6	0.07941179
62	0xbc7f7a45	-0.015593116
63	0x3dd6a8c2	0.10481407
64	0x3dcd03b3	0.10010471
65	0x3e1b00e2	0.15137056
66	0x3d845324	0.0646117
67	0xbe05cc38	-0.13066185
68	0xbd60f893	-0.05492456
69	0xbdc7aa3b	-0.09749266
70	0xbdc77c1a	-0.09740467
71	0x3d407fce	0.046996884
72	0x3c64b709	0.013959655
73	0x3c0afe50	0.008483484
74	0xbcb8418e	-0.022492196
75	0x3d449904	0.04799749
76	0x3e03200e	0.12805197
77	0x3dba9b46	0.09111647
78	0xba813b03	-0.0009859506
79	0x3d7deddb	0.061994415
80	0xbdabde97	-0.08392065
81	0xbd486e47	-0.048933294
82	0x3cb5fac0	0.022214293
83	0xbd3f2247	-0.04666355
84	0x3c63c459	0.013901793
85	0x3dd1c229	0.10242111
86	0x3db7b448	0.08969933
87	0x3b46bded	0.0030325607
88	0xbdfb6db4	-0.122767836
89	0xbcb45e91	-0.022017749
90	0xbb10062d	-0.0021976337
91	0xbdb9b3d9	-0.09067506
92	0x3d389570	0.04506439
93	0xbcbcd6fd	-0.023051733
94	0xbdde2182	-0.10846235
95	0xbde2c206	-0.11072163
96	0x3df018d5	0.11723486
97	0xbdfc1052	-0.123078
98	0xbdb11379	-0.08646292
99	0xbc5f004b	-0.01361091
100	0x3e01f935	0.12692721
101	0x3cc5e0f0	0.02415511
102	0x3e04eafd	0.12980266
103	0x3da36221	0.07977701
104	0x3e108b88	0.14115727
105	0xbcdc8bc7	-0.02692212
106	0x3e0cd6e6	0.13753852
107	0x3d161712	0.036643095
108	0xbdefae46	-0.11703162
109	0xbd9d557b	-0.0768232
110	0x3d97e32e	0.07416378
111	0xbdbe2d43	-0.09285977
112	0x3e02eadb	0.12784903
113	0x3c7f83b5	0.015595366
114	0xbd63251d	-0.055455316
115	0x3d4b47f7	0.049629178
116	0x3de097bb	0.1096644
117	0xbd47c6b2	-0.048773475
118	0x3d92da5b	0.07170554
119	0xbdd55fea	-0.10418685
120	0x3d57faf6	0.05272957
121	0xbd975634	-0.07389489
122	0xbd96a1fd	-0.073551156
123	0xbd749749	-0.05971459
124	0xbdc21d62	-0.094782606
125	0x3d875781	0.06608487
126	0xbe05ae56	-0.13054785
127	0x3b580e7a	0.0032967613
128	0x3dcd132d	0.10013423
129	0x3d18c1c6	0.03729417
130	0x3d982676	0.07429211
131	0x3d10ea14	0.035379484
132	0xbe084223	-0.13306479
133	0xbdd8b25a	-0.10580893
134	0x3dec9bd6	0.11553161
135	0xbc020088	-0.007934697
136	0xbc66829b	-0.014069225
137	0xbc44f96c	-0.012022357
138	0xbdc7e981	-0.09761334
139	0xbdc7349c	-0.09726831
140	0xbdca0c23	-0.09865596
141	0xbe11b6bb	-0.14229862
142	0x3d6135a2	0.05498279
143	0xbde0a9de	-0.109698996
144	0x3d74f763	0.05980624
145	0x3e087a75	0.13327964
146	0xbd2278e0	-0.039666057
147	0xbd17f2f7	-0.037096944
148	0x3d1cc175	0.038270433
149	0x3c831dbf	0.016005395
150	0xbe10f06b	-0.14154212
151	0x3d6a1611	0.05714995
152	0xbd5f09ed	-0.054452825
153	0x3cead1a5	0.02866442
154	0xbd13168e	-0.03591018
155	0xbcb9b0d3	-0.022667324
156	0x3d96a0d6	0.07354896
157	0xbd96ad31	-0.073572524
158	0x3d2bd278	0.041948766
159	0xbe02775a	-0.12740842
160	0xbdb721fd	-0.089420296
161	0xbcb06c96	-0.021536153
162	0x3e131e40	0.14367008
163	0x3aed4d1f	0.0018104649
164	0xbe0a2dbd	-0.1349401
165	0x3df9755e	0.12180589
166	0xbd938093	-0.07202258
167	0x3d898707	0.067152075
168	0x3de51212	0.11185087
169	0xbe0d6a13	-0.13809995
170	0xbd4ed9f6	-0.050500832
171	0xbe18ce28	-0.14922392
172	0xbdb8fa91	-0.09032167
173	0xbdc0513b	-0.093904935
174	0xbc70c5f7	-0.014695636
175	0xbe04c15c	-0.12964386
176	0x3d25cded	0.04047959
177	0x3df3cf16	0.11904733
178	0x3e0369ee	0.12833378
179	0xbdd1adc0	-0.10238218
180	0xbd86bc6e	-0.06578909
181	0xbdbf4f99	-0.09341354
182	0x3e199952	0.14999893
183	0xbd935161	-0.07193256
184	0x3caf100d	0.021369958
185	0xbd5781dc	-0.052614078
186	0xbe0c17fa	-0.13681021
187	0xbe0b20a1	-0.13586666
188	0xbc345fba	-0.011009151
189	0xbd6c8c53	-0.05775101
190	0x3daa181f	0.08305382
191	0xbddfd54f	-0.10929357
192	0x3c5c3b46	0.013441866
193	0x3e1a2947	0.15054809
194	0xbe0e9dcc	-0.13927382
195	0xbde98c4f	-0.11403715
196	0xbc18dfae	-0.009330673
197	0xbcc23934	-0.023708917
198	0x3dab9c72	0.08379449
199	0x3cbb0fe1	0.02283472
200	0x3e19e50a	0.15028778
201	0xbe0df463	-0.13862757
202	0xbc89ac28	-0.016805723
203	0xbd4ce180	-0.05001974
204	0x3dd4b6be	0.10386418
205	0x3ddb46e1	0.107068785
206	0xbca818ec	-0.020519696
207	0xbdfea97f	-0.124346726
208	0x3c9f3803	0.019435888
209	0x3e0c0af6	0.13676056
210	0xbe0136ba	-0.12618533
211	0xbd9579a9	-0.072985955
212	0xbdeefe97	-0.11669653
213	0xbe096b03	-0.13419728
214	0x3d2fb1c5	0.042894144
215	0xbb0be662	-0.0021347036
216	0xbe1c4fe9	-0.15264858
217	0x3da4b91b	0.080431186
218	0x3dff0d0a	0.12453659
219	0x3e006bad	0.12541075
220	0xbd56c120	-0.052430272
221	0x3ab155f6	0.0013529647
222	0x3dca7516	0.098856136
223	0x3d6f217a	0.058381535
224	0xbd532a0d	-0.051553775
225	0xbd99ac35	-0.07503549
226	0xbcb4fd0f	-0.022093324
227	0x3c701d6e	0.014655454
228	0x3c4538d3	0.012037474
229	0x3dc5bbea	0.096549824
230	0xbe077eb9	-0.13231935
231	0xbcb512a9	-0.022103624
232	0xbe196521	-0.14979984
233	0xbd9c0adb	-0.07619258
234	0xbc215a0c	-0.009848129
235	0xbdbeac7f	-0.09310245
236	0xbdce3fd7	-0.1007077
237	0x3dd8f03a	0.105926946
238	0x3db82ed2	0.08993305
239	0xbe0232bb	-0.12714665
240	0x3c39b30d	0.011334193
241	0x3df28097	0.11840933
242	0xbd8df24d	-0.06930981
243	0xbccc5cd6	-0.024946611
244	0x3cffb7f2	0.031215642
245	0x3ac868c5	0.0015290013
246	0xbcfb4875	-0.030674199
247	0x3e12dd91	0.14342333
248	0x3d50a02d	0.050934006
249	0x3d8d4c16	0.06899278
250	0xbc09adbe	-0.00840324
251	0xbe02e45a	-0.12782422
252	0xbe0ed4b7	-0.13948332
253	0xbe08f971	-0.13376404
254	0xbe1402e2	-0.14454225
255	0xbd8f818d	-0.07007132

weight_u f4 [32]
0	0x3c76b202	0.015057089
1	0xbe60fd42	-0.2197161
2	0xbe0bc518	-0.13649404
3	0x3e7ce2a9	0.24695839
4	0x3d67aa80	0.056559086
5	0xbe862a24	-0.26204026
6	0xbda3b409	-0.07993323
7	0x3d1996be	0.037497275
8	0xbd4e873e	-0.050421946
9	0xbd710e70	-0.05885166
10	0x3e53b203	0.20673375
11	0xbd76fcbe	-0.060299627
12	0x3dc9b976	0.09849827
13	0x3dc839f2	0.09776677
14	0xbdabc7b4	-0.083877
15	0x3e57c82b	0.21072452
16	0x3ea2a032	0.31762844
17	0x3e0d1522	0.13777593
18	0xbd677918	-0.05651197
19	0x3e99074c	0.2988838
20	0xbe1e10f6	-0.15436158
21	0x3ec6286a	0.38702708
22	0xbe62712a	-0.22113481
23	0x3db5464d	0.088512994
24	0x3e363086	0.17791948
25	0x3e70883c	0.2348947
26	0x3bdb9e6a	0.006702234
27	0x3e908bb1	0.28231576
28	0x3d024cff	0.03181171
29	0xbde51152	-0.11184944
30	0xbe3d9f7f	-0.18517874
31	0xbde0575c	-0.109541625

weight_v f4 [43]
0	0xbd428491	-0.047489706
1	0x3e200362	0.1562629
2	0xbddc8782	-0.107680336
3	0xbe6f5a34	-0.23374254
4	0xbe3e87af	-0.18606447
5	0x3e7c3606	0.24629983
6	0x3e63b168	0.22235644
7	0xbc96c7e8	-0.01840587
8	0xbcafcdf0	-0.021460503
9	0x3e26a77b	0.16274826
10	0xbe35e47f	-0.17762946
11	0x3bb8461f	0.0056235935
12	0x3c20dbca	0.009818027
13	0xbc8f9a18	-0.017529532
14	0xbe72faa1	-0.2372842
15	0x3eb459d8	0.35224795
16	0x3daab7bf	0.08335828
17	0xbd527055	-0.05137666
18	0xbe45df0d	-0.19323368
19	0x3e4609ce	0.19339678
20	0xbe051167	-0.1299492
21	0xbe177d8a	-0.14793983
22	0xbe46dacf	-0.19419406
23	0xbe25f4e0	-0.16206694
24	0x3d9e45e7	0.077281766
25	0x3d2f89ef	0.042856153
26	0x3cea85bc	0.028628223
27	0xbb1166f7	-0.0022186616
28	0xbd13a7bb	-0.036048632
29	0x3c8eaab0	0.017415375
30	0xbd86f8dd	-0.06590436
31	0xbe0d92c9	-0.13825525
32	0xbe09bffb	-0.13452141
33	0x3e400b6a	0.18754354
34	0xbd2d9178	-0.042375058
35	0x3e18db09	0.14927305
36	0x3e2bddd8	0.16783845
37	0x3e21b98a	0.15793434
38	0x3e2719d6	0.1631845
39	0xbd283930	-0.041070163
40	0xbd7c7335	-0.061633307
41	0xbebeec29	-0.3728955
42	0xbc913553	-0.017725622
