src/checkpoints/BaseModel/BaseModel_discriminator.pt (torch, 115635 bytes, 68 tensors)

weight f4 [64, 10]
0	0xbe5d6b22	-0.21622899
1	0xbeb579c3	-0.3544446
2	0xbfa5953d	-1.2936169
3	0x3f98fd06	1.1952217
4	0x3e91540a	0.2838443
5	0x3f4b4802	0.7940675
6	0x3f7ac6c3	0.97959536
7	0xbf93ec7c	-1.1556544
8	0x3f1cd2a5	0.6125892
9	0x3fd58105	1.6679999
10	0x3e38d806	0.18051156
11	0x3d91266a	0.07087405
12	0xbf806478	-1.0030661
13	0xbffef791	-1.9919301
14	0xbfae1c9d	-1.3602482
15	0xbf99aa3d	-1.2005078
16	0xc003ec77	-2.0613077
17	0x3e90f421	0.28311256
18	0xbf5539bc	-0.8329122
19	0xbf0dfac6	-0.55460775
20	0xbfaff584	-1.37468
21	0xbf19e61e	-0.60116756
22	0xbfe5bb78	-1.7947836
23	0x3f1a1ead	0.6020306
24	0xbf777337	-0.9666018
25	0xbe8614ab	-0.26187643
26	0xbf8858d6	-1.065211
27	0xbfa77a2c	-1.3084159
28	0x3ff967a9	1.948476
29	0x3fe4af87	1.7866067
30	0x4004003a	2.0625138
31	0x3fb2b438	1.3961248
32	0x3f2854f3	0.6575462
33	0x3f0c0306	0.54692113
34	0x3f180911	0.59388834
35	0xbf8fd8eb	-1.1238073
36	0xbf5482ba	-0.8301197
37	0x3e028823	0.12747245
38	0x3f824cb9	1.0179664
39	0xbea2cc7a	-0.31796628
40	0xbe949204	-0.2901765
41	0x3e04bd4c	0.12962836
42	0xbf8e14d9	-1.1100112
43	0xbd9de87c	-0.077103585
44	0xbe84b446	-0.25918788
45	0x3e82e430	0.25564718
46	0x3f306ac5	0.6891292
47	0xbe9167d6	-0.28399533
48	0x3f4ec0c6	0.807629
49	0x3f27a653	0.65488166
50	0x3f5378e3	0.82606333
51	0x3fdacdd8	1.7094069
52	0xbf88056d	-1.0626656
53	0x3f7728a2	0.96546376
54	0xbf77fbfb	-0.96868867
55	0x3f5be970	0.8590307
56	0x3cfea9d2	0.031086836
57	0x3fd258ea	1.6433384
58	0x3f183fe1	0.5947247
59	0xbf2d8312	-0.6777812
60	0x3e94c99c	0.29060066
61	0x3f1c84dc	0.6114023
62	0x3f3d4816	0.7393812
63	0x3e553198	0.208197
64	0x3f88c997	1.068652
65	0xbf3826de	-0.71934307
66	0xbe0d1fed	-0.1378171
67	0x3f94c1fa	1.1621697
68	0x3eb4032d	0.35158673
69	0x3e1df49b	0.15425341
70	0x3f54f4d8	0.831861
71	0xbf89e46e	-1.0772836
72	0xbf87573d	-1.0573498
73	0x3f1f232d	0.6216305
74	0x3e83f6aa	0.25774127
75	0xbf2687b0	-0.6505079
76	0x3f08a00b	0.53369206
77	0xbedf3725	-0.4359676
78	0xbf0027d8	-0.50060797
79	0xbebf258f	-0.37333342
80	0xbfe68a7c	-1.8011012
81	0xbc6ffec5	-0.014648144
82	0xbe58bb89	-0.21165289
83	0xc022891d	-2.5396187
84	0xbdd46398	-0.103705585
85	0x3e92f53d	0.28702727
86	0xc006cef8	-2.1063824
87	0xbfecd68c	-1.8502975
88	0xbf9f2cbe	-1.2435529
89	0x3ecd200a	0.40063506
90	0x3f6ee14e	0.9331254
91	0xbe2383ad	-0.15968199
92	0x3fd24e5f	1.6430167
93	0x3da63766	0.08116035
94	0x3f1fd162	0.6242887
95	0x3f392d14	0.7233441
96	0x3f75697a	0.9586407
97	0x3d5a209e	0.053253762
98	0xbe83d00b	-0.25744662
99	0xbec35ef5	-0.38158384
100	0x3dabb2f7	0.08383744
101	0xbdc50d4f	-0.09621679
102	0xbeeee131	-0.46656182
103	0x402a55fd	2.6614983
104	0x3f3cfc6d	0.7382267
105	0x3f4b5822	0.79431355
106	0x3e3de29c	0.18543476
107	0xbcbb84b3	-0.022890424
108	0xc015e9c0	-2.342392
109	0x3f277c05	0.65423614
110	0xbdf6e110	-0.12054646
111	0xbfa4a671	-1.2863294
112	0x3ee0df1b	0.43920216
113	0xbe82c12f	-0.25538012
114	0x3f913eb6	1.1347263
115	0xbfec3d3a	-1.8456185
116	0xbf22e83f	-0.6363563
117	0xbffcc035	-1.9746157
118	0xbeac2f25	-0.33629718
119	0x3fbbc148	1.466836
120	0x3f33aebc	0.701885
121	0x3e94dfe5	0.29077068
122	0x3f5b7b9a	0.85735476
123	0x3f2b84a0	0.66999245
124	0x3fa08f8f	1.2543811
125	0xbf06344a	-0.52423537
126	0x3f5743ac	0.84087634
127	0xbf9c3013	-1.2202171
128	0xbf100a4c	-0.5626571
129	0xbfab8a72	-1.3401625
130	0x3fa85502	1.3150942
131	0x3fdd8f70	1.7309399
132	0x3ede35b2	0.4340034
133	0xbece16f7	-0.40251896
134	0x3fc5bed6	1.5448864
135	0x3f4533a2	0.7703191
136	0x3f930e2a	1.1488698
137	0xbd7d9627	-0.061910775
138	0x3e206299	0.15662612
139	0x3f21e034	0.6323273
140	0xbeb15d9f	-0.3464174
141	0x3fdf441d	1.7442662
142	0x3fb35a99	1.4012023
143	0xbe6c02c5	-0.23047931
144	0xbf422132	-0.758319
145	0xbd125831	-0.035728637
146	0x3e7c1d33	0.24620514
147	0x3e03b9b3	0.12863807
148	0x3f53ec21	0.8278218
149	0xbf8859ab	-1.0652364
150	0xbf34f045	-0.7067912
151	0xbec49c11	-0.3840032
152	0xbf3f217c	-0.7466047
153	0xbe003245	-0.12519176
154	0x3f957ab6	1.1678073
155	0xbefa0b1a	-0.48836595
156	0xbe3d59f1	-0.18491341
157	0xbdc4367e	-0.09580706
158	0x3fd0422e	1.6270196
159	0xbe322ffd	-0.17401119
160	0x3fe18888	1.7619791
161	0xbfa0563b	-1.2526315
162	0xbf1ce46c	-0.61286044
163	0xbfe33233	-1.7749695
164	0x3dec7a58	0.11546773
165	0xbf25d533	-0.6477844
166	0xbe8f94fd	-0.28043357
167	0x3ed2f148	0.41199708
168	0xbe74afc1	-0.2389517
169	0x3e855415	0.26040712
170	0xbe71d140	-0.23614979
171	0x3e9058c4	0.28192723
172	0x3dad2684	0.08454612
173	0xbf2656ea	-0.6497637
174	0xbfa06e0e	-1.2533586
175	0xbf15db99	-0.58538204
176	0xbfaf4b66	-1.3694885
177	0xbf218e2c	-0.6310756
178	0xbee2780e	-0.4423222
179	0x3ed4c3c5	0.4155561
180	0x3df79cd0	0.120904565
181	0xbf0cd1ab	-0.5500743
182	0xbf8feaed	-1.1243569
183	0xbe20c16d	-0.15698786
184	0x3fe790f3	1.809111
185	0x3e9894aa	0.29800922
186	0x3ef7bab6	0.48384637
187	0xbfa53fb3	-1.2910064
188	0x3f30f7ac	0.6912792
189	0xbf1d6578	-0.61482954
190	0xbfbd3c71	-1.478407
191	0x3e3e610a	0.18591705
192	0x3dbe2c1e	0.092857584
193	0x3f42136f	0.75810903
194	0xbe84de14	-0.25950682
195	0xbe494a3b	-0.19657223
196	0x3f273f48	0.65330935
197	0x3f688fd5	0.9084447
198	0x3e6d085a	0.23147717
199	0xbfb62202	-1.4229128
200	0xbe17ccc6	-0.14824209
201	0x3ecad8bc	0.3961848
202	0x3cdb7d57	0.026793165
203	0xbe7d5f11	-0.24743296
204	0x3f5ffa18	0.8749099
205	0xbef061c2	-0.46949583
206	0x3ddbdd83	0.107356094
207	0xbfd7fa0e	-1.6873186
208	0x400416ea	2.0638986
209	0x3ff2d0ba	1.8969948
210	0x3eb20eba	0.3477686
211	0xbf2c603d	-0.6733435
212	0xbf1d108f	-0.6135339
213	0x3ff1f44e	1.8902681
214	0x3e2c361e	0.16817519
215	0xbf5cb81d	-0.86218435
216	0x3fd13964	1.6345639
217	0x3e8aea6b	0.27131972
218	0xbfb62be0	-1.423214
219	0xbf401fe8	-0.75048685
220	0x3f29a8e8	0.66273355
221	0x3ee4b42d	0.44668713
222	0xc032032a	-2.781443
223	0x3efd613c	0.49488246
224	0xbf8fb488	-1.1226969
225	0x3f996d3b	1.198646
226	0x3f66dd14	0.9018109
227	0xbf2fbce9	-0.6864763
228	0x3eea0b27	0.45711634
229	0x3fd3b94f	1.6540927
230	0x3fa92999	1.321582
231	0x3f9121d8	1.1338453
232	0x4007ade1	2.1199877
233	0xbeb3e5ac	-0.35136163
234	0xbf85fa82	-1.0467074
235	0x3e95f693	0.29289684
236	0xbf82575c	-1.018291
237	0x3fd8f71e	1.6950414
238	0x3e7f4bd7	0.24931274
239	0xbf8081e2	-1.0039637
240	0x3f22dd81	0.6361924
241	0xbfad8190	-1.3555164
242	0xbe3f0ebb	-0.18657963
243	0xbf85c426	-1.0450485
244	0xbeeac79f	-0.45855424
245	0xbf452732	-0.7701293
246	0x3f27169d	0.6526888
247	0xbfd3e342	-1.6553729
248	0x3fc15787	1.5104836
249	0xbff2b061	-1.8960077
250	0x3f34d496	0.7063688
251	0x3faa8e96	1.3324764
252	0x3d4cfd9a	0.05004654
253	0x3dfc746e	0.12326895
254	0xc02cd6bd	-2.7006066
255	0x3f045d2d	0.51704675

bias f4 [32]
0	0x3e44fd2b	0.19237201
1	0xbd11232a	-0.035433926
2	0x3d3bda32	0.045862384
3	0xbe66cfb3	-0.22540168
4	0xbe66eb83	-0.22550778
5	0xbe6b1f04	-0.2296105
6	0xbe541053	-0.20709352
7	0xbd716621	-0.05893529
8	0x3e6f775c	0.23385376
9	0xbcde64b4	-0.027147628
10	0xbe277274	-0.16352254
11	0xbd9a1a3d	-0.07524536
12	0xbe4f4dbf	-0.20244502
13	0xbe53dff0	-0.20690894
14	0x3e11acf3	0.14226131
15	0x3dd0dc5d	0.10198281
16	0x3e189bda	0.14903203
17	0xbe61dd30	-0.22057033
18	0x3e67f1ad	0.22650786
19	0xbd9e3c37	-0.07726329
20	0x3d29ec90	0.04148537
21	0xbd66d0d9	-0.056351516
22	0xbe41f538	-0.189412
23	0xbe18bd76	-0.14916024
24	0xbdb13a3e	-0.08653687
25	0x3d20d08b	0.039261382
26	0xbcd551b9	-0.026039945
27	0x3e6fd118	0.23419607
28	0x3e8bcbc1	0.2730389
29	0xbc4f5b48	-0.0126560405
30	0x3e9094c6	0.28238505
31	0xba06f479	-0.00051481236

weight_orig f4 [32, 12, 1]
0	0xbdd80e1a	-0.10549565
1	0xbe2ac4d3	-0.16676645
2	0xbe1e4a67	-0.1545807
3	0xbe52ebb6	-0.20597729
4	0xbe35477d	-0.17703052
5	0x3d1641aa	0.036683716
6	0xbd021119	-0.031754587
7	0xbe67dd08	-0.2264291
8	0x3e183baa	0.1486651
9	0x3c131689	0.008977541
10	0xbd929188	-0.07156664
11	0x3d49a7ff	0.04923248
12	0xbdc40762	-0.09571721
13	0xbe26116c	-0.16217583
14	0xbe13140b	-0.14363115
15	0xbe916f7d	-0.2840537
16	0xbe629522	-0.22127202
17	0x3dfb100d	0.12258921
18	0xbe42f0d9	-0.19037189
19	0xbd9aaead	-0.07552848
20	0x3dd5d7e4	0.104415685
21	0x3e8d3ee4	0.27587044
22	0xbe91a7dd	-0.28448382
23	0x3e30e1bc	0.17273611
24	0xbe5a189a	-0.21298447
25	0xbe7910a2	-0.24322751
26	0x3d38d497	0.045124616
27	0xbcd92657	-0.02650754
28	0xbe5beb1b	-0.21476404
29	0x3e28d190	0.16486192
30	0xbe83889c	-0.25690162
31	0xbd981f7b	-0.074278794
32	0x3e77712d	0.24164267
33	0x3e8afe09	0.27146938
34	0xbe4fa273	-0.20276813
35	0x3e10c838	0.14138877
36	0x3df11557	0.117716484
37	0xbdf70be9	-0.120628186
38	0x3e3cba8d	0.18430538
39	0x3e5db384	0.21650511
40	0xbd523b72	-0.051326223
41	0xbd01731f	-0.03160393
42	0xbe03ad9d	-0.12859197
43	0x3da741d2	0.08166851
44	0xbd249868	-0.04018441
45	0xbdeb5d08	-0.11492354
46	0xbc008809	-0.007844933
47	0xbc58de46	-0.013236588
48	0xbdca888a	-0.09889324
49	0xbd7bc6bd	-0.06146883
50	0xbc91f959	-0.017819094
51	0x3d6ac7e1	0.057319526
52	0xbe61a9c5	-0.22037418
53	0xbe32c659	-0.17458476
54	0xbe5e64ae	-0.21718094
55	0xbd5a5687	-0.053305175
56	0x3e900c0f	0.281342
57	0x3def7e75	0.11694042
58	0xbe82a5f1	-0.25517228
59	0x3e43787a	0.19088927
60	0xbd256838	-0.040382594
61	0xbe02832d	-0.12745352
62	0xbe4cc884	-0.19998366
63	0xbe689f87	-0.22717105
64	0x3cbfe15d	0.023422891
65	0xbd7a2fc3	-0.061080705
66	0x3e17bae2	0.14817384
67	0xbe819887	-0.25311682
68	0x3dae9f39	0.08526463
69	0x3e3e857d	0.18605609
70	0xbe8135f0	-0.25236464
71	0xbd685ae4	-0.056727305
72	0xbd181b9a	-0.037135698
73	0x3dba5d18	0.090997875
74	0xbdc52ca9	-0.09627659
75	0xbd962349	-0.07330949
76	0x3d1e1923	0.03859819
77	0xbe735b85	-0.2376538
78	0xbe6325d1	-0.22182395
79	0x3e200677	0.15627466
80	0xbabf5e91	-0.0014600327
81	0x3deba05b	0.11505195
82	0xbe8d6271	-0.27614167
83	0xbdb5208a	-0.08844097
84	0x3e76a67f	0.2408695
85	0xbe1bec8e	-0.15226957
86	0xbe167162	-0.1469169
87	0xbe59bdcc	-0.21263808
88	0xbe8c656d	-0.27421132
89	0xbe545a0f	-0.2073748
90	0x3e22a36d	0.15882654
91	0xbe518b94	-0.20463401
92	0x3cf55031	0.029945465
93	0xbaf21498	-0.0018469272
94	0xbcda747e	-0.026666876
95	0x3e87ebbf	0.26547047
96	0xbe1e3321	-0.15449192
97	0xbe851db8	-0.25999236
98	0xbe1007ac	-0.14065427
99	0xbe3f1a45	-0.18662365
100	0xbdb740bf	-0.08947896
101	0xbe834a39	-0.25642565
102	0x3e7a36d3	0.24434976
103	0x3dfa37e2	0.1221769
104	0x3deb0290	0.11475098
105	0x3d8c8699	0.0686161
106	0x3e293b1e	0.16526458
107	0x3d712772	0.05887551
108	0xbe402a92	-0.1876624
109	0x3e8ca4ee	0.2746958
110	0xbd75e379	-0.060031388
111	0xbe499dfb	-0.19689171
112	0xbe91bbf2	-0.28463703
113	0xbe3d018a	-0.18457618
114	0x3e1e46fc	0.15456766
115	0xbbee43e5	-0.0072712773
116	0x3e05ad63	0.13054423
117	0x3e899d7e	0.2687797
118	0x3e877e41	0.26463512
119	0xbe792f6c	-0.24334496
120	0x3ddaa9da	0.10676928
121	0xbd3d6a94	-0.04624422
122	0x3d3efd08	0.04662803
123	0x3e348f19	0.17632712
124	0x3cd91978	0.026501402
125	0xbdd35d02	-0.10320474
126	0x3e7ad16f	0.24493955
127	0x3e286cda	0.16447774
128	0x3e2b0c6e	0.1670396
129	0x3d178834	0.036995128
130	0x3e0bb0c2	0.13641647
131	0xbe407d14	-0.18797714
132	0xbdecc3fb	-0.11560818
133	0x3e70b229	0.23505463
134	0xbe29fa64	-0.16599423
135	0xbe8e6dd1	-0.27818158
136	0x3e544df4	0.20732862
137	0x3c4dc285	0.012558584
138	0xbe865f76	-0.26244706
139	0xbe6ed280	-0.23322487
140	0xbdbfe6f3	-0.09370222
141	0xbe8f831a	-0.2802971
142	0x3cfe2120	0.031021655
143	0xbdeb27f7	-0.11482232
144	0x3d9e3e63	0.07726743
145	0xbd255cb0	-0.040371597
146	0xba10ee40	-0.0005528666
147	0x3d45ed0e	0.048321776
148	0x3dddadf9	0.10824198
149	0xbe0387ab	-0.12844722
150	0x3df52b2e	0.119711265
151	0xbdff84ac	-0.12476477
152	0x3c9bf5f8	0.019038185
153	0xbe111ca2	-0.14171079
154	0x3e150de2	0.14556077
155	0x3cccf80e	0.025020625
156	0xbe54739c	-0.20747226
157	0xbe24890d	-0.16067906
158	0xbd955703	-0.07291987
159	0xbe8b4177	-0.27198383
160	0xbe583957	-0.21115623
161	0xbd540f40	-0.051772356
162	0xbcfc3696	-0.030787747
163	0xbd929cbb	-0.071588
164	0x3d32c238	0.043642253
165	0xbda262f8	-0.07929033
166	0xbe63611f	-0.22205018
167	0x3d9be763	0.07612493
168	0xbd49b2e8	-0.049242884
169	0x3d512923	0.05106462
170	0x3e3d3a10	0.1847918
171	0xbe5bb6a7	-0.21456395
172	0x3c2817ba	0.010259563
173	0xbe06bb2a	-0.13157335
174	0xbdb1fb5d	-0.08690522
175	0xbe7bda98	-0.24595106
176	0xbe8f2455	-0.27957407
177	0xbde4d7d1	-0.11173976
178	0x3e8b9294	0.27260268
179	0xbe50e5fe	-0.20400235
180	0xbe229088	-0.15875447
181	0xbdf61940	-0.12016535
182	0x3d8a7ffd	0.06762693
183	0x3e846e5b	0.25865445
184	0xbdc93a10	-0.09825528
185	0xbd8d45d1	-0.06898082
186	0xbe0ccf21	-0.13750888
187	0xbe3bc36e	-0.1833627
188	0x3cebdf42	0.028792981
189	0x3e890fe5	0.2676994
190	0xbdcfa25e	-0.10138391
191	0xbe5e9e5c	-0.21740097
192	0x3cd11061	0.025520505
193	0xbe1502a8	-0.14551795
194	0xbc959cff	-0.018263338
195	0x3e7e00e7	0.24805032
196	0x3d938921	0.0720389
197	0xbe084db7	-0.13310896
198	0x3e7b7abf	0.24558543
199	0x3e622ade	0.22086665
200	0x3d8eb444	0.06967977
201	0x3e352acf	0.17692111
202	0x3e596366	0.21229324
203	0x3e532dd4	0.20622951
204	0xbce17eee	-0.027526345
205	0xbe5b825b	-0.21436445
206	0xbe8d6569	-0.27616432
207	0x3e615a55	0.22007115
208	0x3d842847	0.06452995
209	0x3e493853	0.19650392
210	0x3e944168	0.2895615
211	0xbe77498a	-0.24149147
212	0xbe6d4d49	-0.23174013
213	0x3e0cbcf9	0.13743962
214	0xbdf57def	-0.119869106
215	0x3dcae39d	0.09906695
216	0xbe671f09	-0.22570433
217	0x3d7f5f0c	0.062346503
218	0xbe4da3be	-0.20081994
219	0xbd1f0ea8	-0.038832337
220	0xbd630d7d	-0.055432785
221	0x3e53764b	0.20650594
222	0xbe92b77d	-0.28655615
223	0x3e2f21e0	0.17102766
224	0x3e81b382	0.25332266
225	0x3e8656cb	0.26238093
226	0x3e2f0cf6	0.17094788
227	0x3e80ea7b	0.25178894
228	0x3e2395ed	0.15975161
229	0xbe6ee10d	-0.23328038
230	0x3d7193d8	0.058978885
231	0x3e937d06	0.28806323
232	0x3e121feb	0.14269988
233	0xbe095cbc	-0.13414282
234	0xbe68ac0c	-0.2272188
235	0x3da326c6	0.0796638
236	0x3d61c954	0.055123642
237	0xbe3e3038	-0.18573081
238	0xbe8dac15	-0.2767035
239	0xbddc9adb	-0.10771724
240	0x3e47546b	0.19465797
241	0xbe8e197e	-0.27753824
242	0xbb80d19f	-0.003931239
243	0xbe3192f7	-0.17341219
244	0x3e8b054d	0.27152482
245	0xbe358ae7	-0.17728768
246	0xbe2cf086	-0.16888627
247	0x3c544063	0.012954804
248	0x3e91edc2	0.28501707
249	0x3e3a0015	0.18164094
250	0xbe2d2a58	-0.16910684
251	0xbe8d20f2	-0.27564198
252	0xbdcd4ce1	-0.10024429
253	0x3d83bf37	0.06432956
254	0x3c8fd80c	0.017559074
255	0xbe1f1883	-0.15536694

weight_u f4 [32]
0	0x3e84e0cf	0.25952765
1	0x3ed6ec76	0.4197728
2	0x3ed6cef9	0.41954783
3	0xbdba58cc	-0.09098968
4	0x3e94dc5f	0.2907438
5	0x3e7678a8	0.24069464
6	0x3dc1f85a	0.094711974
7	0x3dd6ff7c	0.104979485
8	0x3daed170	0.08536041
9	0x3d8e6ddb	0.06954547
10	0xbdedd687	-0.116131835
11	0xbd38210e	-0.0449534
12	0xbe03402d	-0.1281745
13	0x3e71694d	0.23575325
14	0xbe2ae01d	-0.16687055
15	0x3e291ef4	0.16515714
16	0xbda594b8	-0.080850065
17	0x3d898669	0.0671509
18	0x3e84a24e	0.2590508
19	0xbd053e94	-0.032530382
20	0x3e1c59b6	0.15268597
21	0xbd250028	-0.040283352
22	0x3be5a49a	0.0070081474
23	0xbdad7253	-0.08469071
24	0xbd940d4a	-0.07229097
25	0xbe2b542c	-0.16731328
26	0xbc551320	-0.013005048
27	0x3d2fe7c5	0.042945642
28	0xbd66106a	-0.056167997
29	0xbe667791	-0.22506548
30	0xbdd65f4f	-0.104673974
31	0x3e55b230	0.20868754

weight_v f4 [12]
0	0xbe9ae0af	-0.30249545
1	0xbe9806e8	-0.2969277
2	0xbe7e2c68	-0.24821627
3	0xbe60ed24	-0.21965462
4	0xbe9c353a	-0.3050936
5	0x3e2f003d	0.17089935
6	0xbe756833	-0.2396553
7	0xbe438d9a	-0.19096985
8	0x3ed66305	0.4187242
9	0x3ed5fb90	0.4179349
10	0xbebc9e39	-0.36839464
11	0x3dbd867c	0.092541665

weight f4 [32, 12, 1]
0	0xbd9649ee	-0.0733832
1	0xbded9334	-0.116003424
2	0xbddc3718	-0.10752696
3	0xbe12b7a3	-0.14327864
4	0xbdfc327a	-0.12314315
5	0x3cd109bf	0.025517343
6	0xbcb4f331	-0.022088619
7	0xbe2148fe	-0.157505
8	0x3dd3c9b2	0.10341205
9	0x3bcca14c	0.006244814
10	0xbd4be842	-0.049782045
11	0x3d0c45dd	0.034246314
12	0xbd885bc4	-0.06658128
13	0xbde70905	-0.11281017
14	0xbdcc9dd4	-0.09991041
15	0xbe4a54c0	-0.19758892
16	0xbe1d9c9b	-0.15391771
17	0x3daea3e6	0.08527355
18	0xbe079a04	-0.13242346
19	0xbd573200	-0.052537918
20	0x3d94c013	0.07263198
21	0x3e44808b	0.1918966
22	0xbe4aa32e	-0.1978881
23	0x3df61451	0.12015594
24	0xbe17b562	-0.14815286
25	0xbe2d4028	-0.16919005
26	0x3d00919d	0.031388868
27	0xbc970cde	-0.018438753
28	0xbe18f9e3	-0.14939074
29	0x3deadca0	0.11467862
30	0xbe36fd9c	-0.17870182
31	0xbd53a27d	-0.051668633
32	0x3e2c1f29	0.16808762
33	0x3e415e04	0.1888352
34	0xbe106e73	-0.14104633
35	0x3dc96c0b	0.09835061
36	0x3da7b2d5	0.081884064
37	0xbdabd8b9	-0.08390946
38	0x3e0347cc	0.12820357
39	0x3e1a375e	0.15060183
40	0xbd123d06	-0.035702728
41	0xbcb4176a	-0.021983821
42	0xbdb73117	-0.0894491
43	0x3d68b080	0.05680895
44	0xbce4fc83	-0.027952438
45	0xbda3b841	-0.07994128
46	0xbbb2d05c	-0.0054569673
47	0xbc16dabd	-0.009207425
48	0xbd8ce20e	-0.06879054
49	0xbd2f22fa	-0.042757966
50	0xbc4b148a	-0.012395034
51	0x3d235081	0.039871696
52	0xbe1cf8e3	-0.15329318
53	0xbdf8b684	-0.12144187
54	0xbe1ab29a	-0.15107194
55	0xbd17e076	-0.037079297
56	0x3e486646	0.19570264
57	0x3da697ce	0.08134423
58	0xbe35c244	-0.17749888
59	0x3e07f85c	0.13278335
60	0xbce61d9f	-0.028090296
61	0xbdb591e6	-0.088657185
62	0xbe0e72b5	-0.13910945
63	0xbe21d049	-0.1580211
64	0x3c857905	0.016293058
65	0xbd2e07e2	-0.042487986
66	0x3dd31689	0.103070326
67	0xbe344b74	-0.17606908
68	0x3d72ef7d	0.059310425
69	0x3e048709	0.12942137
70	0xbe33c24c	-0.17554587
71	0xbd21a08a	-0.039459743
72	0xbcd39d17	-0.025831742
73	0x3d81a2a4	0.06329849
74	0xbd8927c5	-0.066970386
75	0xbd50df7b	-0.050994378
76	0x3cdbf28f	0.02684906
77	0xbe2947cd	-0.16531296
78	0xbe1e0140	-0.15430164
79	0x3ddea0e1	0.10870529
80	0xba851e0a	-0.0010156047
81	0x3da3e716	0.080030605
82	0xbe44b200	-0.19208527
83	0xbd7bfc4a	-0.0615199
84	0x3e2b922d	0.1675498
85	0xbdd8ec3c	-0.10591933
86	0xbdd14c22	-0.10219599
87	0xbe177638	-0.1479119
88	0xbe435201	-0.19074251
89	0xbe13b678	-0.14425075
90	0x3de2438b	0.11048039
91	0xbe11c2b1	-0.14234425
92	0x3caaa412	0.020830188
93	0xbaa86463	-0.00128473
94	0xbc97f54e	-0.018549588
95	0x3e3d1820	0.18466234
96	0xbddc16b8	-0.10746521
97	0xbe393133	-0.18085174
98	0xbdc8602b	-0.097839676
99	0xbe04ee88	-0.12981617
100	0xbd7ef165	-0.06224193
101	0xbe36a6d1	-0.17837073
102	0x3e2e0ccc	0.16997069
103	0x3dae0d88	0.08498675
104	0x3da37953	0.07982125
105	0x3d438027	0.047729637
106	0x3deb6f79	0.11495871
107	0x3d27bf6d	0.040954042
108	0xbe05abf1	-0.13053872
109	0x3e43aa5a	0.19107953
110	0xbd2b0a85	-0.04175808
111	0xbe0c3ee5	-0.13695867
112	0xbe4abf1e	-0.19799468
113	0xbe03792d	-0.12839194
114	0x3ddc3257	0.10751789
115	0xbba5bcfe	-0.00505793
116	0x3db9f912	0.090807095
117	0x3e3f738e	0.18696424
118	0x3e3c7fcc	0.18408126
119	0xbe2d5593	-0.16927175
120	0x3d981a6c	0.074269146
121	0xbd03c23e	-0.032167666
122	0x3d04da31	0.032434646
123	0x3dfb31f3	0.122653864
124	0x3c9703ea	0.018434484
125	0xbd930672	-0.07178964
126	0x3e2e7858	0.17038095
127	0x3dea5084	0.114411384
128	0x3dedf6d2	0.11619343
129	0x3cd2d007	0.02573396
130	0x3dc256a8	0.094891846
131	0xbe05e556	-0.13075766
132	0xbda4b1f1	-0.08041752
133	0x3e276dd8	0.16350496
134	0xbdec7993	-0.11546626
135	0xbe4625fa	-0.19350424
136	0x3e13ae0c	0.14421862
137	0x3c0f209c	0.008735802
138	0xbe3af0cf	-0.18255924
139	0xbe262030	-0.16223216
140	0xbd857ce8	-0.065179646
141	0xbe47a7bd	-0.19497581
142	0x3cb0c600	0.021578789
143	0xbda39357	-0.07987087
144	0x3d5c2661	0.05374754
145	0xbce60d94	-0.028082646
146	0xb9c9a0f4	-0.00038457627
147	0x3d09ad9a	0.033612825
148	0x3d9a3383	0.07529356
149	0xbdb6fc4c	-0.089348406
150	0x3daa8a53	0.083271645
151	0xbdb1bd52	-0.08678688
152	0x3c58f955	0.013243039
153	0xbdc9e17b	-0.0985746
154	0x3dcf5d8f	0.10125267
155	0x3c8e93c6	0.017404448
156	0xbe13c83e	-0.14431855
157	0xbde4e726	-0.111769006
158	0xbd4fc34b	-0.050723355
159	0xbe41bbd3	-0.18919306
160	0xbe166802	-0.14688113
161	0xbd13826f	-0.036013063
162	0xbcaf70c8	-0.021416083
163	0xbd4bf7d7	-0.049796905
164	0x3cf8b0c5	0.030357728
165	0xbd61e9df	-0.055154677
166	0xbe1e2a80	-0.154459
167	0x3d58e50c	0.05295281
168	0xbd0c4d73	-0.03425355
169	0x3d117e37	0.03552076
170	0x3e03a07f	0.12854193
171	0xbe18d566	-0.14925155
172	0x3be9da16	0.0071365936
173	0xbdbb7063	-0.091522954
174	0xbd779c1f	-0.060451623
175	0xbe2f30ca	-0.17108455
176	0xbe4723e5	-0.19447286
177	0xbd9f2f24	-0.07772663
178	0x3e422cac	0.18962353
179	0xbe114f82	-0.14190486
180	0xbde22942	-0.110430256
181	0xbdab2fed	-0.083587505
182	0x3d40aea9	0.04704157
183	0x3e383d3c	0.17992109
184	0xbd8bf964	-0.06834677
185	0xbd448a2e	-0.04798334
186	0xbdc3e50f	-0.09565174
187	0xbe029be6	-0.12754783
188	0x3ca412d7	0.020028515
189	0x3e3eae90	0.18621278
190	0xbd906e65	-0.07052306
191	0xbe1adaba	-0.151225
192	0x3c916cfe	0.017752167
193	0xbdcf4df0	-0.10122287
194	0xbc5024a8	-0.012704052
195	0x3e30af96	0.1725448
196	0x3d4d40b8	0.05011055
197	0xbdbda06b	-0.09259113
198	0x3e2eee1e	0.17083022
199	0x3e1d52b0	0.15363574
200	0x3d4687fc	0.04846953
201	0x3dfc0a93	0.12306704
202	0x3e173757	0.14767204
203	0x3e12e5a1	0.14345409
204	0xbc9cdb16	-0.019147437
205	0xbe18b106	-0.14911279
206	0xbe44b622	-0.19210103
207	0x3e1cc1a1	0.15308239
208	0x3d37dbbd	0.044887293
209	0x3e0bf82f	0.13668893
210	0x3e4e4116	0.20142016
211	0xbe2c0397	-0.16798244
212	0xbe251173	-0.16119938
213	0x3dc3cbcd	0.09560356
214	0xbdaac3e3	-0.08338144
215	0x3d8d2168	0.06891137
216	0xbe20c4d5	-0.15700085
217	0x3d31a326	0.04336848
218	0xbe0f0b33	-0.13969116
219	0xbcdd4820	-0.027011931
220	0xbd1df053	-0.03855927
221	0x3e131809	0.14364637
222	0xbe4c1d11	-0.19932963
223	0x3df3a540	0.11896753
224	0x3e3470fd	0.17621227
225	0x3e3ae4c0	0.18251324
226	0x3df38828	0.11891204
227	0x3e335952	0.17514542
228	0x3de394e9	0.11112387
229	0xbe262a50	-0.16227078
230	0x3d280ad4	0.04102595
231	0x3e4d2fe1	0.20037796
232	0x3dcb4a33	0.09926262
233	0xbdbf1977	-0.09331029
234	0xbe21d8fe	-0.15805432
235	0x3d62fa46	0.05541446
236	0x3d1d0ed7	0.03834423
237	0xbe044bb9	-0.12919511
238	0xbe451873	-0.19247608
239	0xbd997424	-0.07492855
240	0x3e0aa793	0.13540487
241	0xbe45b0aa	-0.19305673
242	0xbb3336bc	-0.0027345857
243	0xbdf70ae2	-0.120626226
244	0x3e416820	0.18887377
245	0xbdfc9043	-0.12332203
246	0xbdf0984b	-0.117477976
247	0x3c13a49d	0.009011415
248	0x3e4b046b	0.19825904
249	0x3e0161f1	0.12635018
250	0xbdf0e8bc	-0.117631406
251	0xbe4456e2	-0.19173768
252	0xbd8ecec7	-0.069730334
253	0x3d374993	0.0447479
254	0x3c481dea	0.012214163
255	0xbddd55d6	-0.108073875

bias f4 [32]
0	0x3e28d085	0.16485794
1	0xbe292500	-0.1651802
2	0x3d7cb439	0.06169531
3	0xbd70bd25	-0.058774132
4	0xbd88788c	-0.066636175
5	0x3e361eb0	0.17785144
6	0x3e0d15d2	0.13777855
7	0x3db14472	0.08655633
8	0x3d8813c3	0.06644394
9	0x3e2bc301	0.16773607
10	0x3e1a7cac	0.15086621
11	0x3e2b1097	0.16705547
12	0xbcb6111f	-0.02222496
13	0xbbf6e0aa	-0.0075341063
14	0x3ba07814	0.004897127
15	0x3b8bcb21	0.004266158
16	0x3e2a264a	0.16616169
17	0xbb8b8961	-0.00425832
18	0x3e053aea	0.13010755
19	0xbddc8d4b	-0.10769137
20	0xbe224cbc	-0.15849584
21	0xbe000a04	-0.1250382
22	0xbbbbe29a	-0.0057338
23	0xbda8a55d	-0.082346655
24	0xbc127364	-0.008938644
25	0xbdadaf4f	-0.08480703
26	0x3cbf27e2	0.023334447
27	0xbd729944	-0.059228197
28	0xbd8c25b6	-0.0684313
29	0x3e1e2f79	0.15447797
30	0x3e2835b0	0.1642673
31	0x3dd25959	0.10270948

weight_orig f4 [32, 32, 1]
0	0xbe0c439d	-0.13697667
1	0xbdc2484d	-0.094864465
2	0xbe16dcf1	-0.1473272
3	0x3e2b3392	0.16718891
4	0x3dec8b79	0.1155004
5	0xbcf1384e	-0.029445793
6	0xbddd8d69	-0.108179875
7	0x3e09962b	0.13436191
8	0xbe3103e5	-0.17286642
9	0xbce93474	-0.028467394
10	0xbdaa76ca	-0.083234385
11	0xbe100e09	-0.14067854
12	0x3d82131e	0.063513026
13	0x3c5957f6	0.0132656
14	0x3e0e5e2a	0.13903108
15	0x3df78be8	0.12087232
16	0xbd89d3fa	-0.067298844
17	0xbccb6f44	-0.024833329
18	0x3e0e434b	0.13892858
19	0x3e071873	0.1319292
20	0x3c8a50d6	0.016884249
21	0x3e021970	0.12705016
22	0xbd88e62c	-0.06684527
23	0xbe0bc1b3	-0.13648109
24	0xbd569803	-0.052391063
25	0xbe234e3c	-0.15947813
26	0xbb985d9f	-0.0046498324
27	0x3de5fe66	0.11230163
28	0xbe2ac13d	-0.16675277
29	0xbdbe32e9	-0.09287054
30	0x3e1ab852	0.15109375
31	0xbc92d5af	-0.017924158
32	0x3e1999e7	0.15000115
33	0x3daf5de3	0.08562829
34	0x3d517a98	0.051142305
35	0x3dfde0b7	0.123963766
36	0xbd876785	-0.06611542
37	0x3d89df95	0.06732098
38	0xbe0c2dab	-0.13689296
39	0xbddd82bf	-0.108159535
40	0x3d2da5d1	0.042394463
41	0xbc352b64	-0.011057708
42	0xbced642d	-0.028978432
43	0xbd33f95e	-0.043938987
44	0xbe180c1f	-0.14848374
45	0x3dc60973	0.09669771
46	0x3dd2511e	0.10269378
47	0xbd737618	-0.059438795
48	0xbe08215f	-0.1329398
49	0x3ce7ec6f	0.028310983
50	0xbd836d33	-0.064173125
51	0x3ce2257f	0.02760577
52	0xbd902939	-0.070391126
53	0x3da36de6	0.07979946
54	0xbe1771fe	-0.14789578
55	0x3e1eb1f1	0.15497567
56	0xbdf64b3d	-0.12026069
57	0x3d52b74e	0.051444344
58	0xbd296bee	-0.041362695
59	0xbe277bf2	-0.16355875
60	0xbda3a878	-0.07991117
61	0xbd779e25	-0.060453553
62	0x3b4574ae	0.003012936
63	0xbe101c2a	-0.14073244
64	0xbe2f30ea	-0.17108503
65	0x3e1eadcb	0.15495984
66	0x3e16f78e	0.14742872
67	0x3df44431	0.11927069
68	0x3ca8e84b	0.020618578
69	0x3e1578ca	0.14596859
70	0x3d856b7d	0.065146424
71	0xbdd62e87	-0.10458093
72	0x3dddc5de	0.10828756
73	0x3e1f6da1	0.15569164
74	0x3dfab1d5	0.1224095
75	0x3c33329a	0.010937357
76	0xbdddf173	-0.108370684
77	0xbe29507b	-0.16534607
78	0x3c6bc4c3	0.014390173
79	0xbd926ede	-0.071500525
80	0x3d8d18e0	0.0688951
81	0xbdde5e98	-0.10857886
82	0x3da9183b	0.08256575
83	0x3e142909	0.14468779
84	0xbe1e3213	-0.1544879
85	0xbddde760	-0.10835147
86	0x3e1ad971	0.1512201
87	0xbdce6069	-0.100769825
88	0xbe0c6272	-0.13709429
89	0x3db1a9ad	0.08674941
90	0x3cb8a5a3	0.02253992
91	0xbdac6e7c	-0.08419511
92	0x3da387e9	0.07984907
93	0x3c69bcdc	0.014266219
94	0x3dc417c1	0.09574843
95	0x3e0499a6	0.12949237
96	0x3d02b5bf	0.031911608
97	0xbc8b75cc	-0.017023943
98	0x3d353990	0.04424435
99	0x3d5e336a	0.05424825
100	0xbc93a108	-0.018021122
101	0x3e220525	0.15822275
102	0xbe0e4f65	-0.13897474
103	0xbe117590	-0.14205003
104	0xbdc5b692	-0.09653963
105	0x3df28cd4	0.11843267
106	0x3d087726	0.033316754
107	0x3d983cb5	0.07433454
108	0x3de9fbe0	0.114249945
109	0xbd040670	-0.0322327
110	0xba3d6249	-0.00072244235
111	0x3e092151	0.13391615
112	0xbd8b95c0	-0.06815672
113	0xbc3064e0	-0.010766238
114	0x3c39ee2d	0.011348289
115	0x3e27efa8	0.16400015
116	0xbe0c9189	-0.13727392
117	0x3e038072	0.12841967
118	0xbd2d4b60	-0.04230821
119	0xbac16c79	-0.0014757059
120	0x3ab6f791	0.0013959279
121	0x3d7e2a69	0.062052164
122	0x3dc791f2	0.09744634
123	0x3e189ef3	0.14904384
124	0xbe30651d	-0.17226072
125	0xbde31118	-0.11087245
126	0x3df331b9	0.11874718
127	0x3e0bbf4c	0.13647193
128	0xbdc857a5	-0.09782342
129	0x3e1a3587	0.15059482
130	0x3e2f74dd	0.17134424
131	0xbe287664	-0.16451412
132	0xbd8b6d8b	-0.06808003
133	0x3decd50b	0.11564072
134	0x3e069306	0.13142022
135	0x3d42addb	0.047529083
136	0xbd5f0dd6	-0.054456554
137	0x3c98ca96	0.018651288
138	0xbde5f97c	-0.11229226
139	0xbcfe17c4	-0.031017192
140	0x3df2960f	0.11845028
141	0xbd1c3eef	-0.038145956
142	0xbe0c664a	-0.13710895
143	0xbe0c4efe	-0.13702008
144	0xbdef951d	-0.11698363
145	0x3e13baa2	0.14426664
146	0x3e1a89a8	0.15091574
147	0xbdd3b69d	-0.10337565
148	0xbe2f8620	-0.17141008
149	0xbe1a04d5	-0.15040906
150	0x3d7000ee	0.058594637
151	0xbd44a6b7	-0.048010554
152	0xbdf0380c	-0.1172944
153	0x3dae28aa	0.0850385
154	0xbe04438c	-0.12916392
155	0x3d8a4c50	0.06752837
156	0xbdefd047	-0.117096476
157	0x3e04104e	0.12896845
158	0x3de08070	0.109619975
159	0x3d97eca3	0.07418182
160	0x3da0a561	0.078440435
161	0x3b7e2706	0.0038780584
162	0xbe0e8b42	-0.1392031
163	0xbe29aaed	-0.1656911
164	0xbe03c5ac	-0.12868375
165	0xbdab544a	-0.08365686
166	0x3ded6e91	0.115933545
167	0x3e06ff23	0.13183264
168	0x3dcf169a	0.10111733
169	0xba077395	-0.00051670644
170	0xbdb3c957	-0.08778637
171	0xbe139e42	-0.1441584
172	0xbc712cc6	-0.0147201475
173	0x3dc995ae	0.09843002
174	0xbe26938a	-0.16267219
175	0xbe2d0d29	-0.16899551
176	0x3d7dc499	0.06195507
177	0x3e0eb898	0.13937604
178	0x3d88f39b	0.06687089
179	0x3b4208c1	0.0029607269
180	0x3e0986d5	0.1343034
181	0xbdb0d334	-0.08634034
182	0xbb2a709e	-0.0026007066
183	0xbdb17644	-0.086651355
184	0x3c72d4c5	0.014821236
185	0x3ca01b78	0.019544348
186	0xbd72ff5b	-0.059325557
187	0x3bb7bb02	0.00560701
188	0xbddee549	-0.108835764
189	0xbc6124c0	-0.013741672
190	0xbdab396f	-0.08360564
191	0x3e262ce0	0.16228056
192	0xbbb24206	-0.0054399995
193	0xbe297366	-0.16547927
194	0x3e1cbea8	0.15307105
195	0xbe0d3c68	-0.13792574
196	0xbdaf4676	-0.08558361
197	0xbcdbc645	-0.02682794
198	0xbe2a827e	-0.16651341
199	0x3e150e68	0.14556277
200	0x3db346aa	0.087537125
201	0x3e24e920	0.16104555
202	0x3d08254c	0.033238694
203	0xbd9f77bc	-0.077865094
204	0xbd8c7bd7	-0.06859558
205	0x3cac1a67	0.021008683
206	0xbe259125	-0.1616865
207	0xbdf18124	-0.1179221
208	0xb952484d	-0.00020054095
209	0x3e26a4ce	0.16273805
210	0x3db8657a	0.0900373
211	0xbcb42242	-0.021988992
212	0x3c10a69a	0.008828783
213	0x3df4989b	0.1194317
214	0x3e38c3ae	0.18043396
215	0xbda65144	-0.08120969
216	0x3d7704c4	0.06030728
217	0x3e0ba570	0.13637328
218	0x3c541b9b	0.012946035
219	0xbe179afe	-0.14805219
220	0x3d9aa9f8	0.0755195
221	0x3e013b79	0.12620343
222	0xbcf145e1	-0.029452266
223	0xbd799b14	-0.06093891
224	0xbe18b9f2	-0.14914683
225	0xbe1e9cf3	-0.15489559
226	0x3dfbc7d1	0.12293971
227	0x3d0b77be	0.034049742
228	0xbe25f976	-0.16208443
229	0x3df915aa	0.12162335
230	0x3e24ce7b	0.16094391
231	0xbd7d758e	-0.061879687
232	0x3b3777fe	0.0027995105
233	0x3d2ba74e	0.0419076
234	0x3be55a0a	0.006999259
235	0x3d862cb2	0.06551494
236	0xbe05a775	-0.13052161
237	0x3d342230	0.043977916
238	0xbce6e477	-0.028185112
239	0xbe1a13ef	-0.15046667
240	0x3dcdf54e	0.10056554
241	0x3de377da	0.11106844
242	0x3d952b01	0.07283593
243	0xbd4e81bc	-0.050416693
244	0xbe237981	-0.15964319
245	0xbdf4a5d0	-0.11945689
246	0x3da434bd	0.080178715
247	0x3d21f85d	0.0395435
248	0xbe037028	-0.12835753
249	0x3d26ad3b	0.04069255
250	0xbe2ed435	-0.17073138
251	0xbd80e261	-0.06293178
252	0x3d223f8d	0.039611388
253	0x3e2b0ab8	0.16703308
254	0xbdd1618d	-0.102236845
255	0x3ca0d6e2	0.019633714

weight_u f4 [32]
0	0x3e9201fd	0.28517142
1	0xbe46fdcf	-0.19432758
2	0x3e35813e	0.17725083
3	0x3e94cece	0.2906403
4	0x3d2b274d	0.041785527
5	0xbdd71a95	-0.10503117
6	0xbdfa79b7	-0.122302465
7	0xbe17496a	-0.14774099
8	0x3b26b31f	0.0025436354
9	0x3e8a3416	0.26992863
10	0x3e35df52	0.17760971
11	0xbe8cf17a	-0.27527982
12	0x3d52cc70	0.051464498
13	0xbe216f9e	-0.15765235
14	0x3cf2e81d	0.029651696
15	0x3e04a7d9	0.12954654
16	0x3ddccb48	0.1078096
17	0x3c99257b	0.01869463
18	0x3d9aa0f0	0.07550228
19	0xbe5e1db8	-0.21691024
20	0x3e7afc3a	0.2451028
21	0x3e1a5cad	0.15074416
22	0x3e9ada07	0.30244467
23	0xbdbc161f	-0.09183907
24	0x3de80c51	0.11330474
25	0xbd1c3d98	-0.038144678
26	0xbdd86e59	-0.10567922
27	0xbea317d9	-0.31854132
28	0xbe081458	-0.1328901
29	0xbe067960	-0.13132238
30	0xbe7154b4	-0.23567468
31	0xbe22df11	-0.15905406

weight_v f4 [32]
0	0xbdf9bb36	-0.12193911
1	0x3dc1f466	0.094704434
2	0x3d014db2	0.031568237
3	0x3dc6cc0c	0.097068876
4	0x3db98f67	0.09060555
5	0xbcc3ae25	-0.02388675
6	0xbe3fa09c	-0.18713611
7	0x3bc2c6e1	0.0059441184
8	0xbe079c88	-0.13243306
9	0x3e5e66a5	0.21718843
10	0xbe0c9ea6	-0.13732395
11	0x3d9f4630	0.07777059
12	0x3eb1adf5	0.3470303
13	0xbe855ace	-0.2604584
14	0x3e5748dc	0.21023887
15	0x3de095c9	0.10966069
16	0x3d95d46c	0.07315907
17	0xbe7caf77	-0.2467631
18	0x3e2131a7	0.15741597
19	0x3e9eec9d	0.31039897
20	0xbdac7965	-0.08421592
21	0x3d9f3337	0.0777344
22	0x3e8282e3	0.25490484
23	0xbe424648	-0.18972123
24	0x3c6fd0ba	0.014637167
25	0xbe0f1c42	-0.13975623
26	0x3bd7e838	0.006588962
27	0x3ea50c96	0.32236165
28	0xbe2239b2	-0.15842322
29	0xbd779a35	-0.060449798
30	0x3e09091c	0.13382381
31	0x3eae588b	0.34051928

weight f4 [32, 32, 1]
0	0xbdfe00b3	-0.12402477
1	0xbdafe975	-0.0858945
2	0xbe08991e	-0.1333966
3	0x3e1b036e	0.15138027
4	0x3dd62d9e	0.104579195
5	0xbcda6948	-0.02666153
6	0xbdc89a77	-0.09795087
7	0x3df9276f	0.121657245
8	0xbe204707	-0.15652095
9	0xbcd32772	-0.025775645
10	0xbd9a5880	-0.07536411
11	0xbe026f03	-0.1273766
12	0x3d6b8d01	0.05750752
13	0x3c44cae5	0.012011264
14	0x3e00e7fa	0.12588492
15	0x3de023be	0.10944317
16	0xbd79975d	-0.060935367
17	0xbcb832e2	-0.0224852
18	0x3e00cfa6	0.12579212
19	0x3df4a499	0.11945457
20	0x3c7a7978	0.0152877495
21	0x3deb9873	0.11503687
22	0xbd77e8ba	-0.06052468
23	0xbdfd1571	-0.12357605
24	0xbd424d82	-0.0474372
25	0xbe13dd39	-0.14439858
26	0xbb89f56d	-0.0042101652
27	0x3dd03f1f	0.101682894
28	0xbe1a9be9	-0.15098538
29	0xbdac36ea	-0.084089115
30	0x3e0c1722	0.136807
31	0xbc84f35f	-0.01622933
32	0x3e0b13cd	0.13581772
33	0x3d9ec8ec	0.077531666
34	0x3d3dabe7	0.046306517
35	0x3de5df4b	0.112242304
36	0xbd7533c9	-0.05986384
37	0x3d79ac61	0.06095541
38	0xbdfdd8f6	-0.12394898
39	0xbdc890cf	-0.09793245
40	0x3d1d3a76	0.03838583
41	0xbc2409f6	-0.0100121405
42	0xbcd6f1d5	-0.026238361
43	0xbd22f4e0	-0.039784312
44	0xbe09aba1	-0.13444377
45	0x3db34fba	0.08755441
46	0x3dbe6e24	0.092983514
47	0xbd5c70d1	-0.053818528
48	0xbdf68457	-0.120369606
49	0x3cd1fe71	0.025634022
50	0xbd6dffb8	-0.0581052
51	0x3cccc359	0.024995493
52	0xbd8287a1	-0.063735254
53	0x3d93f9e5	0.07225398
54	0xbe092013	-0.13391142
55	0x3e0fb089	0.14032187
56	0xbddf0165	-0.10888938
57	0x3d3ecaab	0.046579998
58	0xbd1966e0	-0.037451625
59	0xbe17a5ca	-0.14809337
60	0xbd942eed	-0.07235513
61	0xbd603441	-0.054737333
62	0x3b32c906	0.0027280464
63	0xbe027bce	-0.1274254
64	0xbe1ea034	-0.154908
65	0x3e0facc7	0.14030753
66	0x3e08b137	0.13348852
67	0x3ddd2b6d	0.107992984
68	0x3c98efaf	0.018668978
69	0x3e0756a4	0.13216645
70	0x3d719bcc	0.05898647
71	0xbdc1edff	-0.09469222
72	0x3dc8cd96	0.098048374
73	0x3e105a79	0.14097013
74	0x3de2fd77	0.11083501
75	0x3c2240e8	0.00990317
76	0xbdc8f50c	-0.09812364
77	0xbe194e05	-0.14971168
78	0x3c5579b2	0.013029503
79	0xbd849647	-0.06473976
80	0x3d7f82e5	0.06238069
81	0xbdc957df	-0.09831213
82	0x3d991b17	0.0747587
83	0x3e0626a3	0.13100676
84	0xbe0f3cc2	-0.13988021
85	0xbdc8ebec	-0.098106235
86	0x3e0c3520	0.1369214
87	0xbdbadcd0	-0.09124148
88	0xbdfe3888	-0.12413126
89	0x3da0dd22	0.07854678
90	0x3ca73008	0.020408645
91	0xbd9c2092	-0.076234
92	0x3d941172	0.0722989
93	0x3c53a2f4	0.012917269
94	0x3db18d17	0.08669489
95	0x3df01fcd	0.117248155
96	0x3cecb382	0.02889419
97	0xbc7c8bfd	-0.015414235
98	0x3d2416cb	0.0400608
99	0x3d4930c6	0.04911878
100	0xbc85ab7e	-0.016317125
101	0x3e12b340	0.14326191
102	0xbe00da9b	-0.12583391
103	0xbe03b48c	-0.12861842
104	0xbdb304af	-0.08741128
105	0x3ddb9d9c	0.10723421
106	0x3cf71fad	0.030166471
107	0x3d89d79f	0.067305796
108	0x3dd3dc03	0.10344698
109	0xbcef1537	-0.02918492
110	0xba2b7a04	-0.0006541314
111	0x3df853d4	0.12125364
112	0xbd7cc5da	-0.061712123
113	0xbc1fb70b	-0.009748231
114	0x3c285981	0.010275246
115	0x3e180e8f	0.14849304
116	0xbdfe8dcf	-0.124293916
117	0x3dee2292	0.116276875
118	0xbd1ce893	-0.038307738
119	0xbaaf226b	-0.0013361698
120	0x3aa5aaa0	0.0012639351
121	0x3d662205	0.056184787
122	0x3db4b31c	0.08823225
123	0x3e0a3093	0.13495092
124	0xbe1fb742	-0.15597251
125	0xbdcd98ab	-0.10038885
126	0x3ddc32e9	0.10751898
127	0x3dfd1117	0.12356775
128	0xbdb5661d	-0.08857367
129	0x3e0ba0b5	0.13635524
130	0x3e1eddba	0.1551427
131	0xbe18888d	-0.1489584
132	0xbd7c7d0b	-0.061642688
133	0x3dd6703b	0.10470625
134	0x3df3b2fa	0.118993714
135	0x3d304569	0.043034945
136	0xbd49f68b	-0.049307387
137	0x3c8a5816	0.016887706
138	0xbdd03aac	-0.10167441
139	0xbce61124	-0.028084345
140	0x3ddba5f7	0.10725015
141	0xbd0d78d0	-0.034539044
142	0xbdfe3f7e	-0.12414454
143	0xbdfe154e	-0.12406407
144	0xbdd8edba	-0.10592218
145	0x3e05c2ac	0.13062543
146	0x3e0bece2	0.13664582
147	0xbdbfb1d6	-0.093600914
148	0xbe1eed5b	-0.15520231
149	0xbe0b749e	-0.13618705
150	0x3d594f5a	0.05305419
151	0xbd320e88	-0.04347089
152	0xbdd98141	-0.10620356
153	0x3d9db0f0	0.07699764
154	0xbdef83e1	-0.11695076
155	0x3d7a7147	0.061143186
156	0xbdd9234c	-0.106024355
157	0x3def2716	0.11677377
158	0x3dcb461a	0.0992548
159	0x3d898f1f	0.06716751
160	0x3d9174bf	0.07102346
161	0x3b661ef4	0.0035113664
162	0xbe0110cf	-0.12604068
163	0xbe199fea	-0.15002409
164	0xbdee9fef	-0.11651599
165	0xbd9b210e	-0.07574664
166	0x3dd6fb3d	0.10497139
167	0x3df476c2	0.11936714
168	0x3dbb81c7	0.091556124
169	0xb9f549a1	-0.000467849
170	0xbda2c964	-0.079485685
171	0xbe05a8fb	-0.13052742
172	0xbc5a5ed8	-0.013328277
173	0x3db68614	0.08912292
174	0xbe16d35b	-0.14729063
175	0xbe1cb03e	-0.15301606
176	0x3d65c5d6	0.056096874
177	0x3e0139db	0.12619726
178	0x3d78010d	0.060547877
179	0x3b2fafec	0.0026807738
180	0x3df90baa	0.12160428
181	0xbda01af0	-0.07817638
182	0xbb1a52e9	-0.0023547953
183	0xbda0ae95	-0.07845799
184	0x3c5bdebf	0.013419806
185	0x3c90f7e0	0.017696321
186	0xbd5c054e	-0.053715996
187	0x3ba65b96	0.005076836
188	0xbdc9d1d3	-0.09854474
189	0xbc4bdae0	-0.012442321
190	0xbd9b08bd	-0.07570026
191	0x3e167666	0.14693603
192	0xbba16713	-0.0049256175
193	0xbe196da3	-0.1498323
194	0x3e0dec76	0.13859734
195	0xbdffc33c	-0.1248841
196	0xbd9eb3b6	-0.07749121
197	0xbcc6fe5c	-0.02429121
198	0xbe1a6319	-0.15076865
199	0x3e06f651	0.131799
200	0x3da25312	0.07926001
201	0x3e155143	0.1458178
202	0x3cf68b73	0.030095791
203	0xbd9063a0	-0.07050252
204	0xbd7e6685	-0.06210949
205	0x3c9bd470	0.019022197
206	0xbe15e965	-0.14639814
207	0xbddaab3b	-0.10677191
208	0xb93e6629	-0.0001815787
209	0x3e16e2fd	0.14735027
210	0x3da6f5f0	0.081523776
211	0xbca319e6	-0.01990981
212	0x3c02f927	0.007993973
213	0x3ddd77dc	0.10813877
214	0x3e274b3c	0.16337293
215	0xbd96975a	-0.07353087
216	0x3d5fa961	0.05460489
217	0x3dfce243	0.123478435
218	0x3c400d47	0.011721916
219	0xbe094533	-0.13405304
220	0x3d8c0a24	0.06837872
221	0x3dea067f	0.1142702
222	0xbcda7593	-0.026667392
223	0xbd620111	-0.0551768
224	0xbe0a4905	-0.13504417
225	0xbe0f9d87	-0.14024936
226	0x3de3f92a	0.11131509
227	0x3cfc8f83	0.03083015
228	0xbe1647d9	-0.14675845
229	0x3de18845	0.110123195
230	0x3e153923	0.14572577
231	0xbd657e44	-0.05602862
232	0x3b261ee9	0.0025348014
233	0x3d1b6c39	0.037945006
234	0x3bcfaa4d	0.00633744
235	0x3d72f9ac	0.059320137
236	0xbdf20865	-0.118180074
237	0x3d2319d6	0.03981956
238	0xbcd10f6f	-0.025520055
239	0xbe0b824b	-0.13623922
240	0x3dba7bd6	0.09105651
241	0x3dcdf5b5	0.100566305
242	0x3d871036	0.06594889
243	0xbd3afafd	-0.045649517
244	0xbe140467	-0.14454804
245	0xbddd83d1	-0.108161576
246	0x3d94adef	0.07259738
247	0x3d12a7ae	0.035804443
248	0xbdee0513	-0.116220616
249	0x3d16ea9e	0.036844842
250	0xbe1e4c43	-0.15458779
251	0xbd696528	-0.056981236
252	0x3d12e822	0.03586591
253	0x3e1ade71	0.15123917
254	0xbdbd953a	-0.09256978
255	0x3c91a192	0.017777238

weight f4 [1, 32, 1]
0	0xbde44f31	-0.11147917
1	0x3c2ae934	0.0104315765
2	0x3da109d9	0.078632064
3	0xbdf8b1d4	-0.12143293
4	0xbd8a2e52	-0.06747116
5	0xbbb7b5d9	-0.0056063947
6	0xbdbf19a8	-0.093310654
7	0xbd8e0231	-0.06934012
8	0x3e07353f	0.13203906
9	0x3de5331d	0.1119139
10	0x3cf30bea	0.029668767
11	0xbe34b58d	-0.17647381
12	0x3ca18c55	0.019720236
13	0x3e25119b	0.16119997
14	0xbda30d4f	-0.07961523
15	0x3d975e45	0.07391027
16	0x3e1a30c4	0.15057665
17	0x3e327be8	0.17430079
18	0x3e2e7ef5	0.17040618
19	0xbdc7478b	-0.097304426
20	0xbc7cefe3	-0.015438053
21	0x3d5be4ba	0.053684928
22	0x3d80f4d4	0.06296697
23	0xbcb2c4d5	-0.021822372
24	0x3dd30ade	0.10304807
25	0x3d3839b4	0.044976905
26	0xbdb842ea	-0.08997138
27	0xbd2279be	-0.039666884
28	0x3c026e06	0.007960802
29	0x3e07e09d	0.13269277
30	0xbd1c2d6e	-0.038129263
31	0x3dd80946	0.10548644

weight f4 [1, 32, 1]
0	0x3d271987	0.04079583
1	0x3d370aa4	0.044687882
2	0xbe0eb6b4	-0.13936883
3	0x3e01a102	0.12659076
4	0xbd9cf604	-0.07664111
5	0x3d9395cc	0.07206306
6	0x3d3f22d7	0.046664085
7	0x3da02d8d	0.07821188
8	0x3db93ce6	0.090448186
9	0x3e29acc9	0.16569819
10	0xbe1b9b61	-0.15195991
11	0xbe1f74a5	-0.1557184
12	0xbc2c5d24	-0.010520253
13	0x3e1c095b	0.15237944
14	0x3d524df6	0.05134388
15	0x3e0ba665	0.13637693
16	0xbb7c1c77	-0.0038469115
17	0x3e089db7	0.13341413
18	0xbd2c026f	-0.04199451
19	0xbd8cbf39	-0.0687241
20	0xbd253e7c	-0.040342793
21	0x3d1059b0	0.035241783
22	0x3b735821	0.0037131386
23	0x3dbe91fb	0.09305187
24	0xbdf1d53b	-0.118082486
25	0xbd2b77c0	-0.04186225
26	0xbe34dcb4	-0.17662317
27	0x3cccb9df	0.024990974
28	0xbdfafe4e	-0.12255536
29	0x3d7c6b27	0.061625626
30	0x3d417d84	0.04723884
31	0x3c7def98	0.015499018

weight f4 [1, 32, 1]
0	0xbcc7733b	-0.024346938
1	0xbe039f6c	-0.12853783
2	0xbd821933	-0.063524626
3	0x3d915692	0.0709659
4	0xbce34b8d	-0.027745986
5	0x3cc2c8c2	0.02377737
6	0xbcb6f49a	-0.022333432
7	0x3da1077e	0.07862757
8	0xbd4797c8	-0.048728734
9	0xbd05ccc4	-0.032665983
10	0xbd012edf	-0.03153884
11	0x3d343fd8	0.0440062
12	0x3debb627	0.11509352
13	0x3db100e9	0.08642752
14	0xbdd7bfcc	-0.10534629
15	0x3d6a2ddf	0.057172652
16	0xbd9ba61a	-0.07600041
17	0x3cd06659	0.025439428
18	0xbd2345b6	-0.039861403
19	0x3cc14331	0.02359161
20	0xbc6132c4	-0.013745014
21	0x3da7b1cd	0.0818821
22	0xbe2df5af	-0.16988252
23	0x3c6021e9	0.01367996
24	0x3e34a833	0.17642288
25	0x3dd35057	0.10318058
26	0xbe2e6082	-0.17029002
27	0x3dcc61d0	0.09979594
28	0xbdcde175	-0.10052768
29	0x3d50d287	0.050982025
30	0x3e0023b2	0.12513617
31	0x3d83aa57	0.06428974

bias f4 [32]
0	0xbd9fc7fd	-0.078018166
1	0x3d1df5ef	0.03856462
2	0x3de7b98e	0.113146886
3	0xbe2a6df8	-0.16643512
4	0xbdd0f87d	-0.102036454
5	0xbe192646	-0.14956006
6	0x3e014e9e	0.12627646
7	0xbe35e817	-0.17764316
8	0xbdc3bb2f	-0.09557187
9	0x3da899f7	0.082324915
10	0xbd95ede0	-0.07320762
11	0xbbef56de	-0.0073040565
12	0xbde4bd8f	-0.11168968
13	0xbcae85b8	-0.021303996
14	0x3e1d82b9	0.15381898
15	0xbdf80b51	-0.121115334
16	0x3e17d21f	0.14826249
17	0xbddda944	-0.108233005
18	0xbe0fe6af	-0.14052843
19	0x3c98a679	0.018634068
20	0xbe0499e9	-0.12949337
21	0x3de4a8fe	0.11165045
22	0x399f72c8	0.00030412362
23	0xbce1948f	-0.027536659
24	0x3d67f75c	0.056632385
25	0x3d93db6e	0.07219587
26	0x3d9afa95	0.07567326
27	0x3d467bb0	0.0484578
28	0xbd3c4812	-0.04596717
29	0x3d33aabf	0.043864008
30	0x3d14153a	0.036153056
31	0xbdc9f79f	-0.09861683

weight_orig f4 [32, 32, 1]
0	0x3de03858	0.10948247
1	0x3e2874d9	0.16450824
2	0x3e0330f2	0.1281164
3	0xbd90ea3e	-0.07075928
4	0xbe0ececc	-0.13946074
5	0x3e1853c9	0.14875712
6	0x3cd81e2d	0.026381576
7	0x3e275599	0.16341247
8	0xbdcc9c17	-0.09990709
9	0xbe0bf757	-0.13668571
10	0x3da23d5d	0.0792186
11	0x3e20ed71	0.15715577
12	0xbe211840	-0.15731907
13	0xbc8aa0e6	-0.016922425
14	0xbe157a87	-0.14597522
15	0x3cd47eb6	0.025939327
16	0x3da07b15	0.07835976
17	0x3c50f0e8	0.012752749
18	0x3d152751	0.03641445
19	0x3d6ae4bd	0.057347048
20	0xbe10be1a	-0.14135018
21	0xbc2eddcf	-0.0106730005
22	0x3cf28290	0.029603273
23	0x3e01eb07	0.12687312
24	0x3e071fc7	0.13195716
25	0x3e1f9ac7	0.15586387
26	0x3d5d287a	0.05399368
27	0xbd1e626b	-0.038668077
28	0x3e0acf41	0.13555624
29	0x3d916e78	0.07101148
30	0xbd72f714	-0.059317663
31	0x3c1c461b	0.009538199
32	0xbcb9bb38	-0.02267228
33	0x3d8a453d	0.067514874
34	0x3d79c0f8	0.060975045
35	0x3b37f66e	0.0028070468
36	0xbd3aad8f	-0.045575675
37	0xbc445b2a	-0.011984626
38	0x3dc10dea	0.09426482
39	0xb996cd7d	-0.0002876333
40	0x3e3a27fb	0.18179314
41	0x3dbb6ab8	0.09151214
42	0x3b3890b6	0.0028162426
43	0xbc3cba65	-0.011519049
44	0xbe2b8ff8	-0.16754138
45	0xbe1478b6	-0.14499173
46	0xbdb20dcd	-0.086940385
47	0x3cfc0335	0.030763248
48	0x3db5b086	0.0887156
49	0x3e0a5cf1	0.13512017
50	0x3d34529b	0.04402409
51	0x3c90d2fe	0.017678734
52	0xbd28d129	-0.041215096
53	0x3d6e9b6b	0.058253687
54	0x3d6ed638	0.058309764
55	0xbc92c37a	-0.017915476
56	0x3df240ba	0.11828752
57	0x3e0aafae	0.13543579
58	0xbda4e859	-0.08052129
59	0xbdd22c6a	-0.102623776
60	0xbe2bfa58	-0.16794717
61	0xbdb99800	-0.09062195
62	0x3d2ec8df	0.042672034
63	0xbe12e188	-0.14343846
64	0x3dc2be9e	0.095090136
65	0x3dd046f9	0.10169787
66	0xbe2e967f	-0.17049597
67	0xbde1e879	-0.11030669
68	0xbd28bead	-0.041197468
69	0x3d8605e9	0.06544096
70	0xba6565fd	-0.0008750854
71	0xbd093929	-0.033501778
72	0xbdd15e08	-0.10223013
73	0x3e27d45e	0.16389605
74	0xbdc9f10d	-0.0986043
75	0x3e16a609	0.14711775
76	0x3de3064d	0.11085186
77	0xbe0549de	-0.1301646
78	0xbe322c55	-0.17399724
79	0xbd9199ab	-0.07109388
80	0x3dd2b1dd	0.10287831
81	0x3c2d1843	0.0105648665
82	0xbda87bac	-0.082267135
83	0x3dd61899	0.104539104
84	0xbc0c51bd	-0.00856441
85	0x3cb5a383	0.022172695
86	0x3dba486b	0.09095844
87	0x3e2cca02	0.16873935
88	0xbd8f4dee	-0.06997286
89	0x3d219511	0.0394488
90	0x3df0b249	0.11752755
91	0xbe24e04f	-0.16101192
92	0x3d75d357	0.060016003
93	0x3cc35374	0.023843504
94	0xbdb21f72	-0.08697404
95	0x3e177d99	0.14794005
96	0xbe038553	-0.12843828
97	0x3e08edaf	0.13371919
98	0x3d887bcc	0.066642374
99	0x3ddb09fa	0.10695262
100	0xbbf57f4a	-0.0074919807
101	0x3c29a4d8	0.010354243
102	0x3df014ae	0.11722694
103	0x3e313308	0.17304623
104	0x3d8a357d	0.06748483
105	0x3d069b11	0.032862727
106	0x3d8b6741	0.068068035
107	0xbdec37ab	-0.11534055
108	0x3ca4bc86	0.020109426
109	0x3da09954	0.07841745
110	0xbd91e2fa	-0.071233705
111	0xbd30f04d	-0.04319792
112	0xbdce1904	-0.10063365
113	0x3d18359c	0.0371605
114	0xbdf0f80c	-0.11766061
115	0x3d80e310	0.06293309
116	0xbd3193dc	-0.0433539
117	0x3da47c84	0.08031562
118	0x3dca3b33	0.098745726
119	0x3d1d6eff	0.038435932
120	0x3d9df5b3	0.07712879
121	0x3e06c3c6	0.13160619
122	0xbdd774cb	-0.10520323
123	0xbe2a1f8a	-0.16613594
124	0xbe24bab9	-0.16086854
125	0x3e1ebe6f	0.15502332
126	0x3d19bbff	0.037532803
127	0xbd93d5b6	-0.072184965
128	0x3e0fb310	0.1403315
129	0xbdf8e60f	-0.12153255
130	0x3de5a580	0.11213207
131	0x3e2fe7bb	0.17178242
132	0x3dd6c316	0.104864284
133	0x3cf74281	0.030183079
134	0xbe0ae4b9	-0.13563813
135	0x3cd31f22	0.025771681
136	0x3d8f387c	0.069931954
137	0x3df554ab	0.1197904
138	0x3d0d7ffc	0.034545884
139	0xbc36e2b8	-0.011162452
140	0xbc9aa1d2	-0.01887599
141	0xbe009162	-0.12555459
142	0xbe039474	-0.12849599
143	0xbd82324e	-0.06357251
144	0x3d9d688a	0.07685955
145	0x3e126c20	0.14299059
146	0x3d943ffa	0.07238765
147	0xbdb62c50	-0.08895171
148	0xbd0b71f4	-0.03404422
149	0xbc85f25e	-0.016350921
150	0xbe04ce12	-0.12969235
151	0xbe210f87	-0.1572858
152	0xbdb25e09	-0.08709342
153	0x3dc78822	0.09742762
154	0x3dcb92db	0.0994012
155	0xbe0f6449	-0.140031
156	0x3e02111a	0.12701836
157	0xbd80df36	-0.06292574
158	0xbe223a09	-0.15842451
159	0xbdf7f6d0	-0.121076226
160	0xbda0fd17	-0.07860773
161	0xbd8d3e09	-0.06896598
162	0xbd0d0595	-0.03442915
163	0x3e177be7	0.14793359
164	0xbd94ac93	-0.072594784
165	0x3e100e40	0.14067936
166	0xbd7a5809	-0.061119113
167	0xbd0e2c6c	-0.034710333
168	0xbd0278d3	-0.03185351
169	0xbd9f2d8b	-0.077723585
170	0xbe0c5b42	-0.13706687
171	0x3e0b463f	0.13601016
172	0xbe1e8a6a	-0.15482488
173	0x3c9b699e	0.01897126
174	0xbc945a09	-0.018109338
175	0xbdfd9185	-0.12381271
176	0xbdae1855	-0.08500735
177	0x3e25fb49	0.16209139
178	0x3e17f2db	0.14838736
179	0xbe2eb025	-0.17059381
180	0xbdd48c3e	-0.103783116
181	0xbdb14a05	-0.08656696
182	0x3e2fc100	0.17163467
183	0x3dd062ee	0.10175119
184	0xbc54e0e0	-0.0129930675
185	0xbccb4991	-0.024815353
186	0x3dc1a12a	0.09454568
187	0x3dec5975	0.115405
188	0xbdcfff3d	-0.10156105
189	0xbcbae3aa	-0.022813637
190	0xb7c5ca2c	-2.3578374e-05
191	0xbca5edb7	-0.020254953
192	0x3e313208	0.17304242
193	0xbdc45d0a	-0.09588058
194	0xbe17b3ec	-0.14814728
195	0xbccfada8	-0.02535136
196	0xbe1ce842	-0.15322974
197	0xba8ce127	-0.0010748253
198	0xbdc09b4e	-0.09404622
199	0x3cf5e7c2	0.030017737
200	0x3ddb7a13	0.10716643
201	0x3c45d2f0	0.012074217
202	0xbe135f28	-0.14391768
203	0x3db9a62b	0.09064897
204	0x3d80d494	0.06290546
205	0xbd820fac	-0.063506454
206	0xbe1d2b71	-0.15348603
207	0xbd2556fd	-0.04036616
208	0xbe1e5b92	-0.15464619
209	0xbe27fde7	-0.1640545
210	0x3e1c80aa	0.15283456
211	0xbe000bae	-0.12504455
212	0xbe2267b6	-0.15859875
213	0x3e05b434	0.13057023
214	0x3d3994b2	0.045307823
215	0xbda7ef83	-0.0819998
216	0xbdb836b3	-0.08994808
217	0xbe00f689	-0.12594046
218	0xbd796cbf	-0.060894724
219	0xbe19a877	-0.1500567
220	0xbdbb63be	-0.09149884
221	0x3defe404	0.117134124
222	0x3d5b6d78	0.053571194
223	0xbc73e6de	-0.014886586
224	0x3d5d7083	0.054062378
225	0xbddc2e75	-0.107510485
226	0x3aef876e	0.0018274614
227	0x3d882f7f	0.06649684
228	0xbc7aae9a	-0.015300417
229	0xbcc9683e	-0.02458584
230	0x3e2993af	0.16560243
231	0x3e0f1df5	0.13976271
232	0x3d9e6cbe	0.07735585
233	0xbe0fd2bc	-0.14045233
234	0x3cce2990	0.025166303
235	0xbbe6d5e0	-0.007044539
236	0xbdc1be2a	-0.09460099
237	0x3b78195c	0.0037856912
238	0xbd2b8f90	-0.04188496
239	0x3e1c6d15	0.15275986
240	0x3e344080	0.1760273
241	0xbdff8a58	-0.12477559
242	0xbe31bdd3	-0.17357568
243	0x3d87b624	0.066265374
244	0xbc431b6a	-0.0119083915
245	0xbdb53e21	-0.08849741
246	0x3d8bcbc3	0.06825974
247	0xbdf6c473	-0.120491885
248	0xbe2b1653	-0.16707735
249	0xbe1ecd14	-0.15507919
250	0x3c85a953	0.016316092
251	0xbe10048d	-0.14064236
252	0xbe0647e7	-0.13113366
253	0xbe28dd50	-0.16490674
254	0x3ddc1ac1	0.107472904
255	0x3c9733a9	0.01845725

weight_u f4 [32]
0	0x3d851f6e	0.06500135
1	0xbd154094	-0.03643854
2	0x3e631f61	0.22179939
3	0x3dd256ca	0.1027046
4	0xbe580161	-0.21094276
5	0xbe71d02e	-0.2361457
6	0x3de2e00b	0.11077889
7	0xbdcd8049	-0.10034234
8	0x3df2c01b	0.118530475
9	0xbd2500ac	-0.040283844
10	0xbeb5542d	-0.35415784
11	0x3d3c8b74	0.04603143
12	0xbe6f55bb	-0.23372547
13	0xbe56ad44	-0.20964533
14	0x3e2d4e03	0.1692429
15	0xbd909cd8	-0.070611656
16	0xbe136308	-0.14393246
17	0x3c0a55b4	0.008443285
18	0xbd4a8b32	-0.049449153
19	0x3e8c85e6	0.27445906
20	0x3dd96e49	0.10616738
21	0x3da45887	0.08024698
22	0xbe4e019f	-0.20117806
23	0xbd9c129b	-0.07620736
24	0xbe198c81	-0.14995004
25	0x3ec18d55	0.3780314
26	0x3e7e4787	0.24831973
27	0xbe918944	-0.28425038
28	0x3d63eaf1	0.05564398
29	0x3daccf69	0.08437998
30	0x3d560a64	0.052256003
31	0x3e6c750b	0.23091523

weight_v f4 [32]
0	0x3bcf74ed	0.0063310773
1	0x3eb69801	0.35662845
2	0xbca643e1	-0.020296039
3	0xbe9f8c9e	-0.3116197
4	0xbe604b47	-0.21903716
5	0x3c31d3d1	0.010853724
6	0x392066f6	0.00015297145
7	0x3dc370e5	0.09543017
8	0x3c5cc3e7	0.013474441
9	0x3e0de9d7	0.13858734
10	0xbd6d77b1	-0.057975475
11	0x3d75ff9b	0.060058217
12	0x3ec5b857	0.38617203
13	0xbe6118fc	-0.21982187
14	0x3d1c6747	0.03818443
15	0x3de5669b	0.11201211
16	0xbe385240	-0.18000126
17	0xbe93eb4c	-0.28890455
18	0xbe35eda1	-0.1776643
19	0x3e2efc7f	0.17088507
20	0x3dc0f075	0.094208635
21	0x3eaca5c9	0.33720234
22	0x3d9d7b74	0.076895624
23	0x3e917e22	0.28416544
24	0xbd91a0d5	-0.071107544
25	0x3cf4d9f5	0.029889086
26	0xbe38b67d	-0.18038364
27	0xbdafc3a6	-0.08582239
28	0x3e31d396	0.1736587
29	0x3dbabeef	0.09118449
30	0x3dbaf2b7	0.091283254
31	0xbd295a58	-0.041345924
