src/checkpoints/PSA_GAN/PSA-GAN/PSA-GAN_discriminator.pt (torch, 115635 bytes, 68 tensors)

weight f4 [64, 10]
0	0x3e139b55	0.14414723
1	0x3f3f6e67	0.74777836
2	0x3f0c133e	0.5471686
3	0xc01064ab	-2.2561443
4	0xbf33c08c	-0.7021568
5	0x3eb3e9f8	0.35139441
6	0xbcef38fe	-0.02920198
7	0xbfab9c9d	-1.340717
8	0x3f09fc1e	0.53900325
9	0x3f297af3	0.6620323
10	0xbf3874b9	-0.72053105
11	0xbff5aa24	-1.9192548
12	0x3f6c9b04	0.92424035
13	0xbf914c9a	-1.1351502
14	0xbf92d6f9	-1.1471854
15	0xbefb24c7	-0.49051496
16	0x3ea79d04	0.3273698
17	0x3ffb1502	1.9615786
18	0xbf5fa190	-0.873559
19	0x3d8dc9c8	0.06923252
20	0x3de0a452	0.109688416
21	0x3e6c9a78	0.231058
22	0xbf9b767e	-1.2145536
23	0x3d92d544	0.071695834
24	0xbeb16204	-0.34645092
25	0x3f8ca099	1.098651
26	0x3eccb84a	0.3998435
27	0x3e373d58	0.17894495
28	0x3e21b5e9	0.1579205
29	0x3e84df9c	0.2595185
30	0xbd8d0403	-0.06885531
31	0x3f9b68f1	1.21414
32	0xbf9a8401	-1.2071534
33	0xbfdf89d5	-1.7463938
34	0xc01062e5	-2.256036
35	0xc0109563	-2.2591178
36	0xbfa131d5	-1.2593333
37	0x3f2e050c	0.6797645
38	0x3e97af60	0.29625988
39	0xbf275d02	-0.65376294
40	0xbd5638d2	-0.05230028
41	0x3fdd4d63	1.7289242
42	0x3fc537c7	1.5407647
43	0xbf810740	-1.0080338
44	0xbfa43977	-1.2830037
45	0xbf0b5a2e	-0.5443448
46	0xbf444898	-0.7667327
47	0x3f4619d7	0.7738318
48	0xbe869c4b	-0.26291117
49	0xbfb957f5	-1.4479967
50	0xbf17609b	-0.59131783
51	0xbf74a9ad	-0.95571405
52	0x401dce3f	2.4657133
53	0xbfa8cca9	-1.3187457
54	0x3f4d80d2	0.8027469
55	0x400f59e2	2.239861
56	0xbe724d0b	-0.23662202
57	0xbf0f19c7	-0.5589871
58	0xbebdc86e	-0.37066978
59	0x3eaaf489	0.3338969
60	0x3f91e15c	1.1396899
61	0xbd26151d	-0.04054748
62	0x3e098c95	0.13432534
63	0xbbd8f078	-0.006620463
64	0xbd4c1115	-0.04982098
65	0xbd814b02	-0.06313135
66	0xbd1c23aa	-0.03811995
67	0xbd09180a	-0.03347019
68	0x3f44e712	0.76915085
69	0xbee6f6c9	-0.45110157
70	0x3f5f0469	0.87116104
71	0x3e351922	0.17685369
72	0xbfc56909	-1.5422679
73	0xbf5db2cf	-0.86600965
74	0x3eb30978	0.34968162
75	0x3e12cc1e	0.14335677
76	0x3eeac689	0.45854595
77	0x3ea23f73	0.31689033
78	0xbe973a2e	-0.29536575
79	0xbfbe376a	-1.4860661
80	0xbf29425b	-0.66116875
81	0xbf28ab68	-0.65886545
82	0xbf144a6f	-0.57926077
83	0xc003895e	-2.0552592
84	0x3db922a5	0.09039811
85	0xbefd8810	-0.4951787
86	0x3fa049ff	1.2522582
87	0x3ef420c7	0.47681257
88	0x40021545	2.0325482
89	0xbf1e220c	-0.617707
90	0xbf0d2851	-0.5513964
91	0x3f084503	0.53230304
92	0xbe43ffc1	-0.19140531
93	0x3e8b38a2	0.27191645
94	0x40045393	2.067601
95	0x3f8f7f5a	1.121074
96	0x3e75a879	0.23990048
97	0xbf8b0b9e	-1.086292
98	0x3f5a2fa1	0.85228926
99	0x401e574f	2.474079
100	0xbde07640	-0.109600544
101	0xbe07000f	-0.13183616
102	0xbf40464d	-0.7510727
103	0xbe4bcf5a	-0.19903317
104	0x3e3e166b	0.1856324
105	0x3e89a823	0.2688609
106	0x3fcf319a	1.6187012
107	0xbf6badf1	-0.9206229
108	0xbdc7cbbb	-0.097556554
109	0x3e887f16	0.2665946
110	0xbfd93576	-1.696944
111	0x3ea71266	0.32631224
112	0xbf9c646c	-1.2218146
113	0x3f9aed89	1.210374
114	0xbf60756e	-0.87679183
115	0xbe18f1ee	-0.14936039
116	0xbf7ebde0	-0.99508476
117	0x3fada1bb	1.3564981
118	0xbfc8ed2c	-1.5697379
119	0xbf181c80	-0.5941849
120	0x3f0057ca	0.50133955
121	0xbf9d99d1	-1.2312566
122	0x3f933e0e	1.1503313
123	0xbfee83e2	-1.8633997
124	0xbf89ac06	-1.0755622
125	0xbe9fa2cd	-0.31178895
126	0xbf30f2cc	-0.6912048
127	0xbec8ce53	-0.39219913
128	0x3e7b4700	0.24538803
129	0xbf50fb31	-0.8163329
130	0x3f56007a	0.8359448
131	0x3dc552c1	0.09634925
132	0x401482e0	2.320488
133	0xbef4a20d	-0.47779885
134	0x3f5965aa	0.8492075
135	0xbf21315e	-0.62965953
136	0xbebb2dd8	-0.36558414
137	0xbbb924f6	-0.005650158
138	0xbf7aeddb	-0.9801919
139	0xbf87da58	-1.0613508
140	0x3feeeb58	1.8665571
141	0x3f1c6c01	0.611023
142	0xbf10ae2c	-0.56515765
143	0x3fabd227	1.3423508
144	0xbea35276	-0.3189885
145	0x401782c6	2.3673568
146	0x3eb53b14	0.35396636
147	0xbc9d750d	-0.019220853
148	0x3fc55ff6	1.541991
149	0x3f29292b	0.6607844
150	0xbdfb24f9	-0.12262911
151	0xbf8245b2	-1.0177519
152	0xbef1ad11	-0.47202352
153	0x3f008f9e	0.5021914
154	0x3d5d1c16	0.053981863
155	0x3e6e602c	0.23278874
156	0x3ead229b	0.33815464
157	0x3e830cf6	0.25595826
158	0xbe8b3385	-0.27187744
159	0x3c047274	0.008083928
160	0x3f455843	0.770878
161	0xbf9f9686	-1.2467811
162	0x3eefcb99	0.4683502
163	0xbe80aa76	-0.2513005
164	0xbf3cd01e	-0.7375506
165	0x3f341a6d	0.7035282
166	0xbf994296	-1.1973445
167	0xbea3411a	-0.31885606
168	0x3f587b91	0.8456355
169	0xbf00302e	-0.50073516
170	0x3ea92271	0.3303409
171	0xbee412cb	-0.44545588
172	0xbf8eac9d	-1.1146427
173	0x3f5b468e	0.8565453
174	0x3e59e753	0.2127965
175	0x3f04c296	0.51859415
176	0x3ee67c7b	0.45016846
177	0xbf821509	-1.016267
178	0xbf1845b9	-0.5948139
179	0x3dc28683	0.09498312
180	0x3e5330b8	0.20624053
181	0x3d909116	0.07058923
182	0x3ebee0b6	0.37280816
183	0x3f3db5ad	0.7410534
184	0xbf862a25	-1.0481611
185	0x3f82065c	1.0158191
186	0xbfb939e8	-1.4470797
187	0x3fce3b2a	1.6111805
188	0xbd5d516f	-0.05403274
189	0xbe4b7291	-0.19867922
190	0xbf821c4a	-1.0164883
191	0xbfd5f797	-1.6716183
192	0xbe0e05f7	-0.13869463
193	0x3f0ace31	0.54220873
194	0x3da5b334	0.08090821
195	0x3d8c9561	0.06864429
196	0xbf2595a9	-0.6468149
197	0x3f99fda2	1.2030528
198	0x3f610b53	0.87907904
199	0x3c718a61	0.014742465
200	0x3eb7e495	0.35916582
201	0xbf1709f3	-0.58999556
202	0x3f845b57	1.0340375
203	0x3f165525	0.5872367
204	0xbfda13b9	-1.7037269
205	0xbdf89ac1	-0.12138892
206	0x3f85567b	1.0417017
207	0xbe9eb2ff	-0.30995938
208	0x3f623ef4	0.8837731
209	0x3e850f1f	0.259881
210	0xbf1a12ea	-0.6018511
211	0xbf43684d	-0.76331025
212	0xbfa5599b	-1.291797
213	0xbda7a1a5	-0.08185128
214	0xbfed0096	-1.8515804
215	0xbf17f77f	-0.59362024
216	0xbe105b14	-0.14097244
217	0xbed54e20	-0.41661167
218	0xbda1cd8b	-0.07900532
219	0xbfa33192	-1.2749503
220	0xc01d2615	-2.4554493
221	0xbebce1f8	-0.3689115
222	0xbfbedecd	-1.4911743
223	0x3f13a252	0.57669556
224	0xbeca4b0f	-0.3951039
225	0xbcc000f1	-0.023437949
226	0x3f129d2a	0.57271063
227	0xc04da3aa	-3.2131143
228	0xbf40024a	-0.7500349
229	0x3ef78a93	0.4834791
230	0xbefedbf6	-0.49777192
231	0xc0089c3d	-2.134536
232	0xbfe54988	-1.7913065
233	0xbf79c172	-0.975608
234	0x3f7c8b2c	0.9864986
235	0xbda6ea8d	-0.08150206
236	0x3fd316aa	1.6491292
237	0xbebb77be	-0.36614794
238	0x3ebe393f	0.3715305
239	0xbfb181b6	-1.386771
240	0x3fad88ff	1.3557433
241	0x3effa6de	0.49931997
242	0x3f2db054	0.6784718
243	0xc00722dd	-2.111503
244	0xbfb38dde	-1.402767
245	0x3f497986	0.78701055
246	0xbf0b2849	-0.54358345
247	0xbe8eced1	-0.27892163
248	0x402db9d2	2.7144666
249	0xc01d9c23	-2.4626548
250	0x3fa750ee	1.3071573
251	0xc008fb66	-2.1403441
252	0xbf3978c5	-0.72449905
253	0x3f38aabd	0.72135526
254	0xbb680d12	-0.003540818
255	0xbd46fea9	-0.048582707

bias f4 [32]
0	0xbe88d519	-0.2672508
1	0x3e90ce5c	0.2828244
2	0x3cc86d68	0.024466231
3	0xbe6e35f1	-0.23262765
4	0x3e89b2c0	0.26894188
5	0xbda84474	-0.082161814
6	0xbcd7fc70	-0.026365489
7	0x3e4331d5	0.19061978
8	0xbe018208	-0.12647259
9	0xbe2dc265	-0.16968687
10	0x3e592979	0.21207227
11	0xbe5cedff	-0.21575163
12	0x3e176f1d	0.1478848
13	0x3d56f846	0.052482866
14	0x3ca3517a	0.019936312
15	0xbe85fd65	-0.26169887
16	0xbd2112bb	-0.039324503
17	0xbddafec9	-0.10693128
18	0xbe87aef7	-0.26500675
19	0xbe05c04b	-0.13061635
20	0xbe93a626	-0.288377
21	0xbd5b7fc1	-0.053588632
22	0xbdc496f3	-0.09599104
23	0x3e4d5d8a	0.20055214
24	0x3daad11c	0.08340666
25	0x3e220b36	0.15824589
26	0x3e8b279d	0.2717866
27	0x3e829197	0.255017
28	0x3e8fd9ca	0.28095847
29	0xbe4e5f57	-0.20153557
30	0xbdbacf0e	-0.09121524
31	0xbe64d7b7	-0.22347914

weight_orig f4 [32, 12, 1]
0	0xbace0e72	-0.0015720858
1	0x3df08822	0.11744715
2	0x3e018394	0.1264785
3	0xbe749d69	-0.23888172
4	0xbe18df48	-0.14928925
5	0xbe1b80fc	-0.15185922
6	0x3d04403b	0.032287817
7	0xbe9386e3	-0.28813848
8	0x3d257ed7	0.040404167
9	0xbd7332aa	-0.05937449
10	0xbcc9a234	-0.024613477
11	0x3d946505	0.072458304
12	0xbd548b53	-0.051890682
13	0x3e3ccba7	0.18437062
14	0x3e57593c	0.21030134
15	0xbde5ceb4	-0.11221066
16	0xbe016e1e	-0.12639663
17	0xbe8f3d2f	-0.27976367
18	0x3e709d14	0.2349742
19	0x3e3bd4bb	0.18342869
20	0x3e4220cd	0.18957825
21	0x3d1439cf	0.036187943
22	0xbe392260	-0.1807952
23	0xbe939480	-0.28824234
24	0xbe4cfd5f	-0.20018528
25	0xbe2c1156	-0.16803488
26	0x3e1e9417	0.1548618
27	0xbde78e1b	-0.11306401
28	0xbe073502	-0.13203815
29	0xbe6b9d72	-0.2300928
30	0x3e7e230b	0.24818055
31	0x3e0d2c3d	0.13786407
32	0xbe37ed81	-0.17961694
33	0xbd2373a1	-0.039905194
34	0x3e4a291b	0.19742243
35	0x3e638622	0.22219136
36	0xbe24375f	-0.16036747
37	0xbdc8b7be	-0.09800671
38	0x3e3084c0	0.1723814
39	0xbe442fc9	-0.19158854
40	0x3e93c9f7	0.28865024
41	0xbdbc76a3	-0.09202316
42	0xbd5de772	-0.0541758
43	0x3d2fc40d	0.042911578
44	0xbdd7d39b	-0.105384074
45	0x3d0b878c	0.034064814
46	0x3e7e0c69	0.24809422
47	0x3e0cf7ed	0.13766451
48	0x3d9cdf88	0.07659823
49	0x3d2bfb30	0.041987598
50	0xbe8cd644	-0.27507222
51	0x3dc3fca4	0.09569672
52	0xbd88aa39	-0.066730924
53	0x3e5cdfc3	0.21569733
54	0xbe86cc18	-0.26327586
55	0x3e0565c1	0.13027097
56	0xbe63a67e	-0.2223148
57	0xbdd91a5f	-0.10600733
58	0xbe6061c2	-0.21912292
59	0x3e26e49f	0.1629815
60	0x3dcf9776	0.10136311
61	0xbdcff281	-0.10153676
62	0xbd43502a	-0.047683872
63	0xbd325ced	-0.043545652
64	0xbe0238eb	-0.12717025
65	0xbddc669e	-0.1076176
66	0x3d56cbf3	0.052440595
67	0x3e8ebf19	0.2788017
68	0x3c91b932	0.017788503
69	0x3d6472f5	0.055773694
70	0xbe10eb98	-0.14152372
71	0x3e3c0dd6	0.18364653
72	0x3e3b04fb	0.18263619
73	0xbb175b7d	-0.0023095303
74	0x3df710c7	0.12063747
75	0x3e462a49	0.19352068
76	0xbcffd961	-0.031231584
77	0xbe550f93	-0.20806722
78	0xbe7b7fa1	-0.24560405
79	0xbe8df7f4	-0.27728236
80	0x3e827fab	0.25488028
81	0xbd7684c5	-0.060185213
82	0x3e5f77b8	0.21823013
83	0xbd9ec53a	-0.07752462
84	0x3d0e4d02	0.03474141
85	0x3e4cae75	0.19988425
86	0x3c3ee3a1	0.011650951
87	0xbdb237e5	-0.08702067
88	0xbe143caa	-0.14476267
89	0xbe52a0d3	-0.20569162
90	0xbe83a083	-0.25708398
91	0x3cb05b73	0.021527981
92	0x3d5b0e51	0.05348045
93	0x3e4fa33e	0.20277116
94	0xbe86ded9	-0.26341894
95	0x3bdf41c5	0.0068132603
96	0x3de19a1d	0.11015723
97	0xbe31e52f	-0.17372583
98	0xbd7f4243	-0.06231905
99	0x3dccf4f1	0.10007656
100	0xbc0348bd	-0.008012948
101	0x3e7a7c03	0.24461369
102	0xbe126d0d	-0.14299412
103	0xbe51c550	-0.20485425
104	0x3e93595c	0.28779113
105	0xbe8d950a	-0.2765277
106	0xbd5de1b0	-0.05417031
107	0x3e18d784	0.14925963
108	0xbe62b848	-0.2214061
109	0x3e14937f	0.1450939
110	0x3da852f8	0.0821895
111	0x3e20e812	0.15713528
112	0x3e709e27	0.2349783
113	0xbdbe948b	-0.09305676
114	0x3e0abfa5	0.13549669
115	0x3d24945b	0.040180545
116	0x3d807051	0.06271423
117	0x3d949a62	0.07256009
118	0xbdc32d9a	-0.09530182
119	0xbcf7b8ac	-0.030239426
120	0xbd91c1fd	-0.071170785
121	0xbe18bf32	-0.14916685
122	0xbe5a59ee	-0.21323368
123	0xbd9afbe5	-0.07567576
124	0xbe2eb2f7	-0.17060457
125	0xbe840ad7	-0.2578952
126	0x3e7e6cb5	0.24846156
127	0x3e0a8be3	0.13529925
128	0xbd1762c7	-0.036959436
129	0xbe861bc0	-0.26193047
130	0xbdfccc2a	-0.12343629
131	0xbe18f262	-0.14936212
132	0xbe93972e	-0.28826278
133	0xbcf74fbc	-0.030189388
134	0x3e9112bb	0.28334603
135	0x3e8614b6	0.26187676
136	0x3e5a2d85	0.21306427
137	0xbd4ae014	-0.049530104
138	0xbe80b21f	-0.25135896
139	0x3e7039b3	0.2345951
140	0xbe87e4b7	-0.26541683
141	0xbe233e7d	-0.15941806
142	0xbd14e913	-0.03635509
143	0x3d9813e7	0.07425671
144	0x3d8ec838	0.069717824
145	0xbe26c4f5	-0.1628607
146	0x3e8b9ada	0.2726658
147	0x3e6350ea	0.22198835
148	0x3a2bd0bf	0.0006554238
149	0xbe8f7294	-0.28017104
150	0x3e8c9bb5	0.27462545
151	0x3c88a9f8	0.01668261
152	0x3e29897a	0.1655635
153	0x3c8e8373	0.017396664
154	0x3c9f9196	0.0194786
155	0xbd9d93da	-0.07694216
156	0x3e406ed6	0.1879228
157	0xbe46886d	-0.1938798
158	0x3db73247	0.089451365
159	0x3e8310e7	0.25598833
160	0x3e423be6	0.18968162
161	0xbe43f55e	-0.19136569
162	0xbd518b35	-0.05115815
163	0xbd4edcc0	-0.050503492
164	0xbd64d986	-0.05587151
165	0xbd47d045	-0.048782606
166	0xbe59846f	-0.21241926
167	0x3e6ba620	0.2301259
168	0xbe41a1ed	-0.18909426
169	0x3e712caf	0.23552202
170	0x3e7944ff	0.24342726
171	0x3df06321	0.11737657
172	0xbca04a08	-0.01956655
173	0xbd84ae3e	-0.064785466
174	0xbd8188f8	-0.06324953
175	0x3e687d15	0.22703965
176	0x3dff3b7b	0.12462517
177	0x3e781a4d	0.24228783
178	0x3dfc4ee4	0.12319735
179	0xbdccd856	-0.100022
180	0xbe73107b	-0.23736756
181	0x3e896b6b	0.26839766
182	0x3e14a23f	0.14515017
183	0x3e58b699	0.21163405
184	0x3e7640ec	0.24048203
185	0xbe2b4d08	-0.16728604
186	0xbe36ab64	-0.17838818
187	0xbe5af5bc	-0.21382803
188	0x3e58ad4a	0.21159855
189	0x3e2be1b3	0.16785316
190	0xbe7d6ae4	-0.24747807
191	0x3e8cbcc0	0.27487755
192	0x3e7e1a87	0.24814807
193	0x3bafce38	0.0053651594
194	0x3dd04501	0.101694115
195	0x3dd57f48	0.104246676
196	0x3da3cbaf	0.07997834
197	0xbe20afa7	-0.15692006
198	0xbd18684d	-0.037208844
199	0xbe48aeae	-0.19597885
200	0xbe682193	-0.22669058
201	0x3e1958b5	0.14975245
202	0x3d55d613	0.05220611
203	0x3e916548	0.28397584
204	0xbe4710ae	-0.19439957
205	0x3e849150	0.25892115
206	0x3e4690e5	0.1939121
207	0xbe66aebe	-0.22527596
208	0x3dcef440	0.10105181
209	0xbe2ae883	-0.16690259
210	0xbe854e14	-0.2603613
211	0x3e39bdf1	0.18138863
212	0x3e2bb5e0	0.16768599
213	0x3d8e6bbc	0.069541425
214	0xbe3d04b5	-0.18458827
215	0x3d70243e	0.058628313
216	0x3e6afacf	0.22947238
217	0x3de5a687	0.11213403
218	0x3e4bcefb	0.19903176
219	0x3da730ea	0.081636265
220	0x3e2b672b	0.16738574
221	0x3e5ff027	0.21868955
222	0xbe428ad2	-0.18998268
223	0xbe1aef11	-0.15130259
224	0xbe0260f0	-0.12732291
225	0xbe82b393	-0.2552763
226	0xbd5bb400	-0.05363846
227	0x3e330903	0.17483906
228	0xbe83422d	-0.25636426
229	0x3bbb3f5d	0.0057143406
230	0x3d066afb	0.03281687
231	0x3e54536b	0.20734946
232	0xbe880e2d	-0.26573315
233	0x3e37b4d4	0.17940074
234	0xbe8f39fc	-0.27973926
235	0x3d66b86c	0.056328222
236	0x3e4f56e9	0.20247997
237	0xbb0a3775	-0.0021090184
238	0xbe7b2b40	-0.24528217
239	0xbddc6129	-0.10760719
240	0x3d0680a8	0.03283754
241	0xbc4b950a	-0.01242567
242	0xbc50d798	-0.012746714
243	0xbe81451e	-0.25248045
244	0xbe4ecfa3	-0.20196395
245	0x3e005091	0.12530734
246	0x3d6e7eaf	0.058226284
247	0x3e0fa1da	0.14026585
248	0x3d34bf1d	0.044127572
249	0x3e7fe1ee	0.24988529
250	0x3de8ccd0	0.1136719
251	0x3c371a39	0.011175686
252	0xbd5a5e8e	-0.05331283
253	0xbe3944a0	-0.18092585
254	0xbe85d323	-0.26137647
255	0xbdae887a	-0.085221246

weight_u f4 [32]
0	0xbe01bc9c	-0.12669605
1	0xbd626667	-0.05527344
2	0xbe73d679	-0.23812284
3	0xbc9d6372	-0.019212458
4	0x3e2d7ed2	0.1694291
5	0xbd1ea7d9	-0.03873429
6	0x3da5f2f2	0.08102979
7	0x3e0385db	0.1284403
8	0x3db5627e	0.088566765
9	0x3e1a7420	0.1508336
10	0xbe6ac65c	-0.2292723
11	0x3ea5c746	0.32378596
12	0xbd5ccaa3	-0.053904187
13	0x3e23fbdb	0.16014044
14	0x3e24774a	0.1606113
15	0x3ebf0a74	0.37312663
16	0x3cb9ed24	0.022696085
17	0x3e68523d	0.22687621
18	0x3e62213c	0.2208299
19	0x3e68f853	0.22750978
20	0xbe350ede	-0.17681453
21	0xbd97446f	-0.073860995
22	0x3e89e593	0.26932964
23	0xbe3d8cd3	-0.18510751
24	0x3cf58d06	0.029974472
25	0xbe452773	-0.1925333
26	0x3e3ed24f	0.18634914
27	0x3e620893	0.22073583
28	0x3d2058f5	0.039147336
29	0x3d7811de	0.060563914
30	0xbe7fd6ff	-0.24984358
31	0x3d80041e	0.06250785

weight_v f4 [12]
0	0xbd96c2eb	-0.073613964
1	0x3eacd9f7	0.33760044
2	0x3e4e274b	0.20132177
3	0x3ef79582	0.48356253
4	0x3ec14ad3	0.377524
5	0x3e0426f6	0.12905487
6	0xbf09cc81	-0.53827673
7	0x3e2a10f5	0.16608031
8	0x3e04153f	0.1289873
9	0xbcf2e5ab	-0.02965053
10	0xbea374a3	-0.31924924
11	0x3dcfe029	0.10150177

weight f4 [32, 12, 1]
0	0xba9a3581	-0.0011765213
1	0x3db4027f	0.087895386
2	0x3dc1da1a	0.09465428
3	0xbe3710c3	-0.17877488
4	0xbde4d050	-0.11172545
5	0xbde8c0b0	-0.11364877
6	0x3cc5f2d1	0.024163635
7	0xbe5cd026	-0.21563777
8	0x3cf7b532	0.030237768
9	0xbd36014a	-0.044434823
10	0xbc96e628	-0.018420294
11	0x3d5e1ca1	0.05422652
12	0xbd1f107a	-0.038834073
13	0x3e0d4a8f	0.13797973
14	0x3e2129c0	0.15738583
15	0xbdabfbdd	-0.083976485
16	0xbdc1b9fb	-0.09459301
17	0xbe566525	-0.20937021
18	0x3e34122c	0.17585057
19	0x3e0c91c4	0.1372748
20	0x3e114836	0.14187703
21	0x3cdddbf4	0.02708242
22	0xbe0a8d1e	-0.13530394
23	0xbe5ce486	-0.2157155
24	0xbe196924	-0.14981514
25	0xbe00c5c0	-0.12575436
26	0x3ded5acd	0.115895845
27	0xbdad4ab1	-0.08461512
28	0xbdca5f88	-0.098815024
29	0xbe305484	-0.1721974
30	0x3e3e310b	0.18573396
31	0x3dd34d70	0.103175044
32	0xbe09a5f7	-0.13442217
33	0xbcf4a612	-0.029864345
34	0x3e174b1d	0.14774747
35	0x3e2a4662	0.16628411
36	0xbdf5cb0d	-0.120016195
37	0xbd9636b0	-0.073346496
38	0x3e041a77	0.1290072
39	0xbe12d299	-0.14338149
40	0x3e5d348c	0.21602076
41	0xbd8d0aef	-0.06886851
42	0xbd2611b1	-0.040544216
43	0x3d038a41	0.03211427
44	0xbda18554	-0.078867584
45	0x3cd0d7c3	0.025493508
46	0x3e3e201b	0.18566935
47	0x3dd2ff23	0.1030257
48	0x3d6acd60	0.057324767
49	0x3d00b52c	0.03142278
50	0xbe52ccc2	-0.20585921
51	0x3d92ac52	0.07161774
52	0xbd4c8e26	-0.04994025
53	0x3e254c5b	0.16142409
54	0xbe49c280	-0.19703102
55	0x3dc7aa27	0.09749251
56	0xbe2a5e99	-0.16637649
57	0xbda279e0	-0.07933402
58	0xbe27ec67	-0.16398774
59	0x3df9ccb6	0.12197249
60	0x3d9b5ba2	0.07585837
61	0xbd9b9fc4	-0.07598832
62	0xbd122b3e	-0.03568577
63	0xbd057bd5	-0.0325888
64	0xbdc2e987	-0.09517198
65	0xbda4f1b2	-0.08053912
66	0x3d20c004	0.03924562
67	0x3e55a86c	0.20865029
68	0x3c5a1d1b	0.013312603
69	0x3d2af79e	0.041740052
70	0xbdd8e95e	-0.10591386
71	0x3e0cbc81	0.13743784
72	0x3e0bf64a	0.1366817
73	0xbae28be1	-0.0017284119
74	0x3db8e646	0.09028296
75	0x3e144da7	0.14482747
76	0xbcbf7916	-0.023373168
77	0xbe1f7374	-0.15571386
78	0xbe3c3793	-0.18380575
79	0xbe547e5a	-0.20751324
80	0x3e43536c	0.19074792
81	0xbd387d7e	-0.045041554
82	0x3e273d40	0.16331959
83	0xbd6da458	-0.05801806
84	0x3cd4fda8	0.025999859
85	0x3e192e15	0.14958985
86	0x3c0edbad	0.008719367
87	0xbd85601f	-0.06512474
88	0xbddde03a	-0.108337834
89	0xbe1da166	-0.153936
90	0xbe4503c1	-0.19239713
91	0x3c83fb8f	0.016111163
92	0x3d23f007	0.04002383
93	0x3e1b6473	0.15175037
94	0xbe49de92	-0.1971381
95	0x3ba714e0	0.005098924
96	0x3da8d62a	0.082439736
97	0xbe052239	-0.13001336
98	0xbd3f07fe	-0.04663848
99	0x3d9962d5	0.07489554
100	0xbbc48061	-0.0059967493
101	0x3e3b7548	0.18306458
102	0xbddb2a4e	-0.10701428
103	0xbe1cfd1e	-0.15330932
104	0x3e5c8c01	0.21537782
105	0xbe53ea4d	-0.20694847
106	0xbd260d62	-0.040540107
107	0x3de4c4b0	0.11170328
108	0xbe29ac53	-0.16569643
109	0x3dde6231	0.10858572
110	0x3d7bf10c	0.061509177
111	0x3df0d6d8	0.11759728
112	0x3e3412f9	0.17585362
113	0xbd8ea07d	-0.069642045
114	0x3dcfac8e	0.10140334
115	0x3cf6563a	0.030070413
116	0x3d403e1a	0.046934225
117	0x3d5e6c80	0.054302692
118	0xbd921161	-0.07132221
119	0xbcb963ec	-0.022630654
120	0xbd5a2a44	-0.053262964
121	0xbde4a04a	-0.11163385
122	0xbe236907	-0.15958034
123	0xbd67f97c	-0.05663441
124	0xbe02bde1	-0.12767746
125	0xbe45a2e7	-0.19300424
126	0x3e3e682c	0.18594426
127	0x3dcf5f16	0.10125558
128	0xbce296ca	-0.027659792
129	0xbe48ba8e	-0.19602415
130	0xbdbd3070	-0.09237754
131	0xbde4ece7	-0.11177998
132	0xbe5ce889	-0.2157308
133	0xbcb91563	-0.022593206
134	0x3e5923f2	0.21205118
135	0x3e48b005	0.19598396
136	0x3e2347cb	0.15945356
137	0xbd17d40c	-0.037067458
138	0xbe40a098	-0.18811262
139	0x3e33c7cc	0.17556685
140	0xbe4b6686	-0.19863328
141	0xbdf45688	-0.11930567
142	0xbcdee248	-0.027207509
143	0x3d639fe7	0.055572417
144	0x3d55b613	0.052175593
145	0xbdf99d51	-0.12188209
146	0x3e50f4a8	0.20405829
147	0x3e2a1e8e	0.16613218
148	0x3a009569	0.00049050763
149	0xbe56b510	-0.20967507
150	0x3e52751c	0.20552486
151	0x3c4c8dc4	0.012484971
152	0x3dfdc1ce	0.12390481
153	0x3c554f25	0.013019358
154	0x3c6ed639	0.014577442
155	0xbd6bdb45	-0.05758216
156	0x3e100371	0.14063813
157	0xbe14941b	-0.14509623
158	0x3d8919d9	0.06694383
159	0x3e442cce	0.19157717
160	0x3e115c7e	0.14195439
161	0xbe12a6e1	-0.14321472
162	0xbd1cd1a2	-0.03828586
163	0xbd1acfe7	-0.037795927
164	0xbd2b4460	-0.041813254
165	0xbd158975	-0.036508042
166	0xbe22c940	-0.15897083
167	0x3e305b03	0.17222218
168	0xbe10e943	-0.14151482
169	0x3e347da4	0.17626053
170	0x3e3a8c86	0.18217668
171	0x3db3e6cd	0.08784256
172	0xbc6fea4b	-0.014643262
173	0xbd46977a	-0.048484303
174	0xbd41e22c	-0.047334835
175	0x3e2dfd8a	0.16991249
176	0x3dbf02eb	0.093267284
177	0x3e39acfc	0.18132395
178	0x3dbcd2b0	0.09219873
179	0xbd994d6d	-0.07485471
180	0xbe35e7b5	-0.1776417
181	0x3e4daf51	0.20086409
182	0x3dde7845	0.10862783
183	0x3e222f35	0.1583832
184	0x3e384ab8	0.17997253
185	0xbe0032d6	-0.12519392
186	0xbe08b4e6	-0.13350257
187	0xbe23dda1	-0.16002513
188	0x3e22283e	0.15835664
189	0x3e00a219	0.12561835
190	0xbe3da73a	-0.18520823
191	0x3e52a691	0.20571353
192	0x3e3e2aac	0.18570966
193	0x3b8391dd	0.004015191
194	0x3d9bdd82	0.07610609
195	0x3d9fc70d	0.07801638
196	0x3d7529df	0.059854385
197	0xbdf08266	-0.117436215
198	0xbce41e3a	-0.027846444
199	0xbe162fe8	-0.14666712
200	0xbe2db90e	-0.16965124
201	0x3de5860f	0.1120721
202	0x3d200801	0.039070133
203	0x3e599f81	0.21252252
204	0xbe14fa14	-0.14548522
205	0x3e466c2d	0.19377203
206	0x3e149a72	0.14512041
207	0xbe2ca388	-0.16859257
208	0x3d9ae17d	0.0756254
209	0xbdffcf38	-0.12490696
210	0xbe4786b7	-0.19484983
211	0x3e0b018a	0.13574806
212	0x3e00814d	0.12549324
213	0x3d552ba6	0.05204358
214	0xbe0d7542	-0.13814262
215	0x3d33b7bd	0.0438764
216	0x3e2fdacd	0.1717331
217	0x3dabddcc	0.08391914
218	0x3e1886d6	0.14895186
219	0x3d7a3ee7	0.061095145
220	0x3e004666	0.12526855
221	0x3e279762	0.16366342
222	0xbe11978e	-0.1421797
223	0xbde7e648	-0.113232195
224	0xbdc3256d	-0.09528623
225	0xbe43a11d	-0.19104429
226	0xbd246c05	-0.040142078
227	0x3e05fc9f	0.13084649
228	0xbe44768e	-0.1918585
229	0x3b8c21fc	0.004276512
230	0x3cc93125	0.024559567
231	0x3e1ee6a4	0.1551767
232	0xbe4ba495	-0.19887002
233	0x3e097b8c	0.13426036
234	0xbe56605b	-0.20935194
235	0x3d2caac6	0.04215505
236	0x3e1b2b53	0.15153246
237	0xbacee0b7	-0.0015783523
238	0xbe3bf86e	-0.18356487
239	0xbda4ed9c	-0.08053133
240	0x3cc95197	0.024575038
241	0xbc185b7a	-0.009299153
242	0xbc1c4b37	-0.009539417
243	0xbe417c9d	-0.18895192
244	0xbe1ac616	-0.15114626
245	0x3dc00e94	0.093777806
246	0x3d327c40	0.043575525
247	0x3dd6fbd2	0.1049725
248	0x3d07447d	0.0330243
249	0x3e3f7f7c	0.18700975
250	0x3dae3935	0.08507005
251	0x3c0907d8	0.0083636865
252	0xbd236c7d	-0.039898384
253	0xbe0aa6c0	-0.13540173
254	0xbe484ddf	-0.19560955
255	0xbd829e15	-0.06377808

bias f4 [32]
0	0xbe183e0d	-0.1486742
1	0xbbe08f54	-0.0068530235
2	0x3e1a9f99	0.15099944
3	0x3d830a2c	0.063984245
4	0xbe1e3678	-0.15450466
5	0x3df7abfd	0.12093351
6	0xbd32f52a	-0.043690838
7	0xbdf1fca3	-0.11815765
8	0xbc8db78a	-0.017299432
9	0x3d79d7de	0.060996883
10	0x3de4646d	0.11151967
11	0x3dd171e5	0.10226802
12	0x3e215dc4	0.15758425
13	0x3cbf40c1	0.023346307
14	0xbdde2377	-0.10846608
15	0xbe1d26c8	-0.15346825
16	0x3e261171	0.16217591
17	0x3e192bd1	0.14958121
18	0x3c6af2a5	0.0143400775
19	0xbc376f6f	-0.011196001
20	0xbde9f5a8	-0.11423808
21	0x3dcd6dc9	0.100307055
22	0x3e2e32b8	0.17011535
23	0xbd18aee1	-0.037276153
24	0x3e040d77	0.12895761
25	0xbde6aaf1	-0.11263073
26	0xbde46b74	-0.111533076
27	0x3c92d21e	0.017922457
28	0x3d794255	0.060854275
29	0xbc5b65ba	-0.013390953
30	0xbde801e0	-0.11328483
31	0x3d88f551	0.066874154

weight_orig f4 [32, 32, 1]
0	0x3e14bfec	0.14526337
1	0x3c517c94	0.012786049
2	0xbd585ce2	-0.052822955
3	0x3dcec161	0.10095478
4	0x3e12e2e5	0.14344366
5	0x3d061725	0.032736916
6	0x3e0c2b8c	0.13688487
7	0x3df90bc4	0.12160447
8	0x3e0d708b	0.13812463
9	0xbd1030c3	-0.035202753
10	0x3d2c0f80	0.04200697
11	0x3e24ba69	0.16086735
12	0x3e0ef354	0.1396001
13	0x3d160864	0.036629096
14	0x3d7352c3	0.0594051
15	0xbd92321f	-0.07138466
16	0xbc60d4e2	-0.01372263
17	0x3d8dc617	0.06922548
18	0xbe0b591c	-0.13608211
19	0x3d0456bc	0.03230928
20	0xbd7ad4df	-0.061238166
21	0xbda2448b	-0.0792323
22	0x3d83deca	0.06438978
23	0xbe039a20	-0.12851763
24	0xbdf75d78	-0.120783746
25	0xbe249563	-0.16072612
26	0x3e1d75cb	0.15376966
27	0xbdf39190	-0.11892998
28	0xbe1fba29	-0.15598358
29	0x3ce87322	0.028375212
30	0x3db442db	0.08801814
31	0xbe2fe167	-0.17175828
32	0x3dbac08d	0.091187574
33	0x3e0b87ee	0.13626072
34	0x3d196ed4	0.03745921
35	0xbd39eac0	-0.04538989
36	0x3db90537	0.09034198
37	0x3da77912	0.08177389
38	0x3e2b71bb	0.16742603
39	0xbd97cb38	-0.07411808
40	0x3d9370e4	0.071992666
41	0x3dae3bd6	0.085075065
42	0xbdeec610	-0.11658871
43	0x3dc3f09d	0.09567378
44	0x3e1a4fb8	0.15069473
45	0x3d9639da	0.07335253
46	0xbe0e193e	-0.13876817
47	0xbe2ebf64	-0.17065197
48	0xbe29220e	-0.16516897
49	0x3dacfe55	0.084469475
50	0x3d93ec73	0.072228335
51	0xbda18bd0	-0.07887995
52	0x3d454824	0.0481645
53	0x3de1510c	0.110017866
54	0x3e242a0e	0.16031668
55	0x3dcba878	0.09944242
56	0xbdc92904	-0.09822276
57	0xbdef5c08	-0.116874754
58	0x3da72948	0.08162171
59	0x3c34edd9	0.011043035
60	0xbe27425d	-0.1633391
61	0xbceb94e9	-0.02875753
62	0x3da4153a	0.08011861
63	0x3e1403d4	0.14454585
64	0xbe1659e7	-0.14682733
65	0x3d92f37c	0.07175347
66	0xbbcac5c5	-0.0061881267
67	0x3ded6575	0.11591617
68	0x3da05f19	0.078306384
69	0x3e043d8d	0.12914105
70	0xbd4ca214	-0.049959257
71	0x3dd23e2f	0.10265767
72	0x3d4f4819	0.050605867
73	0x3e187e27	0.14891873
74	0x3d8624bf	0.065499775
75	0xbe0a38f1	-0.13498284
76	0xbd2385d5	-0.039922554
77	0xbdffd299	-0.1249134
78	0x3ced4f28	0.028968409
79	0xbc1a83dd	-0.009430853
80	0x3db23d87	0.08703142
81	0xbd85be4a	-0.065304354
82	0x3e028a12	0.12747982
83	0x3e010e0b	0.12603013
84	0x3cedcd87	0.029028667
85	0x3d31d7b3	0.043418597
86	0x3e249076	0.16070732
87	0x3abb0c8d	0.0014270708
88	0x3d848444	0.0647054
89	0xbd14bd3e	-0.036313288
90	0xbdc310f7	-0.0952472
91	0xbe00f970	-0.12595153
92	0x3c1c6c89	0.009547361
93	0x3ddadc9b	0.106866084
94	0x3c7ea59c	0.015542414
95	0xbe24d0c7	-0.16095267
96	0x3e120c8f	0.14262603
97	0xbca16c87	-0.01970507
98	0x3badf0cf	0.0053082476
99	0x3d11772f	0.035514053
100	0x3c04cf3c	0.008106049
101	0x3cfe9a9d	0.031079585
102	0xbc71242f	-0.0147180995
103	0x3dfcae0f	0.123378865
104	0xbd8f62b7	-0.0700125
105	0x3d251c8c	0.040310428
106	0x3de1fbaa	0.11034329
107	0xbdc77bf5	-0.0974044
108	0xbd4926dc	-0.049109325
109	0xbb941cb4	-0.0045200232
110	0xbe0926cc	-0.13393706
111	0xbe0ce0e6	-0.13757667
112	0x3def486e	0.11683737
113	0xbdc9961f	-0.098430865
114	0x3d597e3d	0.053098906
115	0xbe22c409	-0.15895094
116	0x3e210255	0.15723546
117	0x3ddb7ed9	0.10717554
118	0xbdcb2ab3	-0.099202536
119	0x3d8f946c	0.07010731
120	0x3e0ed395	0.139479
121	0x3d9d2a7f	0.07674121
122	0xbd3611a8	-0.044450432
123	0x3cec5502	0.028849129
124	0xbe118968	-0.14212573
125	0x3e220f0d	0.15826054
126	0xbc9decac	-0.019277893
127	0x3ccf8acb	0.025334736
128	0x3e2dac86	0.16960344
129	0x3c8c2978	0.017109618
130	0x3dc46fd5	0.09591643
131	0x3da7af71	0.0818776
132	0xbe11de56	-0.1424497
133	0x3dcb8349	0.0993715
134	0x3d6c7570	0.057729185
135	0xbdfb4f3b	-0.122709714
136	0x3d9564a6	0.07294588
137	0x3d8bb87c	0.06822297
138	0xbc2c8224	-0.010529075
139	0xbd4e01b1	-0.05029458
140	0x3d9d1102	0.076692596
141	0x3d94f35e	0.07272981
142	0x3d90c564	0.07068899
143	0x3db30287	0.087407164
144	0xbca3b26d	-0.019982541
145	0x3d6a2469	0.05716363
146	0xbdd1a76c	-0.10237011
147	0xbe1d20f7	-0.15344606
148	0xbdf76683	-0.120800994
149	0xbdd28e29	-0.10281021
150	0x3dd09b15	0.101858296
151	0xbe11f9b2	-0.14255407
152	0x3e1c372a	0.15255418
153	0xbdab81c9	-0.08374364
154	0x3d0c9f85	0.034331817
155	0x3e24e579	0.16103162
156	0xbd89031c	-0.06690046
157	0x3d81b702	0.06333734
158	0x3d5d74e3	0.05406655
159	0x3cf95831	0.03043756
160	0xbe309a80	-0.17246437
161	0xbd245ebd	-0.040129412
162	0xbda65fd7	-0.08123749
163	0xbd8dd033	-0.069244765
164	0xbdf6e4de	-0.12055372
165	0xbe06c4a5	-0.13160951
166	0xbe2f181d	-0.17099042
167	0x3dca77b3	0.09886112
168	0xbe2f2d67	-0.17107163
169	0xbbb426db	-0.005497796
170	0x3d2554bb	0.04036401
171	0x3e1bb31e	0.15205047
172	0xbdb80f19	-0.08987255
173	0xbe1ea3d3	-0.15492181
174	0x3d497e61	0.04919279
175	0xbd598f88	-0.053115398
176	0xbc78ea9c	-0.015192654
177	0xbca2ee01	-0.01988888
178	0x3b6bb203	0.0035964258
179	0xbe33f5f3	-0.17574291
180	0xbca03acb	-0.019559285
181	0xbd814bbe	-0.06313275
182	0xbdb5ef6a	-0.08883555
183	0xbd74db74	-0.0597796
184	0xbe2a1cbd	-0.16612525
185	0xbdbbeb29	-0.091757126
186	0x3d8e45ca	0.06946905
187	0xbd81055a	-0.06299849
188	0x3d5c7182	0.053819187
189	0x3dea5a6a	0.11443026
190	0x3d52f14d	0.051499654
191	0x3d4e2887	0.05033162
192	0x3d0d6b04	0.034525886
193	0x3d7015e7	0.058614638
194	0xbcd0a49a	-0.025469113
195	0xbaf81500	-0.0018927157
196	0xbe172d44	-0.14763361
197	0xbd2c1a19	-0.042017076
198	0x3d12a84a	0.035805024
199	0x3d2b7e36	0.04186841
200	0xbdaebe12	-0.08532347
201	0x3de5cac2	0.112203136
202	0xbdb46b4b	-0.08809527
203	0x3d57598d	0.052575637
204	0x3e139a3b	0.14414303
205	0x3e1e2151	0.15442397
206	0x3d2bccbc	0.041943297
207	0xbe00ba54	-0.12571079
208	0xbe17f023	-0.14837699
209	0xbbeff3ba	-0.0073227556
210	0xbe21dd5a	-0.15807095
211	0x3dc94e0f	0.098293416
212	0x3c1119ba	0.008856231
213	0xbd8b4242	-0.06799747
214	0xbd003f4f	-0.031310376
215	0xbd8c6f3b	-0.06857153
216	0x3e1ec2a1	0.15503933
217	0xbe291e65	-0.16515501
218	0x3c53619f	0.012901693
219	0xbe06ab93	-0.13151388
220	0x3db546c8	0.08851391
221	0xbd8c4d73	-0.0685071
222	0xbcc8c7ba	-0.0245093
223	0xbddb3bc1	-0.107047565
224	0xbdc50e59	-0.09621877
225	0xbe186ea1	-0.14885952
226	0xbdf53bc4	-0.1197429
227	0xbdc053bd	-0.09390972
228	0xbe16e2b7	-0.14734922
229	0xbcdb8293	-0.026795661
230	0x3e027131	0.12738492
231	0xbe01890c	-0.12649935
232	0x3de9397e	0.11387919
233	0x3e1789cb	0.14798658
234	0xbc4d7249	-0.012539455
235	0xbdc71adc	-0.0972192
236	0x3d48eb72	0.049052663
237	0x3dc5cf04	0.09658626
238	0x3e176b4a	0.14787021
239	0x3ca0ea93	0.019643104
240	0x3d7e56cc	0.062094495
241	0x3d3fbd76	0.046811543
242	0x3d8df409	0.06931312
243	0xbd6adc71	-0.057339136
244	0xbe09e16b	-0.13464896
245	0xbd9a5306	-0.07535367
246	0x3e05d9e3	0.13071398
247	0x3d470b44	0.048594728
248	0xbe160f7f	-0.14654349
249	0xbe0cb901	-0.13742448
250	0x3b9703b6	0.0046085967
251	0xbcb66342	-0.022264127
252	0x3df8e3ee	0.12152849
253	0x3d69888b	0.057014983
254	0xbd07cdd8	-0.033155292
255	0x3dd3a1e9	0.10333616

weight_u f4 [32]
0	0xbb825c61	-0.0039782976
1	0xbd8db564	-0.06919363
2	0xbd8a31d2	-0.06747784
3	0xbe205583	-0.1565762
4	0xbd5104b0	-0.05102986
5	0x3e9b421c	0.30323875
6	0xbb976686	-0.004620376
7	0x3e79f9a1	0.24411632
8	0x3de9b92a	0.1141227
9	0x3e19c9f5	0.15018447
10	0xbea051c3	-0.3131238
11	0x3e5d946c	0.2163865
12	0x3d147d15	0.0362521
13	0x3e2f6bda	0.17130986
14	0x3c91f576	0.01781724
15	0xbe424500	-0.18971634
16	0xbe97c4f2	-0.29642445
17	0xbe9c9488	-0.3058207
18	0xbda5d382	-0.080969825
19	0xbe8f0f42	-0.27941328
20	0xbe0ed635	-0.13948901
21	0x3e00cc0a	0.12577835
22	0xbd92917b	-0.071566544
23	0xbe121d9b	-0.14269106
24	0xbda8b7f7	-0.082382135
25	0x3e66a530	0.22523952
26	0x3dcb667a	0.09931655
27	0x3ce0bcf7	0.027433855
28	0xbd66f2bd	-0.056383837
29	0xbeb6eec8	-0.3572905
30	0x3e481d79	0.19542493
31	0xbcc7256d	-0.024309838

weight_v f4 [32]
0	0xbe63586e	-0.22201702
1	0xbe1f7742	-0.15572837
2	0x3aee131f	0.0018163658
3	0xbed1d5da	-0.40983468
4	0xbe68f3a6	-0.22749195
5	0xbdf47d3d	-0.1193795
6	0xbe2c4664	-0.16823727
7	0xbe190744	-0.14944178
8	0x3dcf6186	0.10126023
9	0x3e674aa0	0.22587061
10	0x3e4de0ea	0.20105329
11	0x3e6eda5a	0.23325482
12	0xbe558bc8	-0.20854104
13	0xbd92a3ff	-0.07160186
14	0x3e741ba6	0.23838672
15	0x3cad4004	0.02114869
16	0xbde3f394	-0.11130443
17	0x3af34367	0.0018559516
18	0xbe2758be	-0.16342446
19	0x3d7415e1	0.059591178
20	0xbe0b7cf4	-0.13621885
21	0xbdbe89df	-0.093036406
22	0xbd95072e	-0.0727676
23	0x3caab13d	0.020836467
24	0xbec68a86	-0.3877756
25	0xbe21993f	-0.15781115
26	0x3e03b63d	0.12862487
27	0xbde50af1	-0.111837275
28	0x3ca94cbf	0.020666478
29	0x3e8f6dfd	0.28013602
30	0xbd8f5f66	-0.07000618
31	0x3e021141	0.12701894

weight f4 [32, 32, 1]
0	0x3e087660	0.13326406
1	0x3c402ea7	0.011729873
2	0xbd467d8c	-0.048459575
3	0x3dbdad35	0.09261552
4	0x3e06c0c0	0.13159466
5	0x3cf6072e	0.03003272
6	0x3e00976d	0.12557764
7	0x3de4794b	0.11155947
8	0x3e01c194	0.126715
9	0xbd0447a0	-0.03229487
10	0x3d1dd902	0.038537033
11	0x3e171ef9	0.14757909
12	0x3e03246a	0.1280686
13	0x3d09a3b6	0.033603393
14	0x3d5f394e	0.05449801
15	0xbd861e94	-0.06548801
16	0xbc4e4276	-0.012589088
17	0x3d82100f	0.06350719
18	0xbdffacbf	-0.124841206
19	0x3cf2d071	0.029640408
20	0xbd661ca4	-0.056179658
21	0xbd94dd22	-0.0726874
22	0x3d71f45e	0.059070937
23	0xbdf17662	-0.11790158
24	0xbde2ee8b	-0.11080655
25	0xbe16fd02	-0.14744952
26	0x3e10740c	0.14106768
27	0xbddf72eb	-0.10910591
28	0xbe12887a	-0.14309874
29	0x3cd53f9d	0.02603131
30	0x3da55ef3	0.08074751
31	0xbe215a21	-0.15757038
32	0x3dab5361	0.08365513
33	0x3e000153	0.12500505
34	0x3d0cc23f	0.034364935
35	0xbd2a8f3e	-0.041640513
36	0x3da9bcaa	0.08287938
37	0x3d99a397	0.075019054
38	0x3e1d4845	0.153596
39	0xbd8b414c	-0.06799564
40	0x3d874304	0.06604579
41	0x3d9fd763	0.07804754
42	0xbddb0cd0	-0.10695803
43	0x3db3c127	0.08777075
44	0x3e0d908f	0.13824676
45	0x3d89d116	0.06729333
46	0xbe025c58	-0.12730539
47	0xbe205013	-0.15655546
48	0xbe1b2978	-0.15152538
49	0x3d9eb41c	0.07749197
50	0x3d87b45f	0.066262
51	0xbd9433aa	-0.07236417
52	0x3d34fc4e	0.04418593
53	0x3dceb45f	0.10092997
54	0x3e169a8a	0.1470739
55	0x3dbad5cc	0.0912281
56	0xbdb88b2a	-0.090109184
57	0xbddb9665	-0.10722045
58	0x3d995a64	0.07487944
59	0x3c25fbd1	0.0101308385
60	0xbe197167	-0.14984666
61	0xbcd81f29	-0.026382046
62	0x3d96876f	0.07350051
63	0x3e07c9d1	0.1326058
64	0xbe09ee7d	-0.13469882
65	0x3d86cff8	0.06582636
66	0xbbba05d3	-0.005676964
67	0x3dd9c956	0.10634105
68	0x3d931fca	0.07183798
69	0x3df2a23c	0.1184735
70	0xbd3bbac9	-0.04583243
71	0x3dc0e044	0.09417775
72	0x3d3e28cc	0.046425626
73	0x3e0be573	0.13661747
74	0x3d762023	0.06008924
75	0xbdfd9c05	-0.12383274
76	0xbd1603e2	-0.036624797
77	0xbdeab0d2	-0.11459507
78	0x3cd9b4e0	0.026575506
79	0xbc0dc066	-0.008651828
80	0x3da3845a	0.079842284
81	0xbd756426	-0.059909962
82	0x3def8338	0.1169495
83	0x3decc9f2	0.115619555
84	0x3cda28cf	0.026630787
85	0x3d2326f0	0.039832056
86	0x3e16f87d	0.14743228
87	0x3aab991a	0.0013091892
88	0x3d7323fb	0.059360486
89	0xbd0873ea	-0.03331367
90	0xbdb2f3fb	-0.08737942
91	0xbdeca424	-0.11554745
92	0x3c0f80b4	0.008758713
93	0x3dc8c86d	0.09803853
94	0x3c699cb2	0.0142585505
95	0xbe17337e	-0.14765736
96	0x3e05fc1f	0.13084458
97	0xbc9416f6	-0.018077355
98	0x3b9f928f	0.004869766
99	0x3d057315	0.032580454
100	0x3bf3ad89	0.0074364585
101	0x3ce9929c	0.028512292
102	0xbc5d38de	-0.013502328
103	0x3de7cebe	0.1131873
104	0xbd838a99	-0.0642292
105	0x3d177901	0.036980633
106	0x3dcf50e5	0.10122851
107	0xbdb7018c	-0.08935842
108	0xbd388930	-0.045052707
109	0xbb87e0a3	-0.004146652
110	0xbdfba505	-0.12287334
111	0xbe013dcd	-0.12621231
112	0x3ddb846a	0.10718615
113	0xbdb8ef42	-0.0903001
114	0x3d478700	0.04871273
115	0xbe155218	-0.14582098
116	0x3e13b58a	0.1442472
117	0x3dc95d44	0.09832242
118	0xbdba626a	-0.09100802
119	0x3d83b833	0.064316176
120	0x3e03074a	0.1279575
121	0x3d902ef9	0.07040209
122	0xbd270785	-0.040778656
123	0x3cd8cf64	0.026466079
124	0xbe0583cd	-0.1303856
125	0x3e14ac10	0.14518762
126	0xbc90e11c	-0.017685466
127	0x3cbe65fc	0.02324199
128	0x3e1f53ea	0.15559354
129	0x3c809585	0.015696296
130	0x3db435dd	0.08799336
131	0x3d99d578	0.07511419
132	0xbe05d1b7	-0.13068281
133	0x3dbab3af	0.09116303
134	0x3d58ed24	0.05296053
135	0xbde68ce5	-0.11257342
136	0x3d890d7e	0.066920266
137	0x3d802ddf	0.06258749
138	0xbc1e422d	-0.009659332
139	0xbd3cfd5b	-0.046140056
140	0x3d901797	0.070357494
141	0x3d88a592	0.06672205
142	0x3d84cffa	0.06484981
143	0x3da43914	0.08018699
144	0xbc962ccb	-0.018331906
145	0x3d56cd1a	0.052441694
146	0xbdc055f5	-0.09391395
147	0xbe10263a	-0.14077082
148	0xbde2f6d6	-0.110822365
149	0xbdc129a2	-0.09431769
150	0x3dbf5fc8	0.09344441
151	0xbe05ead1	-0.13077857
152	0x3e0f4fbd	0.13995261
153	0xbd9d5700	-0.076826096
154	0x3d0101d2	0.031495877
155	0x3e17467a	0.14772978
156	0xbd7b638a	-0.061374225
157	0x3d6dfff6	0.05810543
158	0x3d4b29d6	0.049600445
159	0x3ce4bf68	0.0279233
160	0xbe2203f0	-0.15821815
161	0xbd16cadf	-0.036814567
162	0xbd98a197	-0.07452696
163	0xbd821955	-0.06352488
164	0xbde27fe7	-0.11059552
165	0xbdf74584	-0.12073806
166	0xbe20a178	-0.15686595
167	0x3db9be34	0.090694815
168	0xbe20b500	-0.15694046
169	0xbba54543	-0.005043657
170	0x3d17ac8b	0.037029784
171	0x3e0ed69a	0.13949051
172	0xbda8dae1	-0.08244873
173	0xbe118922	-0.14212468
174	0x3d38d97a	0.045129277
175	0xbd4796de	-0.048727863
176	0xbc645ae0	-0.013937682
177	0xbc957899	-0.018245982
178	0x3b5839dc	0.0032993471
179	0xbe251865	-0.16122587
180	0xbc92fe7c	-0.017943613
181	0xbd6d3b27	-0.05791774
182	0xbda6e81b	-0.08149739
183	0xbd60a18f	-0.054841574
184	0xbe1c0f72	-0.15240267
185	0xbdac6553	-0.084177636
186	0x3d828536	0.06373064
187	0xbd6cba00	-0.05779457
188	0x3d4a3be2	0.049373515
189	0x3dd6fea5	0.10497788
190	0x3d418496	0.047245584
191	0x3d3d20fc	0.046174034
192	0x3d01bc82	0.031673916
193	0x3d5c40ea	0.053772844
194	0xbcbf6884	-0.023365267
195	0xbae396e9	-0.00173637
196	0xbe0ab064	-0.1354385
197	0xbd1de2bb	-0.038546305
198	0x3d068afc	0.03284739
199	0x3d1d53b8	0.03840992
200	0xbda04edd	-0.07827542
201	0x3dd2cf71	0.102934726
202	0xbda5840b	-0.08081826
203	0x3d458fa3	0.048232686
204	0x3e0768f1	0.13223626
205	0x3e111167	0.14166795
206	0x3d1d9bc2	0.03847862
207	0xbdec3059	-0.11532659
208	0xbe0b632b	-0.13612048
209	0xbbdc218f	-0.0067178677
210	0xbe147e77	-0.14501368
211	0x3db8ad26	0.090174004
212	0x3c051d59	0.008124673
213	0xbd7f82d2	-0.06238062
214	0xbceb4ea2	-0.028724018
215	0xbd80d585	-0.062907256
216	0x3e11a564	0.14223248
217	0xbe1b261c	-0.15151256
218	0x3c41eba1	0.011835963
219	0xbdf71785	-0.12065033
220	0x3da64d67	0.08120232
221	0xbd80b688	-0.06284815
222	0xbcb831e9	-0.022484737
223	0xbdc91fb7	-0.09820502
224	0xbdb4c749	-0.08827073
225	0xbe0bd736	-0.13656315
226	0xbde0f9ea	-0.10985167
227	0xbdb070ad	-0.08615241
228	0xbe0a6c00	-0.13517761
229	0xbcc960b0	-0.024582237
230	0x3def5592	0.11686243
231	0xbdedaba2	-0.11605002
232	0x3dd5f597	0.10447233
233	0x3e0b0547	0.13576232
234	0xbc3c79cb	-0.011503647
235	0xbdb6a878	-0.089188516
236	0x3d3852ae	0.045000724
237	0x3db5780a	0.08860786
238	0x3e0ae94b	0.13565557
239	0x3c939fbe	0.018020507
240	0x3d695465	0.05696525
241	0x3d2fe6d0	0.04294473
242	0x3d823a35	0.06358758
243	0xbd5775ee	-0.0526027
244	0xbdfcfb6e	-0.12352644
245	0xbd8d9397	-0.06912916
246	0x3df596c9	0.119916506
247	0x3d369a2a	0.044580616
248	0xbe09aa3a	-0.13443843
249	0xbe011933	-0.12607269
250	0x3b8a8a45	0.004227909
251	0xbca75261	-0.020425024
252	0x3de454c0	0.11148977
253	0x3d563e1c	0.052305326
254	0xbcf92c1a	-0.030416537
255	0x3dc2269b	0.0948002

weight f4 [1, 32, 1]
0	0xbd5d2beb	-0.05399696
1	0x3cd97355	0.026544252
2	0x3dd735cb	0.10508307
3	0x3dd564a6	0.10419588
4	0xbe21dfd9	-0.15808047
5	0x3db1eab4	0.08687344
6	0xbdaac919	-0.083391376
7	0xbe222e3d	-0.15837951
8	0xbaee0090	-0.0018158127
9	0x3cf0798e	0.029354837
10	0x3dced959	0.101000495
11	0xbdcca92a	-0.09993203
12	0xbe2c3b6b	-0.16819541
13	0xbdc64299	-0.09680671
14	0x3dfa8ea6	0.12234239
15	0xbe0ec31d	-0.13941617
16	0x3dcef558	0.10105389
17	0xb9acee8a	-0.00032984122
18	0x3e23b5bb	0.15987293
19	0xbd8e2181	-0.06939984
20	0xbe278a0c	-0.16361254
21	0xbe2fe21a	-0.17176095
22	0xbcb90143	-0.02258361
23	0xbdd51e72	-0.104061976
24	0xbcdedc61	-0.027204694
25	0xbe0e9493	-0.13923864
26	0xbd908231	-0.07056082
27	0xbe3437e1	-0.17599441
28	0xbd939ee7	-0.072080426
29	0xbdb4146c	-0.08792958
30	0xbc76eaed	-0.015070659
31	0x3e16da21	0.14731647

weight f4 [1, 32, 1]
0	0xbd64f5ce	-0.05589848
1	0x3e0d9bb6	0.1382893
2	0x3cea33fb	0.02858924
3	0x3c1069ee	0.008814318
4	0xbdcfc0fe	-0.10144232
5	0xbc8c33fd	-0.017114634
6	0x3e162cb0	0.14665484
7	0xbde24ddb	-0.11050006
8	0x3da8a8ec	0.08235344
9	0xbd97d1e7	-0.074130826
10	0xbdd74c1a	-0.10512562
11	0x3e1596d2	0.14608315
12	0xbc001638	-0.007817797
13	0xbda6cd4b	-0.08144625
14	0xbd9c81b8	-0.076419294
15	0x3e2c7b58	0.16843927
16	0x3dc2602d	0.09491
17	0x3df32d78	0.11873907
18	0xbdc4b01d	-0.096039034
19	0x3ddb48e8	0.10707265
20	0x3ddd5527	0.10807257
21	0xbe0588a1	-0.13040401
22	0xbdb4834b	-0.08814105
23	0xbd6d7b2f	-0.057978805
24	0x3e1a81ef	0.15088628
25	0x3e1a5270	0.1507051
26	0x3da51d1c	0.08062193
27	0x3de7fc1c	0.11327383
28	0xbe0251c7	-0.12726508
29	0xbc0a5acd	-0.0084445
30	0x3d887056	0.066620514
31	0x3dc810ed	0.09768853

weight f4 [1, 32, 1]
0	0xbb4d73a3	-0.0031349442
1	0xbd752edf	-0.059859153
2	0xbd9ac1f4	-0.07556525
3	0xbc810284	-0.01574827
4	0xbd58c556	-0.05292257
5	0xbd8ac9a6	-0.06776743
6	0xbd9a54b6	-0.075356886
7	0xbe22c0cb	-0.15893857
8	0x3daae132	0.08343734
9	0xbd67a635	-0.05655499
10	0xbd616aeb	-0.055033606
11	0x3d2c3198	0.042039484
12	0x3d53c3ee	0.051700525
13	0x3da06384	0.07831481
14	0xbe1d093b	-0.15335552
15	0x3df51015	0.11965958
16	0x3e08d64f	0.13363002
17	0x3dad7242	0.084690586
18	0x3dffb0ca	0.12484892
19	0x3c7cb2ee	0.01542352
20	0xbd431182	-0.04762412
21	0x3e2bd10d	0.16778965
22	0x3e33b607	0.17549907
23	0xbde7b036	-0.113129064
24	0x3d38a254	0.045076683
25	0x3cc90393	0.024537837
26	0xbe1a004f	-0.1503918
27	0x3a9cb18f	0.0011954772
28	0x3d37250f	0.044713076
29	0xbe1efea4	-0.15526825
30	0xbdb02f5b	-0.08602782
31	0xbd8b2f73	-0.067961596

bias f4 [32]
0	0x3dce02c2	0.1005912
1	0x3c06ef5d	0.00823578
2	0x3e2486b8	0.16067016
3	0x3e10836a	0.1411263
4	0xbe04a3f8	-0.12953174
5	0xbdb62607	-0.08893972
6	0x3e26a4a2	0.1627374
7	0xbd038218	-0.03210649
8	0x3d1451cb	0.036210816
9	0xbb95ab11	-0.004567512
10	0x3e0bfddd	0.1367106
11	0x3e2c9b2f	0.16856073
12	0x3d2932ce	0.041308217
13	0xbcee0ea4	-0.029059716
14	0xbe108abc	-0.14115423
15	0x3d55a2c6	0.052157186
16	0x3cbb552a	0.022867758
17	0x3db65405	0.08902744
18	0xbe06f3f7	-0.13179003
19	0x3de31f8b	0.11090001
20	0x3d97f993	0.074206494
21	0xbd2275d0	-0.039663136
22	0x3d613a3e	0.054987185
23	0xbdcf7080	-0.101288795
24	0xbdc32ada	-0.09529658
25	0xbe284f52	-0.16436508
26	0x3d5cecf5	0.053936917
27	0x3dd16465	0.10224227
28	0xbdb4e75b	-0.0883319
29	0xbdbea0b7	-0.09307998
30	0x3d9ccc77	0.07656186
31	0xbd673763	-0.056449305

weight_orig f4 [32, 32, 1]
0	0x3dbdf2af	0.09274804
1	0x3e2c657b	0.16835587
2	0xbe00ede1	-0.12590744
3	0xbde5ecc5	-0.11226801
4	0xbdb38f04	-0.087675124
5	0x3cad8f9a	0.021186639
6	0x3cacc0af	0.021087972
7	0x3dba602e	0.09100376
8	0x3b99f269	0.004698087
9	0x3c87bf1e	0.016570624
10	0xbdfb6649	-0.12275369
11	0xbd25510a	-0.040360488
12	0xbdd9b83c	-0.10630843
13	0xbd65e670	-0.056127965
14	0x3dbdc925	0.09266881
15	0x3df19793	0.117964886
16	0xbbf01fb8	-0.007328
17	0x3deed0e4	0.116609365
18	0x3de666bc	0.11250064
19	0xbdee6629	-0.11640579
20	0xbe335e47	-0.17516433
21	0xbe226650	-0.15859342
22	0xbe19dba7	-0.15025197
23	0xbd8d4475	-0.06897823
24	0xbddf1ccc	-0.108941644
25	0x3db2f2ad	0.08737693
26	0xbbbf3260	-0.0058348626
27	0xbd82d981	-0.06389142
28	0x3e21292f	0.15738367
29	0x3da69854	0.08134523
30	0xbd588320	-0.052859426
31	0x3d044513	0.032292437
32	0x3e345fd9	0.17614688
33	0x3d0d8b75	0.034556825
34	0xbdd7b0cb	-0.105317675
35	0x3e06e73d	0.13174148
36	0xbe14ff79	-0.1455058
37	0xbd8b886a	-0.06813128
38	0x3d9d8cb8	0.076928556
39	0xbe228f3c	-0.15874952
40	0xbdbfd1a5	-0.093661584
41	0xbdd1ba67	-0.102406316
42	0xbcc01fb9	-0.023452627
43	0x3e1b5118	0.15167654
44	0x3dfa514f	0.1222254
45	0x3e10f4be	0.14155862
46	0xbd93f24d	-0.072239496
47	0xbe21d590	-0.15804124
48	0xbd4eb599	-0.050466154
49	0x3d402238	0.046907634
50	0x3e15e8e1	0.14639618
51	0x3bfe6087	0.007762972
52	0xbde61bb6	-0.11235754
53	0x3df49e31	0.11944235
54	0xbd933b6d	-0.07189069
55	0x3d13f752	0.036124535
56	0x3e327543	0.17427544
57	0xbe1a8643	-0.1509028
58	0x3e1475ad	0.14498015
59	0x3d9d26bb	0.07673403
60	0x3dd28e13	0.10281005
61	0xbd30fd98	-0.043210596
62	0x3d54541f	0.051838037
63	0xbd2686d0	-0.04065591
64	0x3db10fb9	0.08645577
65	0x3e11b1ef	0.14228033
66	0xbd1a0daf	-0.037610706
67	0xbdd63688	-0.1045962
68	0x3db8cede	0.09023832
69	0xbc2674e9	-0.0101597095
70	0xbe3240d5	-0.17407544
71	0xbbb66dc6	-0.005567285
72	0x3e0cb370	0.13740325
73	0x3e328d43	0.174367
74	0x3db00d10	0.085962415
75	0xbceed6a4	-0.029155083
76	0xbd9143cc	-0.07093009
77	0xbdc47e76	-0.09594433
78	0x3cb47e9f	0.022033034
79	0xbc88c71f	-0.01669651
80	0xbcbc90d6	-0.023018282
81	0xbd931045	-0.071808375
82	0x3c527f7b	0.0128477765
83	0x3e316205	0.17322548
84	0x3ccce141	0.025009753
85	0xbd040d20	-0.03223908
86	0xbd91f1f0	-0.07126224
87	0xbdcf7cf5	-0.101312555
88	0x3d89d8ab	0.06730779
89	0x3c7f8262	0.0155950505
90	0x3dcfeed6	0.10152976
91	0xbdc9e66d	-0.09858403
92	0xbe1c7ca0	-0.15281916
93	0x3d635cda	0.055508472
94	0xbe222cec	-0.15837449
95	0xbd125c29	-0.035732422
96	0xbe22690c	-0.15860385
97	0x3e1c3102	0.1525307
98	0xbd7b759b	-0.061391454
99	0xbe311046	-0.17291364
100	0xbe3074f8	-0.1723212
101	0xbde864e8	-0.11347371
102	0x3dea1229	0.11429245
103	0xbd460a52	-0.048349686
104	0x3d89269c	0.06696817
105	0xbdfbe851	-0.1230017
106	0xbc840e56	-0.016120117
107	0xbc768cb9	-0.015048199
108	0xbd3c5966	-0.045983694
109	0x3d310ece	0.04322701
110	0x3c315f45	0.010825937
111	0xbd19c224	-0.037538663
112	0xbd984d4d	-0.07436619
113	0x3e1f5f96	0.15563807
114	0xbe26aa3f	-0.16275881
115	0x3e10766a	0.14107671
116	0xbdbb5b9c	-0.091483325
117	0x3cdaa329	0.026689129
118	0xbcee34c1	-0.02907789
119	0xbb47765c	-0.0030435538
120	0x3dbad2a7	0.0912221
121	0x3dbf7f6e	0.09350477
122	0x3d849f48	0.06475693
123	0xbdb87ac6	-0.09007792
124	0x3e026478	0.12733638
125	0xbe2793d0	-0.1636498
126	0x3cc65e71	0.024214955
127	0xbe1780ae	-0.14795181
128	0x3e267710	0.16256356
129	0x3d7a198f	0.06105953
130	0xbd08e7b6	-0.0334241
131	0xbd70ed50	-0.05882007
132	0xbd9c895f	-0.07643389
133	0x3e30b27b	0.17255585
134	0x3cb8aae8	0.022542432
135	0xbe2cbff9	-0.16870107
136	0x3d4eabae	0.050456695
137	0xbe2b39b2	-0.16721228
138	0xbd5ff5dc	-0.05467783
139	0xbdc2b311	-0.095068105
140	0x3da403d8	0.08008546
141	0x3e28a4d3	0.16469125
142	0x3d15af23	0.036543977
143	0x3dae82a9	0.08521015
144	0x3df4fb15	0.119619526
145	0x3d9b065c	0.07569572
146	0x3dd72b98	0.10506362
147	0x3e06f147	0.13177978
148	0x3dd1afa6	0.102385804
149	0x3d5154af	0.05110615
150	0x3c2477b9	0.01003831
151	0x3ddcf116	0.10788171
152	0xbe0d7c33	-0.1381691
153	0xbe2288dc	-0.1587252
154	0xbd166cfc	-0.03672503
155	0x3da08e07	0.078395896
156	0x3dba073c	0.09083411
157	0xbe2820b8	-0.16418731
158	0x3dd1ce01	0.1024437
159	0x3d2fc46d	0.042911936
160	0xbca57c2f	-0.020200817
161	0xbd1e27f1	-0.03861231
162	0xbe1d607f	-0.15368842
163	0x3b98bbcd	0.0046610595
164	0xbcdc9629	-0.02692707
165	0xbe130401	-0.14356996
166	0xbda8246d	-0.08210073
167	0x3dbcaa19	0.09212131
168	0xbe015801	-0.12631227
169	0xbd8e3159	-0.06943006
170	0x3e2c589b	0.16830675
171	0xbe2ab314	-0.16669875
172	0xbdfc8b55	-0.12331263
173	0xbce67f5a	-0.028136898
174	0x3dc2a409	0.095039435
175	0xbd374fc7	-0.044753816
176	0xbdc2480a	-0.094863966
177	0x3d9535fe	0.07285689
178	0x3e183f55	0.14867909
179	0x3dc11e0f	0.09429561
180	0xbdd5bcaf	-0.10436379
181	0x3da98320	0.08276963
182	0x3dd82be1	0.10555244
183	0x3e2ae4e2	0.16688874
184	0xbd007759	-0.03136382
185	0xbc09f49c	-0.008420136
186	0xbbee7ff8	-0.0072784387
187	0xbdccf03d	-0.10006759
188	0x3d5d3a89	0.0540109
189	0x3e194b20	0.14970064
190	0xbda00fd3	-0.07815518
191	0xbc4c2bc5	-0.012461607
192	0xbdb78f81	-0.08962918
193	0xbb8d112b	-0.004305025
194	0x3cf1c8c3	0.029514676
195	0xbd7e626b	-0.062105577
196	0x3dc67f6b	0.09692272
197	0x3dd753e0	0.10514045
198	0xbd131e01	-0.035917286
199	0xbe0f7cf8	-0.14012516
200	0xbd9b69ba	-0.07588525
201	0x3c1cdfa6	0.009574806
202	0x3d2cee6c	0.042219564
203	0xbe1d3373	-0.15351658
204	0xbd4a8f93	-0.04945333
205	0xbe120a5d	-0.14261766
206	0x3d992237	0.07477229
207	0x3d9d66bb	0.0768561
208	0x3dbb242b	0.09137758
209	0x3dbc1ea1	0.091855295
210	0xbd8e9c79	-0.069634385
211	0x3dfd01f6	0.1235389
212	0xbcddede6	-0.027090978
213	0xbd823b4a	-0.06358965
214	0x3df324b0	0.11872232
215	0x3d6690c0	0.056290388
216	0xbbb6a3c1	-0.00557372
217	0x3e0e45ad	0.13893767
218	0xbc9c0e98	-0.019049928
219	0x3e2d2b28	0.16910994
220	0x3d082ad2	0.03324396
221	0xbdd2e807	-0.10298162
222	0x3b8aac16	0.00423194
223	0xbdcf5f46	-0.10125594
224	0x3cd7d73e	0.026347753
225	0xbe32ceeb	-0.17461745
226	0x3d9b88d3	0.075944565
227	0xbda58c83	-0.08083441
228	0xbe32ef5f	-0.17474125
229	0xbdc04771	-0.09388626
230	0x3ccdfdcc	0.025145434
231	0xbdde463a	-0.108532384
232	0xbda7e9e7	-0.0819891
233	0x3ce97e95	0.028502742
234	0x3b0cd6db	0.0021490369
235	0xbe29c1d7	-0.1657785
236	0xbdf7a27c	-0.12091538
237	0xbca332f8	-0.019921765
238	0x3e1572b1	0.14594533
239	0xbb9c8f21	-0.0047778045
240	0xbe351b67	-0.17686234
241	0xbd11296e	-0.0354399
242	0x3d1f516c	0.03889601
243	0x3e101654	0.14071018
244	0xbd88da41	-0.06682254
245	0xbda57e27	-0.08080702
246	0xbe274cbd	-0.16337867
247	0x3db54c1b	0.088524066
248	0xbe2ee0a3	-0.1707788
249	0x3d397d27	0.04528537
250	0xbd4bb14a	-0.049729623
251	0x3d53d12b	0.05171315
252	0xbdac59cb	-0.08415564
253	0xbda71c96	-0.08159749
254	0xbe2fdcb3	-0.17174034
255	0x3e079ab6	0.13242611

weight_u f4 [32]
0	0x3e342d52	0.17595413
1	0xbd7d009d	-0.061768163
2	0xbb8da7ef	-0.0043229978
3	0x3d03629d	0.032076467
4	0xbe3f3e19	-0.18676032
5	0x3e2e9952	0.17050675
6	0x3b53c106	0.0032311096
7	0x3e41ba2e	0.18918678
8	0x3c8b2763	0.016986554
9	0xbbf1e92f	-0.007382534
10	0x3d9ff101	0.0780964
11	0xbe8d80a7	-0.27637216
12	0x3dbd36e0	0.09238982
13	0xbe4b26a8	-0.19838965
14	0x3e3fba68	0.18723452
15	0xbc140d50	-0.009036377
16	0x3eb77bef	0.3583674
17	0xbddd229d	-0.107976176
18	0x3c159736	0.00913029
19	0x3e465954	0.19370013
20	0xbcc87ee9	-0.024474578
21	0x3ecf6766	0.40508574
22	0x3e78c794	0.24294883
23	0xbe1f9d08	-0.15587246
24	0x3d33db27	0.04391017
25	0x3d74d690	0.059774935
26	0xbea5e913	-0.32404384
27	0x3dab02ac	0.08350119
28	0x3e1f3ace	0.15549776
29	0x3e08c4de	0.13356349
30	0xbe80f486	-0.25186557
31	0xbe64d09a	-0.223452

weight_v f4 [32]
0	0x3d89eaeb	0.0673426
1	0xbe57b9a8	-0.21066916
2	0xbe121792	-0.14266804
3	0x3e81d552	0.25358063
4	0xbe157162	-0.14594033
5	0xbebbeb40	-0.3670292
6	0xbe6eaf8c	-0.23309153
7	0x3deaadf3	0.114589594
8	0xbe122aad	-0.14274092
9	0xbddb8998	-0.10719603
10	0x3c46960a	0.012120733
11	0xbebc0c61	-0.36728194
12	0xbe8736b4	-0.26408923
13	0xbe3de5bf	-0.18544672
14	0xbd4b5196	-0.049638353
15	0x3d68f42d	0.05687349
16	0xbd9f6d0f	-0.07784473
17	0x3e12456c	0.14284295
18	0xbe39ab64	-0.18131787
19	0xbe2eb804	-0.17062384
20	0xbe459aba	-0.19297305
21	0xbdc9e017	-0.09857195
22	0xbe73a3b8	-0.23792922
23	0xbe20c57e	-0.15700337
24	0xbd2d9848	-0.042381555
25	0x3e7fc36d	0.24976893
26	0x3d3cece7	0.046124365
27	0xbd5996ea	-0.05312244
28	0x3e1b479a	0.15164033
29	0x3cc76e57	0.024344606
30	0xbe32c6d0	-0.17458653
31	0x3e263717	0.16231953
