src/checkpoints/PSA_GAN/PSA-GAN/PSA-GAN_generator.pt (torch, 145651 bytes, 70 tensors)

bias f4 [32]
0	0x3e5020ac	0.20324963
1	0x3e778cbb	0.24174778
2	0xbe02c4be	-0.12770364
3	0x3d4c114a	0.049821176
4	0xbe36f525	-0.17866953
5	0x3e3c8e0e	0.18413565
6	0xbe341310	-0.17585397
7	0x3e923fe7	0.2856438
8	0x3e40fc2f	0.188462
9	0xbe83444c	-0.25638044
10	0x3ddd9416	0.10819261
11	0x3d37d963	0.04488505
12	0xbce308f6	-0.027714234
13	0x3d009a8e	0.031397395
14	0xbe51fa3c	-0.20505613
15	0xbe14d82d	-0.1453559
16	0xbddeb4b0	-0.10874307
17	0xbe0ab9a2	-0.13547376
18	0xbe78331a	-0.24238244
19	0xbdd4849c	-0.10376856
20	0xbdb6f773	-0.08933916
21	0x3d0d5eab	0.03451411
22	0x3e4075a0	0.1879487
23	0xbe595668	-0.21224368
24	0xbd623fe1	-0.0552367
25	0xbcbba78b	-0.02290704
26	0x3e841427	0.25796625
27	0x3e8d341f	0.27578828
28	0x3d2436ef	0.04009145
29	0x3e0e66fc	0.13906473
30	0x3c4fb8dd	0.012678352
31	0xbda9c2da	-0.08289118

weight_orig f4 [32, 12, 1]
0	0xbe24fe46	-0.16112623
1	0xbd973b02	-0.07384302
2	0xbe936790	-0.2878995
3	0x3db85e10	0.09002316
4	0x3e7b8e47	0.24565993
5	0xbe85162c	-0.25993478
6	0xbe8affa6	-0.2714817
7	0x3d99c67e	0.075085625
8	0xbd07707c	-0.033066258
9	0x3e85d7c6	0.26141185
10	0xbe56b886	-0.20968828
11	0xbcc6efe3	-0.024284309
12	0x3d267e51	0.04064781
13	0xbe4797cc	-0.194915
14	0x3e864100	0.26221466
15	0xbe5017f5	-0.20321639
16	0xbe6a40bb	-0.22876255
17	0x3dcd941f	0.100380175
18	0xbd5e33e3	-0.0542487
19	0xbe0f3528	-0.13985121
20	0x3e76e8f8	0.24112308
21	0xbd920031	-0.07128943
22	0xbb6c2a52	-0.0036035967
23	0xbdfe3930	-0.124132514
24	0x3e16bc08	0.14720166
25	0xbcb26537	-0.021776779
26	0xbdf896c0	-0.12138128
27	0x3dbd88d6	0.09254615
28	0x3e8834a5	0.26602665
29	0x3e47798c	0.1947996
30	0xbe167a04	-0.14694983
31	0xbd383d39	-0.04498026
32	0x3d62214b	0.055207532
33	0x3e5a29d9	0.21305026
34	0x3daeb696	0.08530919
35	0x3e562f31	0.2091644
36	0x3d9055cc	0.070476145
37	0x3e256c94	0.161547
38	0x3e3398d6	0.17538771
39	0xbe3a3d6b	-0.18187492
40	0x3c1e84b9	0.009675198
41	0xbe7ed565	-0.24886091
42	0xbd57128a	-0.052507915
43	0x3e9178be	0.2841243
44	0xbe87e7c7	-0.2654402
45	0xbe71db73	-0.2361887
46	0xbe2f74fa	-0.17134467
47	0x3de01303	0.10941126
48	0xbe32127c	-0.17389864
49	0x3d8c0664	0.068371564
50	0xbe7d02fc	-0.2470817
51	0x3e362ad7	0.1778978
52	0x3e5dc526	0.21657237
53	0xbe3fd3c4	-0.18733126
54	0xbe0cb956	-0.13742575
55	0x3e8b9893	0.27264842
56	0xbdfcba61	-0.123402365
57	0xbe911fbc	-0.28344524
58	0xbe8b25d3	-0.27177295
59	0x3e37b464	0.17939907
60	0xbe87f497	-0.26553795
61	0xbdeddffa	-0.11614986
62	0x3bd26b8d	0.0064215125
63	0xbe1fc841	-0.15603735
64	0xbdcf0916	-0.10109155
65	0x3c95f3de	0.018304761
66	0x3e6a147c	0.22859377
67	0xbd3dfc32	-0.04638309
68	0xbd86307a	-0.06552215
69	0x3d655c27	0.055996086
70	0xbc9b281e	-0.018940028
71	0xbe4593ee	-0.19294712
72	0x3cb11d5e	0.021620449
73	0xbd8c13e7	-0.068397336
74	0xbe85d3c9	-0.26138142
75	0xbe47c255	-0.19507726
76	0xbe1852eb	-0.1487538
77	0xbe041007	-0.12896739
78	0xbd062ac9	-0.032755647
79	0x3c8a1737	0.016856773
80	0x3d97fb27	0.074209504
81	0xbe8c055f	-0.27347848
82	0xbe433bf6	-0.19065842
83	0x3d21178b	0.039329093
84	0x3d72aefe	0.059248917
85	0x3c851ae7	0.01624818
86	0x3e31cb52	0.17362717
87	0xbe17151b	-0.14754145
88	0x3e93c0f6	0.28858155
89	0x3c5a44bc	0.013322052
90	0xbd5b3c0c	-0.053524062
91	0xbe263b42	-0.16233543
92	0x3e5719a5	0.21005876
93	0x3e0d931e	0.13825652
94	0xbd932852	-0.07185425
95	0xbdd9b312	-0.10629858
96	0x3e7deb11	0.24796702
97	0xbe90e00c	-0.28295934
98	0xbd2b17f0	-0.041770875
99	0xbe81b8bb	-0.2533625
100	0xbe4653aa	-0.19367853
101	0x3dedac39	0.116051145
102	0xbe010589	-0.12599768
103	0xbe69b25c	-0.22821945
104	0x3c4edfc0	0.012626588
105	0x3e67c74c	0.2263462
106	0x3d87f243	0.06638005
107	0x3dd64078	0.10461515
108	0x3e2f2efa	0.17107764
109	0x3e4d4dde	0.20049235
110	0xbd5b754d	-0.053578664
111	0xbe01e123	-0.12683539
112	0x3e5ce249	0.21570696
113	0x3e604447	0.21901046
114	0xbe06a746	-0.13149747
115	0xbdbd3665	-0.092388906
116	0xbdc85798	-0.09782332
117	0x3d265e49	0.04061726
118	0x3e2c9146	0.16852292
119	0x3e45344f	0.19258235
120	0x3d8a14dc	0.0674226
121	0x3e3c0327	0.18360578
122	0xbdd0f62b	-0.10203203
123	0xbcc1fb7a	-0.023679484
124	0x3d42cc0c	0.047557876
125	0x3e853191	0.2601438
126	0xbd73d0dc	-0.059525356
127	0x3b2da79f	0.0026497615
128	0x3e714fbb	0.23565571
129	0xbdd1afa2	-0.102385774
130	0x3e59ded1	0.21276404
131	0xbe4c91a7	-0.19977437
132	0x3d7090e9	0.058731947
133	0xbd12936e	-0.03578513
134	0x3e2f58ba	0.1712369
135	0xbe3523a2	-0.17689374
136	0xbdb0d013	-0.08633437
137	0xbda0152c	-0.07816538
138	0x3e564891	0.2092612
139	0xbe88d3de	-0.26724142
140	0x3e700021	0.23437549
141	0xbe8ba303	-0.27272806
142	0x3dd2c912	0.10292257
143	0x3d2e2741	0.042517904
144	0xbe435f31	-0.19079281
145	0x3dc8db46	0.09807448
146	0xbdf7e17a	-0.12103553
147	0x3e4f662a	0.20253816
148	0x3e26fa6a	0.16306463
149	0xbd165a34	-0.03670712
150	0x3e243811	0.16037013
151	0xbd903a12	-0.07042326
152	0x3e4b358d	0.19844647
153	0xbe8df119	-0.27723005
154	0xbd14f2bc	-0.036364302
155	0xbe49bd01	-0.19701006
156	0x3e1d7b29	0.15379013
157	0x3d823377	0.063574724
158	0xbe19811c	-0.14990658
159	0x3e232c30	0.15934825
160	0x3e60508d	0.21905728
161	0x3d9f1a79	0.07768721
162	0x3da6b197	0.08139341
163	0x3e248807	0.16067515
164	0x3e2974c9	0.16548456
165	0xbe6827b4	-0.22671396
166	0xbcf99101	-0.030464651
167	0xbe53d71c	-0.20687526
168	0x3dbd366d	0.092388965
169	0xbdf54097	-0.1197521
170	0x3c238925	0.009981428
171	0x3a1c02e3	0.0005951358
172	0x3d56652f	0.05234259
173	0xbe5f3ba1	-0.2180009
174	0x3d64255c	0.05569969
175	0xbddef69b	-0.1088688
176	0xbdf4b3a4	-0.11948326
177	0x3e64a5fc	0.22328943
178	0xbe4905b6	-0.19631085
179	0x3e069401	0.13142397
180	0xbc28953c	-0.0102894865
181	0x3cc52f9d	0.024070555
182	0xbe09cc5e	-0.13456866
183	0x3d7a2035	0.06106587
184	0xbe545c5a	-0.20738354
185	0xbc9f8b3f	-0.019475577
186	0xbe3795d7	-0.17928253
187	0xbd1b3f48	-0.037902147
188	0x3bb1b061	0.0054226373
189	0x3e4cd56e	0.20003292
190	0x3dadaf4e	0.08480702
191	0xbe4683f0	-0.19386268
192	0x3d8f5b58	0.06999844
193	0x3d659db8	0.056058615
194	0x3db9f99a	0.09080811
195	0x3dbd610b	0.09247025
196	0xbe5a5dba	-0.21324816
197	0x3e53990a	0.20663849
198	0xbe814986	-0.25251406
199	0xbe1bd4d9	-0.15217914
200	0x3beca79b	0.0072221286
201	0x3d957057	0.07296818
202	0x3d218781	0.039435867
203	0x3e57d0bb	0.21075718
204	0x3db6fa96	0.08934514
205	0x3e3fb8aa	0.18722787
206	0xbe4b8777	-0.19875894
207	0xb9b39948	-0.00034255744
208	0x3e16e524	0.14735848
209	0x3d37d340	0.044879198
210	0x3e2750e7	0.16339456
211	0x3e3723c3	0.17884736
212	0x3da86ad1	0.082234986
213	0xbe2653a3	-0.16242842
214	0xbd77db24	-0.060511723
215	0x3e02344d	0.12715264
216	0x3e2028f4	0.15640622
217	0xbe39e9c9	-0.18155588
218	0x3e89c2be	0.2690639
219	0xbe083891	-0.13302828
220	0x3e7de762	0.24795297
221	0x3da5fc6f	0.081047885
222	0x3e182142	0.14856437
223	0xbe581398	-0.21101224
224	0x3d01abc4	0.03165795
225	0x3d8ae88c	0.06782636
226	0x3e8396e0	0.25701046
227	0x3a18acdb	0.00058240973
228	0xbe45f108	-0.19330227
229	0xbcce16c1	-0.025157334
230	0xbe741e10	-0.23839593
231	0xbe8a52b4	-0.27016222
232	0x3dee3eb1	0.11633051
233	0xbd3372ee	-0.043810777
234	0x3d897268	0.067112744
235	0xbe4b3c02	-0.1984711
236	0x3d0fded3	0.03512461
237	0xbd19eb4e	-0.03757792
238	0xbe2f630d	-0.17127629
239	0x3e17201f	0.14758347
240	0xbe92089c	-0.28522193
241	0xbe8787f3	-0.2647091
242	0xbe136ba3	-0.14396529
243	0x3e5f6f5e	0.21819827
244	0x3e50bb29	0.20383896
245	0x3d799485	0.060932655
246	0x3cf9d89d	0.030498797
247	0x3e9410ba	0.2891901
248	0x3e27941b	0.16365092
249	0x3db8f0f8	0.09030336
250	0x3e8ed549	0.278971
251	0xbe17105d	-0.14752336
252	0x3c819449	0.015817778
253	0x3d7ba119	0.06143293
254	0x3e138a52	0.14408234
255	0x3d4a4e1f	0.04939091

weight_u f4 [32]
0	0x3e63666e	0.22207043
1	0xbe7786ff	-0.2417259
2	0xbdeba276	-0.11505596
3	0x3e9a6d4e	0.30161518
4	0x3ee2a3b9	0.44265535
5	0xbb53a2a0	-0.0032292977
6	0x3dfda5c5	0.12385134
7	0xbe002277	-0.12513147
8	0xbe9421bf	-0.28931996
9	0xbdf63375	-0.120215334
10	0xbe51bcb2	-0.20482138
11	0xbe0ab598	-0.13545835
12	0x3dc51db1	0.09624804
13	0x3d3ba5c7	0.045812394
14	0x3db63136	0.08896105
15	0xbddb0aaf	-0.10695397
16	0xbe2f8264	-0.17139584
17	0x3e057d3d	0.13036056
18	0xbe75156a	-0.2393395
19	0x3db1c78b	0.08680638
20	0x3bfd4ad5	0.007729868
21	0xbd059262	-0.032610305
22	0x3eb8187c	0.3595618
23	0x3c6369f7	0.013880244
24	0xbe1c54af	-0.15266679
25	0xbe6a1402	-0.22859195
26	0x3de46a0f	0.111530416
27	0xbd886250	-0.066593766
28	0x3d2352e2	0.039873965
29	0x3d10060a	0.03516201
30	0xbe3f1f29	-0.1866423
31	0x3bb87847	0.0056295726

weight_v f4 [12]
0	0xbe997207	-0.29969808
1	0x3df18e56	0.117947266
2	0xbe1e3d10	-0.15452981
3	0x3e0de659	0.13857402
4	0x3e4628f3	0.19351558
5	0xbef87eab	-0.4853414
6	0x3da40e3e	0.08010529
7	0x3ed326c1	0.41240504
8	0xbea86260	-0.32887554
9	0xbe82d858	-0.25555682
10	0xbee44015	-0.4458014
11	0x3e35afa0	0.17742777

weight f4 [32, 12, 1]
0	0xbdea58d9	-0.114427276
1	0xbd56ca98	-0.052439302
2	0xbe5165a9	-0.20448937
3	0x3d82ede7	0.063930325
4	0x3e32aba5	0.1744829
5	0xbe3d0851	-0.18460204
6	0xbe456fb8	-0.19280899
7	0x3d5a74c0	0.053333998
8	0xbcc05213	-0.023476636
9	0x3e3e2480	0.18568611
10	0xbe187e4c	-0.14891928
11	0xbc8d6e90	-0.017264634
12	0x3cec69c4	0.028859027
13	0xbe0dc357	-0.13844047
14	0x3e3eb5ea	0.18624082
15	0xbe13c97c	-0.14432329
16	0xbe2662d3	-0.16248636
17	0x3d920517	0.07129877
18	0xbd1dd81c	-0.038536176
19	0xbdcb7187	-0.09933763
20	0x3e2f5a4a	0.17124286
21	0xbd4f6aa3	-0.050638806
22	0xbb28e9db	-0.0025774154
23	0xbdb4856b	-0.0881451
24	0x3dd61b5b	0.104544364
25	0xbc7d41a2	-0.015457543
26	0xbdb090f6	-0.08621399
27	0x3d86989e	0.06572078
28	0x3e4177e4	0.18893391
29	0x3e0dac39	0.13835229
30	0xbdd5ba0e	-0.10435878
31	0xbd02d6b8	-0.031943053
32	0x3d208fb4	0.039199546
33	0x3e1af4a0	0.1513238
34	0x3d78221e	0.06057941
35	0x3e18202e	0.14856026
36	0x3d4d11a2	0.050065644
37	0x3deaf4c1	0.11472464
38	0x3dff295e	0.12459062
39	0xbe04440a	-0.1291658
40	0x3be14c37	0.0068755406
41	0xbe34fb76	-0.1767405
42	0xbd18c60a	-0.03729824
43	0x3e4ea077	0.201784
44	0xbe410962	-0.18851236
45	0xbe2bc963	-0.16776042
46	0xbdf93455	-0.12168185
47	0x3d9f20d5	0.07769934
48	0xbdfcec7c	-0.12349793
49	0x3d46ee08	0.048566848
50	0xbe33b342	-0.1754885
51	0x3e015f70	0.12634063
52	0x3e1d84b5	0.15382655
53	0xbe083a1f	-0.13303421
54	0xbdc7e8ee	-0.09761225
55	0x3e464c33	0.19365005
56	0xbdb37853	-0.087631844
57	0xbe4e2262	-0.20130304
58	0xbe45a3a9	-0.19300713
59	0x3e02750f	0.12739967
60	0xbe4120cb	-0.18860166
61	0xbda8f620	-0.082500696
62	0x3b95c3a8	0.004570443
63	0xbde2f23f	-0.11081361
64	0xbd930e8f	-0.07180511
65	0x3c54d71e	0.012990741
66	0x3e263d65	0.16234358
67	0xbd06f67e	-0.032949917
68	0xbd3ea4c9	-0.04654387
69	0x3d22dafc	0.03975962
70	0xbc5c462c	-0.013444465
71	0xbe0c5529	-0.13704361
72	0x3c7bcb02	0.015368225
73	0xbd47045f	-0.048588153
74	0xbe3e16e0	-0.18563414
75	0xbe0dde88	-0.1385442
76	0xbdd85e06	-0.105648085
77	0xbdbb8e06	-0.09157948
78	0xbcbe8bf3	-0.023260092
79	0x3c444b6a	0.011980871
80	0x3d57e3ed	0.0527076
81	0xbe46e735	-0.19424136
82	0xbe0aa5fa	-0.13539878
83	0x3ce4b7e9	0.027919726
84	0x3d2c5e0e	0.042081885
85	0x3c3d55dd	0.011556116
86	0x3dfc9049	0.12332208
87	0xbdd69815	-0.10478226
88	0x3e51e415	0.20497163
89	0x3c1ad48e	0.009450091
90	0xbd1bbdcd	-0.038022805
91	0xbdec1cee	-0.115289554
92	0x3e18c400	0.14918518
93	0x3dc91368	0.098181546
94	0xbd511478	-0.05104491
95	0xbd9a9a8e	-0.0754901
96	0x3e3455a5	0.17610796
97	0xbe4dc8a0	-0.20096064
98	0xbcf2f171	-0.029656144
99	0xbe384406	-0.17994699
100	0xbe0cdce4	-0.13756138
101	0x3da8c7a8	0.082412064
102	0xbdb74afa	-0.089498475
103	0xbe25f75e	-0.16207644
104	0x3c12cb53	0.008959609
105	0x3e249e03	0.16075902
106	0x3d410d77	0.04713198
107	0x3d98311d	0.074312426
108	0x3df8d266	0.12149505
109	0x3e11ce92	0.14238957
110	0xbd1bef26	-0.038069867
111	0xbdb87ffe	-0.090087876
112	0x3e1cdf48	0.1531955
113	0x3e1f45e0	0.15553999
114	0xbdbf40a2	-0.093384996
115	0xbd866785	-0.065627135
116	0xbd8e47a8	-0.06947261
117	0x3cec5115	0.028847257
118	0x3df51a67	0.119679265
119	0x3e0c1295	0.13678963
120	0x3d44241e	0.047886007
121	0x3e0586f2	0.13039759
122	0xbd946f23	-0.0724776
123	0xbc89ae52	-0.016806755
124	0x3d0a6a3c	0.03379272
125	0x3e3d2e49	0.18474688
126	0xbd2d3390	-0.042285502
127	0x3af833d8	0.0018936349
128	0x3e2b6347	0.1673709
129	0xbd94f1e5	-0.072727
130	0x3e1ab93e	0.15109727
131	0xbe11458f	-0.14186691
132	0x3d2ad4b1	0.041706745
133	0xbccfffb3	-0.025390482
134	0x3df91526	0.12162237
135	0xbe00a50c	-0.1256296
136	0xbd7b2f71	-0.06132454
137	0xbd636afc	-0.05552195
138	0x3e183475	0.14863761
139	0xbe425e12	-0.18981197
140	0x3e2a72a4	0.16645294
141	0xbe4659bb	-0.19370167
142	0x3d95b514	0.073099285
143	0x3cf77d1f	0.03021103
144	0xbe0ac436	-0.13551411
145	0x3d8ea1ea	0.069644764
146	0xbdb00ab3	-0.08595791
147	0x3e134ec3	0.14385514
148	0x3ded2967	0.115801625
149	0xbcd580f8	-0.026062474
150	0x3de94286	0.113896415
151	0xbd4ce8c4	-0.05002667
152	0x3e1051fb	0.14093773
153	0xbe49a18d	-0.19690533
154	0xbcd37df2	-0.025816891
155	0xbe0f4954	-0.13992816
156	0x3ddfb666	0.109234616
157	0x3d38fce2	0.045163043
158	0xbdda0f8e	-0.10647498
159	0x3de7c33c	0.11316535
160	0x3e1f54aa	0.1555964
161	0x3d61f4d6	0.055165134
162	0x3d6cc89a	0.057808496
163	0x3de9add0	0.11410105
164	0x3df0b65e	0.11753534
165	0xbe24e08e	-0.16101286
166	0xbcb128dd	-0.02162593
167	0xbe167534	-0.14693147
168	0x3d866540	0.06562281
169	0xbdae35ef	-0.08506381
170	0x3be81aa4	0.007083254
171	0x39d72067	0.00041032137
172	0x3d184d83	0.037183296
173	0xbe1e87e1	-0.15481521
174	0x3d220134	0.03955193
175	0xbd9e594d	-0.077318765
176	0xbdadcb67	-0.084860615
177	0x3e226852	0.15860108
178	0xbe0ec089	-0.13940634
179	0x3dbf2267	0.093327336
180	0xbbefc2e6	-0.007316935
181	0x3c8c153a	0.017099965
182	0xbdc3be03	-0.09557726
183	0x3d319f9f	0.043365117
184	0xbe16d10d	-0.14728184
185	0xbc6284ed	-0.013825637
186	0xbe026165	-0.12732466
187	0xbcdc8f77	-0.026923878
188	0x3b7ce286	0.0038587167
189	0x3e117873	0.14206104
190	0x3d76abf2	0.060222574
191	0xbe0cfacb	-0.13767545
192	0x3d4b9d2a	0.04971043
193	0x3d231038	0.03981039
194	0x3d840fe5	0.06448344
195	0x3d867e3e	0.065670475
196	0xbe1b1824	-0.15145928
197	0x3e1646c6	0.14675435
198	0xbe37a347	-0.17933379
199	0xbddd5973	-0.10808077
200	0x3ba83ad5	0.0051339664
201	0x3d544a3a	0.0518286
202	0x3ce5589b	0.027996352
203	0x3e194961	0.14969398
204	0x3d81eef9	0.063444085
205	0x3e082ba2	0.13297895
206	0xbe109024	-0.14117485
207	0xb98042d3	-0.0002446385
208	0x3dd65d54	0.1046702
209	0x3d028391	0.031863753
210	0x3dedaaad	0.116048194
211	0x3e020f3c	0.12701124
212	0x3d6f45ed	0.058416296
213	0xbdec3d6b	-0.11535152
214	0xbd2ffb04	-0.042963997
215	0x3db8ed3c	0.09029624
216	0x3de38ab2	0.111104384
217	0xbe040bf5	-0.12895186
218	0x3e43b3cf	0.1911156
219	0xbdc17d01	-0.09447671
220	0x3e34516d	0.17609186
221	0x3d6bcbb8	0.05756733
222	0x3dd815b6	0.10551016
223	0xbe197663	-0.14986567
224	0x3cb80c66	0.02246685
225	0x3d454a74	0.048166707
226	0x3e3ae712	0.18252209
227	0x39e17e37	0.00043009382
228	0xbe0c9724	-0.1372953
229	0xbc926062	-0.017868225
230	0xbe2d6308	-0.16932309
231	0xbe447b9d	-0.1918778
232	0x3da93484	0.0826197
233	0xbcfecac7	-0.031102551
234	0x3d4343b5	0.047671992
235	0xbe105a93	-0.14097051
236	0x3ccc7366	0.02495737
237	0xbcda8119	-0.026672887
238	0xbdf918fe	-0.1216297
239	0x3dd69fe5	0.10479716
240	0xbe4f6b8e	-0.20255873
241	0xbe4081f2	-0.1879957
242	0xbdd161ae	-0.10223709
243	0x3e1eae66	0.15496215
244	0x3e144104	0.14477926
245	0x3d313767	0.043265726
246	0x3cb18786	0.021671068
247	0x3e524edb	0.20537893
248	0x3dee0651	0.116222985
249	0x3d835b8d	0.06413946
250	0x3e4ae130	0.19812465
251	0xbdd6963e	-0.10477875
252	0x3c37ba51	0.011213855
253	0x3d32a851	0.04361755
254	0x3dd188a0	0.10231137
255	0x3d0fbe3d	0.035093535

weight f4 [1, 32, 1]
0	0x3e0b4a3d	0.13602538
1	0xbd5b5938	-0.053551883
2	0xbe1d9bf5	-0.15391524
3	0x3d96e00a	0.07366951
4	0xbd7dcf5a	-0.061965324
5	0x3e1166c8	0.14199364
6	0x3d8c658c	0.06855306
7	0xbe21b2fc	-0.15790933
8	0xbdea4e69	-0.11440737
9	0x3da018d3	0.07817235
10	0x3e016017	0.12634312
11	0xbd830a94	-0.06398502
12	0xbe023eec	-0.12719315
13	0xbe1ef201	-0.15522005
14	0x3e28e11e	0.16492125
15	0x3e06796e	0.13132259
16	0xbddef4a1	-0.10886503
17	0x3e15da5b	0.14634077
18	0x3e0f3384	0.13984495
19	0xbdf46976	-0.119341776
20	0xbe21233c	-0.15736097
21	0xbd812bb2	-0.06307162
22	0xbe2e5ea2	-0.17028287
23	0xbc17bb71	-0.009260998
24	0x3e106ef5	0.14104827
25	0x3ddacff1	0.10684193
26	0xbdafc145	-0.08581785
27	0x3e22827b	0.15870087
28	0x3d4e2705	0.05033018
29	0x3dcbc193	0.09949031
30	0x3c29c8ed	0.010362846
31	0xbdb3b762	-0.08775212

weight f4 [1, 32, 1]
0	0x3d5d1a1f	0.05397999
1	0xbc827ae8	-0.015927747
2	0xbdc3e25c	-0.09564659
3	0xbdbe9e6d	-0.09307561
4	0xbd653aae	-0.055964164
5	0xbdbdf5b3	-0.09275379
6	0x3e31259c	0.17299503
7	0xbb83b54c	-0.004019415
8	0x3df29a44	0.1184583
9	0x3cefa011	0.02925113
10	0xbd0fe18d	-0.03512721
11	0x3e2697e4	0.16268879
12	0xbe06be4c	-0.1315853
13	0xbe156490	-0.14589143
14	0x3b9651af	0.004587374
15	0xbe0f0ee7	-0.13970529
16	0x3d95422b	0.07288011
17	0x3b4aa849	0.003092306
18	0xbe30c790	-0.17263627
19	0xbe03b666	-0.12862548
20	0xbe01ad4c	-0.12663764
21	0x3e1d47fb	0.1535949
22	0x3e25bcc4	0.1618529
23	0x3dc8e184	0.09808639
24	0x3df5f0cc	0.12008819
25	0x3cbb6309	0.022874372
26	0xbd45362f	-0.048147377
27	0x3dbc0aea	0.09181769
28	0x3dc1e92a	0.09468301
29	0x3d80397e	0.06260966
30	0x3dcd6078	0.100281656
31	0xbbe6de6c	-0.0070455577

weight f4 [1, 32, 1]
0	0x3d30b310	0.043139517
1	0xbd72fbdb	-0.05932222
2	0xbcd2d690	-0.025737077
3	0x3c937bbf	0.018003343
4	0x3e051b91	0.12998797
5	0xbdec7431	-0.11545599
6	0x3dd26bb4	0.10274449
7	0xbde65376	-0.11246388
8	0xbd7132ca	-0.058886327
9	0xbe32fc66	-0.17479095
10	0xbd970c02	-0.07375337
11	0x3d71a150	0.05899173
12	0xbe209b51	-0.15684249
13	0xbdf8ad5d	-0.121424414
14	0xbdb59f91	-0.088683255
15	0x3d22b0a9	0.039719258
16	0xbd7fe8c3	-0.06247784
17	0xbda1a743	-0.07893231
18	0xbd289207	-0.041154888
19	0xbcd80c42	-0.026373032
20	0xbe1b58b4	-0.15170556
21	0xbddff931	-0.10936201
22	0xbdaffe99	-0.085934825
23	0x3e066e05	0.13127907
24	0x3d917877	0.07103055
25	0x3d6b9e94	0.05752428
26	0xbdcb16df	-0.09916472
27	0x3d0e30c5	0.03471448
28	0xbe1928db	-0.14956991
29	0x3b9d05c3	0.0047919466
30	0xbe2110c2	-0.15729049
31	0xbd9ae1a0	-0.07562566

bias f4 [32]
0	0x3dabeaf2	0.08394422
1	0xbe0f3dae	-0.13988373
2	0xbd85c3b3	-0.06531467
3	0x3e0f7830	0.14010692
4	0x3d531edd	0.051543105
5	0xbd716566	-0.05893459
6	0xbdb5edd4	-0.08883253
7	0xbdd4bd4c	-0.10387668
8	0xbd5ef977	-0.054437127
9	0x3df8d1a2	0.12149359
10	0x3d108b72	0.035289235
11	0xbd8a7481	-0.067605026
12	0x3e05c406	0.13063058
13	0x3d20ba6a	0.03924028
14	0x3e17e0d0	0.14831853
15	0x3dcfb3f9	0.10141749
16	0x3defadce	0.117030725
17	0xbcf27179	-0.029595124
18	0xbd6f43dd	-0.05841433
19	0xbe196aa3	-0.14982085
20	0x3b059910	0.0020385422
21	0x3df599fe	0.11992262
22	0x3dbefea5	0.09325913
23	0x3ca91337	0.020639045
24	0xbd49b465	-0.049244303
25	0xbcec1916	-0.028820556
26	0xbd9eaf0c	-0.07748231
27	0x3ce3bbe5	0.027799556
28	0x3d1ebb19	0.03875265
29	0xbda43975	-0.080187716
30	0xbd806973	-0.06270113
31	0x3ddd8078	0.10815519

weight_orig f4 [32, 43, 1]
0	0xbdb4a1ae	-0.088199005
1	0xbbe594e7	-0.007006276
2	0xbdd06444	-0.10175374
3	0x3daade23	0.083431505
4	0xbca567d1	-0.020191105
5	0x3dbf41da	0.09338732
6	0xbba56587	-0.0050475034
7	0xbe113a75	-0.14182456
8	0xbdaf3065	-0.085541524
9	0xbcd946da	-0.026523042
10	0x3e1a798d	0.1508543
11	0xb7f38f52	-2.9034596e-05
12	0x3da3d08f	0.07998764
13	0xbe1b52bb	-0.15168278
14	0x3dc905b3	0.0981554
15	0x3c9d4ecb	0.01920261
16	0x3d355fda	0.044280864
17	0x3d096e36	0.03355237
18	0xbc370cc3	-0.011172476
19	0xbdb156fc	-0.08659169
20	0x3d135b5b	0.035975795
21	0x3e0759b3	0.13217811
22	0xbd1ebb14	-0.03875263
23	0xbde1ff94	-0.11035076
24	0x3d960124	0.07324436
25	0xbdde9ffd	-0.10870359
26	0x3de91701	0.11381341
27	0x3a9b83d5	0.001186485
28	0xbde6ad9b	-0.11263581
29	0x3c8a4e3e	0.016883012
30	0x3d623f19	0.055235956
31	0x3de9184f	0.113815896
32	0x3dc07b53	0.09398522
33	0x3d8001b1	0.062503226
34	0xbd8a8c8b	-0.06765088
35	0xbd9b32a5	-0.07578019
36	0xbd258af4	-0.04041572
37	0xbd6d1328	-0.057879597
38	0xbc117ea7	-0.008880294
39	0x3d237a54	0.039911583
40	0x3df172f5	0.117895044
41	0x3e15ef52	0.14642075
42	0xbdd2e363	-0.10297277
43	0x3cc66a26	0.024220537
44	0xbd931888	-0.07182413
45	0x3c77241c	0.015084293
46	0x3db9521d	0.09048865
47	0x3d7ac03c	0.061218485
48	0xbe087150	-0.13324475
49	0x3da81462	0.08207013
50	0x3dbf8f2e	0.09353481
51	0x3c582a39	0.01319366
52	0xbd804ab1	-0.06264246
53	0x3d4afa5b	0.049555164
54	0x3d9ab912	0.075548306
55	0xbbd9424a	-0.0066302167
56	0xbd7987c7	-0.060920503
57	0x3c20bbda	0.009810412
58	0x3c60bc71	0.013716803
59	0xbdc8614c	-0.09784183
60	0x3e0240e4	0.12720066
61	0x3e091ee0	0.13390684
62	0xbbfa75f3	-0.007643455
63	0x3b7c15d9	0.003846517
64	0xbe0a7825	-0.13522394
65	0xbacc7818	-0.0015599756
66	0x3b58868f	0.0033039188
67	0x3ddb8660	0.10718989
68	0xbdd1939f	-0.102332346
69	0x3e026ca3	0.12736754
70	0xbe0c39d3	-0.13693933
71	0x3e1317f1	0.14364602
72	0x3ddcefc6	0.10787921
73	0x3d3d4502	0.04620839
74	0xbd2af2e5	-0.04173555
75	0x3d9da0ad	0.07696662
76	0xbdd3a4ee	-0.10334192
77	0xbd0ab69e	-0.033865564
78	0xbd072e1b	-0.033002954
79	0xbdcd86f3	-0.10035505
80	0xbd985536	-0.07438128
81	0x3badd3d0	0.005304791
82	0x3e0cfa60	0.13767385
83	0xbdf72a09	-0.120685644
84	0x3dc56f14	0.09640327
85	0x3dab3b4c	0.08360919
86	0x3d97c7cd	0.07411156
87	0x3da9ff3f	0.083006375
88	0x3da2f43a	0.07956739
89	0x3d66ccad	0.056347538
90	0x3e015d11	0.12633158
91	0xbe18db4d	-0.14927407
92	0xbd562731	-0.05228347
93	0xbda712cc	-0.08157882
94	0xbdb45c1f	-0.08806633
95	0x3e0b2407	0.13587962
96	0xbd065cc2	-0.032803304
97	0xbd8d20ff	-0.06891059
98	0x3e08190a	0.13290802
99	0x3e1be13b	0.15222637
100	0x3da7df56	0.08196895
101	0x3e0bedd7	0.13664947
102	0x3e1287fa	0.14309683
103	0x3d94138b	0.0723029
104	0x3dccea6e	0.100056514
105	0xba453144	-0.0007522295
106	0x3d1f71ae	0.038926773
107	0x3db1effa	0.0868835
108	0x3d8bb228	0.0682109
109	0xbd41cec5	-0.04731633
110	0x3dbd5f2e	0.0924667
111	0x3dd0219c	0.101626605
112	0xbd884c50	-0.066551805
113	0xbdb59919	-0.08867092
114	0x3ab05203	0.0013452176
115	0x3c963846	0.01833738
116	0x3d48061f	0.048833963
117	0xbd8f8839	-0.07008404
118	0x3e07f32e	0.1327636
119	0x3d15c3a2	0.036563523
120	0xbe084b8a	-0.13310066
121	0xbdc955ee	-0.09830843
122	0xbc909961	-0.017651262
123	0xbd28a8c3	-0.04117657
124	0xbda0c57b	-0.078501664
125	0x3c958917	0.018253846
126	0x3cfe6c9b	0.031057646
127	0xbcd9914b	-0.026558539
128	0x3e06333e	0.13105485
129	0x3d8fa19e	0.07013248
130	0x3dbea345	0.09308485
131	0x3d5f5ac7	0.05452993
132	0xbe0c857c	-0.13722795
133	0x3dfebb80	0.124381065
134	0xbdfabdb9	-0.12243218
135	0xbd24cee9	-0.040236387
136	0xbd880858	-0.066422164
137	0xbdd9f043	-0.106415294
138	0x3e13e8fa	0.14444342
139	0xbc0357f0	-0.008016571
140	0xbc3d6fbc	-0.011562284
141	0x3d1d495d	0.038400043
142	0x3dab5cf7	0.08367341
143	0xbdc651c4	-0.09683564
144	0xbca118c6	-0.019665133
145	0x3ce138c5	0.02749289
146	0xbc7aad12	-0.015300052
147	0xbdb728e0	-0.08943343
148	0x3bc31a81	0.0059540872
149	0x3c5270fa	0.0128443185
150	0x3d036593	0.03207929
151	0xbdc4fb15	-0.096182026
152	0x3e0c25a8	0.1368624
153	0x3e1570be	0.14593789
154	0x3d81093d	0.0630059
155	0x3e08fa7e	0.13376805
156	0x3c89a0ac	0.016800247
157	0x3d579640	0.052633524
158	0xbd970d83	-0.07375624
159	0x3b628452	0.0034563732
160	0xbd2546ce	-0.040350728
161	0xbd88520d	-0.06656275
162	0xbe141b36	-0.14463505
163	0xbd8a7c1b	-0.067619525
164	0x3d44518d	0.047929335
165	0xbd8cee7e	-0.06881426
166	0xbdcdee6d	-0.10055242
167	0xbd756c6e	-0.05991786
168	0xbe0311a5	-0.127997
169	0xbd26990d	-0.040673304
170	0xbdbf4644	-0.09339574
171	0x3d4eaeb2	0.05045957
172	0xbe16d776	-0.1473063
173	0x3e0681ea	0.13135496
174	0x3d6a1b98	0.05715522
175	0xbd87e7b3	-0.0663599
176	0x3c39f499	0.0113498205
177	0x3db3130e	0.08743869
178	0xbdbd1e37	-0.09234279
179	0x3da43c72	0.080193415
180	0x3dea5057	0.11441105
181	0x3dd1cac3	0.10243752
182	0xbca7c852	-0.020481262
183	0x3da06d5c	0.07833359
184	0x3d369e95	0.04458483
185	0x3d5734bc	0.052540526
186	0x3dc4bb23	0.09606006
187	0xbe136fe1	-0.14398147
188	0x3ce8a6ce	0.028399851
189	0x3d1e84ea	0.038700975
190	0xbd43b621	-0.047781114
191	0xbdd266d0	-0.10273516
192	0x3d5efb0d	0.05443864
193	0xbdcd4adf	-0.10024046
194	0x3d99fb70	0.07518661
195	0xbc439c8c	-0.011939179
196	0xbe00da18	-0.12583196
197	0xbd48ebc3	-0.049052965
198	0x3ddd1c2e	0.107963905
199	0xbac736c4	-0.0015198817
200	0x3dbae870	0.09126365
201	0xbb7bff97	-0.0038451904
202	0xbda5ad7a	-0.08089729
203	0xbdc81236	-0.097690985
204	0xbdf18196	-0.11792295
205	0xbddb4bce	-0.10707818
206	0xbe055517	-0.1302074
207	0x3e05fd04	0.13084799
208	0x3af187a0	0.001842726
209	0xbdbd1890	-0.092332006
210	0x3da5d853	0.08097901
211	0x3d123202	0.035692222
212	0x3cdb24c4	0.02675093
213	0x3db76c7c	0.089562386
214	0xbdbba445	-0.09162191
215	0xbcf2cdb1	-0.029639097
216	0xbdf06562	-0.11738087
217	0xbd4631be	-0.04838728
218	0xbd21d7ea	-0.039512552
219	0x3de4cf8e	0.111724004
220	0xbcb5dd34	-0.022200204
221	0xbdc683c5	-0.09693102
222	0x3db6b597	0.08921354
223	0x3d803307	0.06259733
224	0x3b97de1c	0.004634632
225	0x3d990255	0.07471148
226	0xbbfd642f	-0.00773289
227	0xbc6f66da	-0.014611924
228	0x3d2f480b	0.042793315
229	0x3d215107	0.039383914
230	0xbdd2b495	-0.102883495
231	0xbdff04b0	-0.12452066
232	0xbde22187	-0.11041551
233	0xbd2ee4b2	-0.04269857
234	0xbbe240f5	-0.006904716
235	0xbd25bcf4	-0.040463403
236	0xbb698722	-0.0035633524
237	0xbe0798a1	-0.13241817
238	0x3d8bdacd	0.06828842
239	0xbe056152	-0.13025406
240	0x3e16ff36	0.14745793
241	0x3e1127e2	0.1417537
242	0x3df3e6de	0.11909269
243	0x3dca6520	0.09882569
244	0x3e08da37	0.13364492
245	0x3e054d14	0.13017684
246	0xbe0455d7	-0.1292337
247	0xbd38f66c	-0.04515688
248	0x3c959c04	0.01826287
249	0x3bc7477e	0.0060815206
250	0x3db397d1	0.08769191
251	0x3cf85aa3	0.030316656
252	0xbcf9200c	-0.030410789
253	0xbd8b78e9	-0.06810171
254	0x3dbd8062	0.09253003
255	0xbd82b131	-0.06381453

weight_u f4 [32]
0	0xbe861bb2	-0.26193005
1	0xbb628d3c	-0.0034569046
2	0xbe3d6a68	-0.18497622
3	0x3e2a48bf	0.16629313
4	0x3e25b8a5	0.16183718
5	0x3e4ab171	0.19794251
6	0x3dc23ba6	0.09484033
7	0x3d17d523	0.037068497
8	0xbe1428a6	-0.14468631
9	0x3be408f8	0.006959077
10	0xbda3ae35	-0.07992212
11	0xbc8d3872	-0.01723883
12	0x3e75deaf	0.24010728
13	0xbe3395f9	-0.17537679
14	0x3e18fc76	0.14940056
15	0x3c7dc543	0.015488925
16	0xbd4f32c2	-0.050585516
17	0x3e688229	0.22705902
18	0x3e0c79df	0.13718365
19	0xbd12c9e0	-0.035837054
20	0x3e9e56bc	0.30925548
21	0x3e1b664c	0.15175742
22	0x3da59bee	0.08086382
23	0x3dcef603	0.10105517
24	0x3cba76e0	0.022761762
25	0x3ed0343d	0.40664855
26	0xbe993aef	-0.29927775
27	0xbda65968	-0.08122522
28	0xbdec6b38	-0.11543888
29	0x3e8c2080	0.27368546
30	0x3ce5b2ea	0.028039414
31	0xbe9d5656	-0.30729932

weight_v f4 [43]
0	0xbdbac9f7	-0.09120553
1	0xbd277520	-0.040883183
2	0xbd8b5a30	-0.06804311
3	0x3d4a16a9	0.049338017
4	0x3d3e2476	0.04642149
5	0xbca15d58	-0.01969783
6	0x3c6959ab	0.01424257
7	0x3e945109	0.28968075
8	0x3da826d0	0.08210528
9	0x3a0742a7	0.0005159773
10	0xbc650115	-0.013977309
11	0x3e2f6819	0.17129554
12	0xbd8830de	-0.06649946
13	0x3be242ac	0.0069049206
14	0xbe850b1a	-0.25985032
15	0xbdeb1f1c	-0.11480543
16	0xbdf515d8	-0.11967057
17	0xbe0f1aaa	-0.13975015
18	0xbcb2d3ef	-0.021829573
19	0x3e286e5e	0.16448352
20	0x3d737584	0.059438244
21	0xbde07f5b	-0.10961791
22	0xbdbfd01b	-0.09365865
23	0x3c730a47	0.014833993
24	0xbe578bd5	-0.21049435
25	0x3ea7d294	0.32777846
26	0x3dd102ea	0.10205634
27	0x3e0d587f	0.1380329
28	0x3e34aa22	0.17643026
29	0xbd84dbfc	-0.06487271
30	0xbe38225d	-0.17981859
31	0xbe7dd68c	-0.24788874
32	0xbe4c9d2d	-0.19981833
33	0xbeba801f	-0.36425874
34	0x3d66b85c	0.056328163
35	0x3e6b941a	0.23005715
36	0xbe0e2add	-0.13883539
37	0xbe316147	-0.17322265
38	0xbe0d794f	-0.13815807
39	0xbe767f3f	-0.24071978
40	0x3c2b7517	0.010464928
41	0xbe112f27	-0.14178143
42	0xbd6ca7d1	-0.05777723

weight f4 [32, 43, 1]
0	0xbdaf7fbe	-0.08569287
1	0xbbdf6ef4	-0.0068186466
2	0xbdca7a9d	-0.09886668
3	0x3da5f5c0	0.08103514
4	0xbca0cda4	-0.019629307
5	0x3db9c450	0.09070647
6	0xbba110eb	-0.004915347
7	0xbe0d186c	-0.13778847
8	0xbdaa3617	-0.08311098
9	0xbcd3467c	-0.025790446
10	0x3e160bed	0.14652987
11	0xb832f7b1	-4.2669188e-05
12	0x3d9f1c97	0.07769125
13	0xbe16e5dc	-0.14736122
14	0x3dc34163	0.09533956
15	0x3c98b560	0.018641174
16	0x3d302177	0.043000665
17	0x3d0574ba	0.032582022
18	0xbc31c9f3	-0.010851371
19	0xbdac530e	-0.08414279
20	0x3d0f19a6	0.03493657
21	0x3e0378d5	0.12839063
22	0xbd1a3d61	-0.03765619
23	0xbddb905b	-0.10720893
24	0x3d91b191	0.07113946
25	0xbdd853c8	-0.10562855
26	0x3de266a3	0.11054733
27	0x3a956e18	0.0011400608
28	0xbde01c7b	-0.10942932
29	0x3c864076	0.01638816
30	0x3d5bb85f	0.053642627
31	0x3de2699e	0.11055301
32	0x3dbaff4c	0.09130725
33	0x3d78a33a	0.06070254
34	0xbd868ccd	-0.06569824
35	0xbd96c40f	-0.07361614
36	0xbd20c388	-0.039248973
37	0xbd66366d	-0.05620425
38	0xbc0d10b4	-0.008609939
39	0x3d1ec5ba	0.038762785
40	0x3dea91b0	0.11453569
41	0x3e11a23a	0.14222041
42	0xbdcce1ea	-0.10004027
43	0x3cc09e57	0.023513002
44	0xbd8edc17	-0.069755726
45	0x3c6fd59f	0.014638334
46	0x3db406f7	0.08790391
47	0x3d73992e	0.059472255
48	0xbe04881a	-0.12942544
49	0x3da34236	0.07971613
50	0x3dba1a97	0.09087103
51	0x3c524b5a	0.012835348
52	0xbd794392	-0.060855456
53	0x3d4526b3	0.04813261
54	0x3d965b88	0.07341677
55	0xbbd2bbbf	-0.0064310725
56	0xbd72618a	-0.05917505
57	0x3c1c0363	0.009522292
58	0x3c5a286b	0.0133153
59	0xbdc2a8dc	-0.095048636
60	0x3dfd0f3e	0.12356423
61	0x3e05378d	0.13009472
62	0xbbf2f7d5	-0.007414798
63	0x3b74c74f	0.0037350242
64	0xbe068052	-0.13134888
65	0xbac5f1d9	-0.0015101983
66	0x3b518ac8	0.003197359
67	0x3dd53800	0.10411072
68	0xbdcb8f00	-0.099393845
69	0x3dfd6108	0.12372023
70	0xbe083834	-0.1330269
71	0x3e0ee009	0.1395265
72	0x3dd69edb	0.10479518
73	0x3d37ca89	0.044870887
74	0xbd26181f	-0.040550347
75	0x3d99196d	0.07475553
76	0xbdcd9fde	-0.10040258
77	0xbd06b68f	-0.032888945
78	0xbd036522	-0.03207887
79	0xbdc7a4c6	-0.09748225
80	0xbd93fe4a	-0.07226236
81	0x3ba916b9	0.0051601795
82	0x3e08eec2	0.13372329
83	0xbdf01913	-0.117235325
84	0x3dbfc5d7	0.09363907
85	0x3da651ba	0.08121057
86	0x3d936a9d	0.07198069
87	0x3da52077	0.08062833
88	0x3d9e4967	0.07728844
89	0x3d6026f0	0.054724634
90	0x3dfb4ec5	0.122708835
91	0xbe147e96	-0.14501414
92	0xbd501100	-0.050797462
93	0xbda2535d	-0.079260565
94	0xbdaf2fd0	-0.085540414
95	0x3e0725d6	0.13198027
96	0xbd0292ef	-0.031878408
97	0xbd890d69	-0.06692011
98	0x3e043486	0.12910661
99	0x3e176964	0.14786297
100	0x3da317bd	0.07963512
101	0x3e07ea0a	0.13272873
102	0x3e0e543e	0.13899323
103	0x3d8fd35e	0.07022737
104	0x3dc71684	0.097210914
105	0xba40ff86	-0.0007362295
106	0x3d1ad857	0.037803974
107	0x3dace3b1	0.08441866
108	0x3d87afa6	0.06625299
109	0xbd3c5375	-0.04597803
110	0x3db7ee7a	0.08981033
111	0x3dca34b6	0.09873335
112	0xbd846d2a	-0.06466134
113	0xbdb06f5b	-0.08614989
114	0x3aa97c59	0.0012930735
115	0x3c91d5a3	0.017802065
116	0x3d4240c6	0.047425054
117	0xbd8b7186	-0.06808762
118	0x3e040bff	0.12895201
119	0x3d116eec	0.035506174
120	0xbe0468d4	-0.12930614
121	0xbdc39dce	-0.09551583
122	0xbc8c6582	-0.017138246
123	0xbd23ded5	-0.04000743
124	0xbd9c25bc	-0.07624385
125	0x3c9127cd	0.017719174
126	0x3cf73818	0.030178115
127	0xbcd3466a	-0.025790412
128	0x3e025a3e	0.12729737
129	0x3d8b8c4b	0.06813868
130	0x3db937e0	0.090438604
131	0x3d59062e	0.05298441
132	0xbe087e1e	-0.1332936
133	0x3df777b1	0.12083376
134	0xbdf38b92	-0.11891855
135	0xbd200c92	-0.039074488
136	0xbd841d77	-0.064509325
137	0xbdd3ac77	-0.103356294
138	0x3e0fb039	0.14032067
139	0xbbfec812	-0.007775315
140	0xbc37bcf8	-0.011214487
141	0x3d18d2d1	0.037310425
142	0x3da67cd0	0.08129275
143	0xbdc0a022	-0.09405543
144	0xbc9c6166	-0.019089412
145	0x3cdae745	0.026721606
146	0xbc737266	-0.014858818
147	0xbdb1e01a	-0.08685322
148	0x3bbe1c3f	0.005801707
149	0x3c4c9214	0.012486
150	0x3cff5942	0.031170491
151	0xbdbf5520	-0.09342408
152	0x3e0827a5	0.13296373
153	0x3e112e8e	0.14177915
154	0x3d7ac33c	0.061221346
155	0x3e0513d9	0.12995853
156	0x3c85c572	0.0163295
157	0x3d517c1c	0.05114375
158	0xbd92b41f	-0.071632616
159	0x3b5ccb9b	0.0033690694
160	0xbd20829b	-0.039187055
161	0xbd8467a9	-0.06465084
162	0xbe0fe27c	-0.1405124
163	0xbd868c8d	-0.06569777
164	0x3d3eb410	0.04655844
165	0xbd88efeb	-0.06686386
166	0xbdc806c8	-0.097669184
167	0xbd6e6854	-0.058204964
168	0xbdfe9fba	-0.12432809
169	0xbd21dae5	-0.039515395
170	0xbdb9c3bf	-0.09070539
171	0x3d48d328	0.0490295
172	0xbe128566	-0.143087
173	0x3e02ac17	0.1276096
174	0x3d6375ce	0.05553227
175	0xbd83ffde	-0.06445287
176	0x3c34c29f	0.011032729
177	0x3dadfa57	0.08495014
178	0xbdb7bed4	-0.089719445
179	0x3d9f9282	0.07791616
180	0x3de3a3bb	0.111152135
181	0x3dcbd31f	0.099523775
182	0xbca2f623	-0.019892758
183	0x3d9bd868	0.076096356
184	0x3d3163d2	0.043308087
185	0x3d510e2a	0.0510389
186	0x3dbf206e	0.09332357
187	0xbe0f36db	-0.1398577
188	0x3ce214ee	0.02759787
189	0x3d19f3f7	0.03758618
190	0xbd3e0714	-0.04639347
191	0xbdcc5e7f	-0.09978961
192	0x3d589b52	0.0528825
193	0xbdc76d60	-0.097376585
194	0x3d959a25	0.07304791
195	0xbc3de3f7	-0.011589996
196	0xbdfa541b	-0.12223073
197	0xbd432316	-0.047640882
198	0x3dd6cefb	0.10488697
199	0xbac04002	-0.0014667513
200	0x3db5941f	0.088661425
201	0xbb7443a5	-0.0037271765
202	0xbda0ec7f	-0.07857608
203	0xbdc2554f	-0.094889276
204	0xbdea9f9a	-0.11456223
205	0xbdd50e11	-0.104030736
206	0xbe017d41	-0.12645437
207	0x3e022b0f	0.12711738
208	0x3ae999f3	0.001782237
209	0xbdb7aba3	-0.08968284
210	0x3da1160b	0.078655325
211	0x3d0def74	0.03465219
212	0x3cd4c5ec	0.025973283
213	0x3db23507	0.087015204
214	0xbdb642c1	-0.08899451
215	0xbcebbb7c	-0.028775923
216	0xbde980db	-0.1140153
217	0xbd407506	-0.046986602
218	0xbd1d2f64	-0.038375273
219	0x3dde44fa	0.10853
220	0xbcb0b799	-0.021571921
221	0xbdc0d0ea	-0.09414847
222	0x3db17c0b	0.086662374
223	0x3d792512	0.06082637
224	0x3b939c86	0.004504743
225	0x3d94a82f	0.07258641
226	0xbbf64a3f	-0.007516175
227	0xbc68aa2f	-0.014200731
228	0x3d2a4cd8	0.04157719
229	0x3d1cc08b	0.03826956
230	0xbdcca817	-0.09992998
231	0xbdf7b10c	-0.12094316
232	0xbddba743	-0.10725262
233	0xbd29dc6b	-0.041469973
234	0xbbdc1ce1	-0.00671731
235	0xbd20fd44	-0.039304033
236	0xbb63d3e4	-0.0034763748
237	0xbe03ba93	-0.12864141
238	0x3d87e4bd	0.06635425
239	0xbe018cff	-0.12651442
240	0x3e12ac6e	0.14323589
241	0x3e0d03c7	0.13770972
242	0x3decee4c	0.11568889
243	0x3dc4a646	0.09602027
244	0x3e04f061	0.12982322
245	0x3e018281	0.1264744
246	0xbe008f65	-0.125547
247	0xbd339e65	-0.04385223
248	0x3c914acd	0.017735863
249	0x3bc1446a	0.005898048
250	0x3dae7c95	0.08519856
251	0x3cf11f10	0.029433757
252	0xbcf1f442	-0.029535417
253	0xbd878469	-0.06617052
254	0x3db820b1	0.089906104
255	0xbd7de592	-0.061986513

weight f4 [1, 32, 1]
0	0x3cb9a9d1	0.022663983
1	0xbd5cb7c1	-0.05388618
2	0xbd1cbb7d	-0.03826474
3	0x3d91abcb	0.07112845
4	0x3e2c159c	0.16805118
5	0xbe258f2a	-0.16167894
6	0xb994b818	-0.0002836592
7	0x3dad9697	0.08475988
8	0xbe3149d3	-0.17313318
9	0x3c790d6b	0.015200953
10	0x3dbcc9f4	0.09218207
11	0xbd4ca6cd	-0.04996376
12	0x3c783eea	0.015151719
13	0xbd377c87	-0.044796493
14	0xbad25629	-0.0016047406
15	0xbe15e7bf	-0.14639185
16	0x3c494ec5	0.0122868465
17	0xbcfee50d	-0.03111508
18	0x3dd0de74	0.101986796
19	0xbd139ae2	-0.03603638
20	0xbe198c90	-0.14995027
21	0xbdd11a0c	-0.10210046
22	0x3e27d960	0.16391516
23	0x3deb40b2	0.11486949
24	0xbd21781d	-0.03942119
25	0xbd96ef82	-0.07369901
26	0x3e119e9f	0.14220665
27	0x3d2ebb38	0.042659014
28	0x3ce6ce2d	0.028174484
29	0x3e322c60	0.1739974
30	0xbdc2e303	-0.09515955
31	0xbe061040	-0.13092136

weight f4 [1, 32, 1]
0	0x3e120c92	0.14262608
1	0xbd0372f2	-0.032092042
2	0xbe131070	-0.14361739
3	0x3dad26e6	0.08454685
4	0xbe18f9d6	-0.14939055
5	0x3d8d2906	0.0689259
6	0xbca4dc1c	-0.020124488
7	0xbdba4380	-0.09094906
8	0xbcddcfd6	-0.027076643
9	0x3d6079a9	0.054803524
10	0xbc84182b	-0.016124805
11	0xbc37b34e	-0.011212183
12	0xbda1cdf9	-0.07900614
13	0x3e069e1d	0.13146253
14	0xbe10edca	-0.1415321
15	0x3cc9a5b6	0.02461515
16	0x3bdeaca6	0.0067954836
17	0xbe2d2c89	-0.1691152
18	0x3d8650fa	0.06558414
19	0xbdc2c707	-0.09510618
20	0xbe0d52be	-0.13801095
21	0x3e114abe	0.14188668
22	0x3d74ea24	0.059793606
23	0xbe28db36	-0.16489872
24	0x3d7ecb05	0.062205333
25	0x3ce1d83b	0.027568927
26	0x3dc5c861	0.0965736
27	0xbd9b7d10	-0.07592213
28	0xbc6c1d8e	-0.014411343
29	0x3ddd97c6	0.10819964
30	0xbe0df3a9	-0.1386248
31	0xbd51ecf4	-0.051251367

weight f4 [1, 32, 1]
0	0xbe09df90	-0.13464189
1	0xbd80833d	-0.06275032
2	0x3df479b5	0.11937276
3	0x3dc7c0d4	0.09753576
4	0xbe3030cd	-0.17206116
5	0xbc64647d	-0.013939974
6	0xbdd403e6	-0.10352306
7	0xbe286b98	-0.16447294
8	0xbdf8cc10	-0.12148297
9	0xbd7439f5	-0.059625585
10	0xbdc41549	-0.09574372
11	0x3e0c6131	0.1370895
12	0xbe06fd9f	-0.13182686
13	0x3d96364d	0.07334576
14	0xbe08d6ec	-0.13363236
15	0x3df7f284	0.12106803
16	0x3c4ec367	0.01261983
17	0xbdb1792e	-0.08665691
18	0xbdd3e468	-0.103462994
19	0xbd8b21df	-0.0679357
20	0xbd866ce1	-0.06563736
21	0x3e053755	0.13009389
22	0x3cdae6cb	0.026721379
23	0xbe1d33fe	-0.15351865
24	0xbd02aa39	-0.03190062
25	0x3d05dede	0.032683246
26	0xbe2285ee	-0.15871403
27	0x3d73d5dc	0.059530124
28	0x3dd2371f	0.1026442
29	0xbd940051	-0.07226623
30	0xbe1cd8e5	-0.15317114
31	0x3cf48874	0.029850222

bias f4 [32]
0	0x3d3bc4ef	0.045842107
1	0x3cd85758	0.026408836
2	0xbd327985	-0.04357292
3	0x3dc39e8e	0.09551726
4	0x3dda644a	0.1066366
5	0x3d8a6358	0.067572296
6	0xbc133c6c	-0.008986574
7	0xbd59e93c	-0.053200945
8	0xbdd02776	-0.101637766
9	0xbe024509	-0.12721647
10	0x3d0a6185	0.033784408
11	0x3dcb4630	0.099254966
12	0xbcf5b532	-0.029993627
13	0xbdc2434b	-0.09485491
14	0xbd895cb0	-0.06707132
15	0xbdb10f92	-0.08645548
16	0xbdc44ec9	-0.095853396
17	0x3d3f346d	0.046680856
18	0xbb527588	-0.003211351
19	0xbd729379	-0.059222672
20	0xbd97af83	-0.07406523
21	0x3cc51bcb	0.024061104
22	0x3d94f487	0.072732024
23	0xbe16f301	-0.14741136
24	0xbe160a21	-0.14652301
25	0x3da9fa31	0.08299673
26	0x3d37b8bb	0.044853907
27	0x3dd9f793	0.10642924
28	0x3e13c042	0.1442881
29	0x3d858082	0.065186515
30	0xbdb825f7	-0.08991616
31	0xbe18fad4	-0.14939433

weight_orig f4 [32, 43, 1]
0	0x3d6c9da8	0.05776754
1	0xbd6977ea	-0.056999125
2	0x3dd60d42	0.104517475
3	0xbdf85c9a	-0.12127037
4	0x3da32303	0.07965662
5	0x3d200118	0.039063543
6	0x3d00cb87	0.0314441
7	0xbd99174b	-0.07475146
8	0xbd1b4662	-0.03790892
9	0xbdeb017b	-0.11474892
10	0x3dd439ac	0.103625625
11	0x3e0a4606	0.13503274
12	0x3e01e156	0.12683615
13	0x3c74bf34	0.0149381645
14	0x3e1330af	0.1437404
15	0xbd129327	-0.035784867
16	0x3e01c952	0.12674454
17	0xbe04ef98	-0.12982023
18	0xbda96e08	-0.0827294
19	0xbd5d336f	-0.05400413
20	0xbd914d7c	-0.07094857
21	0x3da8d938	0.08244556
22	0x3dc93959	0.09825391
23	0x3d900bc7	0.07033496
24	0x3cfa8d8c	0.030585073
25	0xbdd8e837	-0.105911665
26	0x3e1a2891	0.15054537
27	0xbe17e446	-0.14833173
28	0xbd9cb141	-0.07650996
29	0xba61f83f	-0.00086200604
30	0xbd7ab883	-0.06121112
31	0xbca3e653	-0.020007288
32	0xbde3fa6b	-0.11131748
33	0xbd9f1778	-0.07768148
34	0xbe053132	-0.13007048
35	0x3bacbb41	0.005271346
36	0xbd40ccdf	-0.04707038
37	0x3c8e7733	0.017390823
38	0x3b09aeaa	0.002100865
39	0xbd92f27d	-0.07175157
40	0xbe063c63	-0.13108973
41	0x3dbfc39c	0.093634814
42	0x3ce245eb	0.02762123
43	0x3cf77d67	0.030211164
44	0x3dac8b2d	0.08424983
45	0xbce9fec6	-0.028563868
46	0x3dc6b561	0.09702564
47	0xbe08e792	-0.13369587
48	0xbc80f31c	-0.015740924
49	0xbd2c38e4	-0.042046443
50	0x3cabd523	0.020975655
51	0xbde33708	-0.11094481
52	0xbd9c4abb	-0.07631441
53	0x3d368cf7	0.04456803
54	0x3e06463f	0.13112734
55	0x3c95cc79	0.018285977
56	0xbdeb304d	-0.11483822
57	0x3dccb06a	0.09994586
58	0xbd86a654	-0.06574693
59	0x3d056ca0	0.032574296
60	0xbd1f5419	-0.03889856
61	0x3e0c5beb	0.13706939
62	0x3d2f5dd7	0.042814102
63	0xbe0a1dfe	-0.13488004
64	0x3d82de77	0.06390088
65	0x3d8db7c6	0.069198176
66	0xbd0b7e11	-0.034055773
67	0x3d1aaf04	0.037764564
68	0x3c642883	0.013925674
69	0x3da91df1	0.08257664
70	0xbdac0a1b	-0.08400365
71	0x3dbbfbbc	0.09178874
72	0xbd9058bd	-0.070481755
73	0xbc9a4c2c	-0.01883515
74	0xbe1b2b3c	-0.15153211
75	0xbdef6064	-0.11688307
76	0x3ddb10c6	0.10696559
77	0x3df95d99	0.121760555
78	0x3e0ab5ea	0.13545957
79	0x3e05cba1	0.1306596
80	0xbc3b017d	-0.011413929
81	0x3e0143c5	0.12623508
82	0xbd7e8ce8	-0.062146097
83	0x3de75f9d	0.11297534
84	0xbd852e29	-0.06502945
85	0xbda7dc94	-0.08196369
86	0xbdc25955	-0.09489695
87	0xbd219d30	-0.039456546
88	0xbd704bf8	-0.0586662
89	0x3dab1281	0.08353139
90	0xbdf0b8fa	-0.117540315
91	0x3d7f3b10	0.062312186
92	0xbd362921	-0.044472817
93	0x3d9ebcfb	0.07750889
94	0x3dc5eb81	0.096640594
95	0xbe054492	-0.13014439
96	0xbd8b1561	-0.06791187
97	0x3da6f41e	0.081520304
98	0x3de40c83	0.11135199
99	0xbcc17098	-0.02361326
100	0xbd2e6833	-0.04257984
101	0xbd4e1fc3	-0.05032326
102	0xbd354284	-0.044252887
103	0xbd0ddce2	-0.03463448
104	0x3d9d6124	0.07684544
105	0xbdfc7796	-0.12327497
106	0x3d73a996	0.0594879
107	0x3ca97e72	0.020690177
108	0x3db0394a	0.08604677
109	0xbe1c6302	-0.15272143
110	0x3dd8d3df	0.10587286
111	0x3df2ff68	0.11865121
112	0xbd4c3925	-0.049859185
113	0xbe0418ad	-0.12900038
114	0xbdda07a6	-0.1064599
115	0x3df1bceb	0.11803611
116	0xbde4be01	-0.11169053
117	0xbd638af1	-0.055552427
118	0x3d9072ff	0.07053184
119	0xbd22a1ee	-0.03970521
120	0x3df1ec00	0.118125916
121	0xbd809474	-0.06278315
122	0xbd190c37	-0.037365165
123	0xbcf93446	-0.030420434
124	0x3d72f462	0.059315093
125	0x3e13f0a3	0.14447264
126	0xbe108d3d	-0.14116378
127	0xbdcaee13	-0.0990869
128	0xbdccb9af	-0.09996354
129	0x3a430468	0.0007439316
130	0xbd175cfe	-0.03695392
131	0x3d417a33	0.04723568
132	0x3de5d22b	0.11221727
133	0xbd970810	-0.07374585
134	0x3cac5f46	0.021041524
135	0x3dc2c95e	0.09511064
136	0x3e176aac	0.14786786
137	0x3d890ade	0.06691526
138	0x3e129bab	0.14317195
139	0x3ae70701	0.0017625989
140	0xbd97608f	-0.07391464
141	0x3d9cf085	0.07663063
142	0xbde44041	-0.11145068
143	0xbc7cd3f5	-0.015431394
144	0xbbc66d4f	-0.006055511
145	0xbb72583d	-0.0036978864
146	0xbd64602e	-0.055755787
147	0xbae09296	-0.001713353
148	0x3e1aed79	0.15129651
149	0xbd13f897	-0.036125746
150	0x3d0723be	0.03299307
151	0xbd829318	-0.06375712
152	0x3e161545	0.14656551
153	0x3d00d6f8	0.03145501
154	0xbd7018ea	-0.05861751
155	0x3d88684b	0.06660517
156	0x3d0a3b67	0.033748057
157	0xbe168d35	-0.14702304
158	0xbe035897	-0.12826763
159	0x3c184120	0.009292871
160	0xbd7cc23a	-0.061708666
161	0xbd3ec5b1	-0.046575252
162	0xbddeb58b	-0.1087447
163	0xbdd55bc9	-0.10417897
164	0xbdc17607	-0.0944634
165	0xbd3250e2	-0.043534167
166	0x3d348020	0.044067502
167	0x3dca28cc	0.09871063
168	0x3de1aa27	0.11018782
169	0x3ccae58f	0.024767665
170	0x3d0d0e41	0.03443742
171	0x3dc24564	0.094858915
172	0xbd70cea9	-0.058790836
173	0xbd162082	-0.036652096
174	0x3d9ba246	0.075993106
175	0x3d9e356f	0.077250354
176	0x3df46d6e	0.119349346
177	0x3dd1edcc	0.10250434
178	0x3cb8e5d4	0.022570528
179	0xbcc22560	-0.023699462
180	0x3d2fbf33	0.04290695
181	0x3debacf7	0.115076
182	0x3c862ece	0.01637974
183	0xbc874877	-0.016514046
184	0x3d9adaa0	0.07561231
185	0x3e10c6e2	0.14138368
186	0x3dfa35c0	0.12217283
187	0x3d2054a1	0.03914321
188	0xbde05ead	-0.10955558
189	0xbe1750a7	-0.1477686
190	0x3df44826	0.11927824
191	0x3df4220a	0.11920555
192	0x3e106bbb	0.14103596
193	0x3dd0aa3d	0.101887204
194	0x3d9e42e2	0.07727601
195	0x3c84863c	0.01617729
196	0x3daf3121	0.085542925
197	0xbddb6033	-0.10711708
198	0x3c94716c	0.01812049
199	0xbd84d425	-0.06485776
200	0xb9463c7c	-0.00018905284
201	0xbcf3d1c4	-0.02976311
202	0xbddc1938	-0.107469976
203	0xbc39cf62	-0.011340948
204	0x3e0d232b	0.13782947
205	0x3dd4bdf4	0.10387793
206	0xbcca32c2	-0.024682406
207	0x3d02ca26	0.031931065
208	0x3ddd02b2	0.1079153
209	0xbd83db9a	-0.0643837
210	0x3d2d73db	0.042346817
211	0x3e0f12e0	0.13972044
212	0xbd8bcb85	-0.06825928
213	0x3d4a277f	0.049354073
214	0x3b5a20c9	0.0033283702
215	0xbe19b10a	-0.15008941
216	0xbdda9221	-0.10672403
217	0x3d7ca0fc	0.061676964
218	0xbdacd504	-0.08439067
219	0x3d0ead33	0.034833144
220	0xbda763b7	-0.08173316
221	0xbcdd0139	-0.026978122
222	0x3cafb9c5	0.021450887
223	0xbe14bcd3	-0.14525156
224	0x3dce7740	0.10081339
225	0xbd383562	-0.044972785
226	0x3dadde4f	0.084896676
227	0xbdd76cbf	-0.105187885
228	0xbe01c1f5	-0.12671645
229	0x3e137d9f	0.1440339
230	0x3db31b86	0.08745484
231	0x3bf00eb9	0.007325974
232	0x3da9b52f	0.08286511
233	0x3e02c59c	0.12770694
234	0xbdb79c18	-0.089653194
235	0xbd973492	-0.07383074
236	0xbcc0982d	-0.023510063
237	0x3d6f8a65	0.058481593
238	0xbd31c8ff	-0.043404575
239	0x3d463b85	0.048396606
240	0xbe024394	-0.12721092
241	0xbd773e5d	-0.06036221
242	0xbe00100e	-0.12506124
243	0x3e05c8d9	0.13064899
244	0x3c1b06e7	0.009462095
245	0x3d71dd3b	0.059048872
246	0xbe0afafc	-0.13572305
247	0xbaf5b5b5	-0.001874617
248	0xbe15206f	-0.14563154
249	0x3ddc97c8	0.107711375
250	0x3b80209e	0.0039101383
251	0xbcb672de	-0.02227157
252	0x3d5015f1	0.050802175
253	0x3d017cda	0.03161321
254	0xbd9d837d	-0.07691095
255	0xbdaec75c	-0.085341185

weight_u f4 [32]
0	0x3c4de3f7	0.012566558
1	0xbeaff231	-0.34364465
2	0xbdb11c3b	-0.08647963
3	0x3e46676d	0.19375391
4	0x3deb170d	0.11479006
5	0xbdd43d76	-0.10363285
6	0x3e3f4ce4	0.18681675
7	0xbe9ce8f0	-0.30646467
8	0x3d9a7744	0.07542279
9	0xbd5606ca	-0.05225257
10	0x3d95676e	0.07295118
11	0x3e56f58a	0.20992103
12	0xbdf93e1f	-0.12170052
13	0x3e8fc932	0.28083187
14	0xbd80073f	-0.06251382
15	0x3e62b2d1	0.22138526
16	0x3df1a0b4	0.1179823
17	0x3e3ab0e3	0.1823154
18	0x3d1a13f9	0.037616704
19	0x3e4470a0	0.19183588
20	0x3e43b426	0.1911169
21	0x3d362064	0.044464484
22	0xbeab0cd3	-0.33408222
23	0xbba4951b	-0.0050226576
24	0x3cc3ce20	0.023901999
25	0x3da6d9a0	0.081469774
26	0xbe8955f1	-0.2682338
27	0x3e5985bb	0.2124242
28	0x3e9172c0	0.2840786
29	0x3e3ee0f2	0.18640497
30	0xbc21b258	-0.009869181
31	0x3d857cdd	0.065179564

weight_v f4 [43]
0	0xbe05a986	-0.1305295
1	0xbdaa05f6	-0.08301918
2	0xbb841ace	-0.0040315157
3	0x3dbfe173	0.09369173
4	0x3e1adce9	0.15123333
5	0xbe35c6e7	-0.17751656
6	0xbccdf251	-0.02513996
7	0xbe1b4184	-0.15161711
8	0x3eb25a2d	0.34834424
9	0x3e827525	0.2548
10	0xbe4ebbeb	-0.20188873
11	0xbe14bc3f	-0.14524935
12	0x3e4cab64	0.19987255
13	0x3dd3b44b	0.103371225
14	0xbd477107	-0.048691776
15	0x3e15121c	0.1455769
16	0x3e359fa5	0.17736681
17	0xbcc57c02	-0.024106983
18	0x3d62db1f	0.05538475
19	0x3e1571c7	0.14594184
20	0x3e1c897e	0.15286824
21	0xbdbfccb9	-0.093652196
22	0xbced8a72	-0.02899668
23	0x3e0d4d0f	0.13798927
24	0xbdcb2031	-0.099182494
25	0xbe210cba	-0.15727511
26	0x3d0e4bdd	0.034740318
27	0x3e5c2928	0.21500075
28	0xbe00efbf	-0.12591456
29	0xbd3f88a7	-0.04676118
30	0xbe3f6eed	-0.18694659
31	0x3d8730cc	0.06601104
32	0xbca15adb	-0.019696644
33	0xbe4f4955	-0.20242818
34	0xbe8f9fd2	-0.2805162
35	0xbe8e4d64	-0.2779342
36	0xbd709859	-0.05873904
37	0xbd4b0743	-0.049567472
38	0xbe8a8820	-0.2705698
39	0x3dcf39d1	0.101184495
40	0xbdaf6008	-0.085632384
41	0x3dde62cf	0.1085869
42	0x3decfe1c	0.11571905
